model/datten/6h_vs_8z/8_vdn_net_params.pkl (torch, 340629 bytes, 43 tensors)

atten_w.keys_nn.0.weight f4 [64, 4]
000000 67 77 c2 bd f4 d3 c3 3e 05 33 2f be a0 8c 99 3e
       -0.094954304 0.38247645 -0.17109306 0.299901
000010 5f 92 3a 3c 29 a1 b5 bd 0c fa 9f 3e 45 a0 2c bf
       0.011387437 -0.088686295 0.31245458 -0.6743205
000020 e4 e3 8c 3d d0 d1 30 be aa ec e5 3e e0 33 33 bf
       0.06879404 -0.17267537 0.44907123 -0.7000103
000030 d9 a6 03 bf 2b 61 d2 3e f9 c4 3b 3e 5e f3 f5 be
       -0.51426464 0.41089758 0.18336858 -0.48037237
000040 31 b6 e7 bd be 49 7c bd 20 07 39 3f 49 a2 1b bd
       -0.11314047 -0.061593764 0.72276497 -0.037996564
000050 c4 aa c9 be 92 52 17 3c 35 10 46 bf 47 5f b7 bd
       -0.39388096 0.009235995 -0.7736848 -0.089537196
000060 f5 54 f4 3e 3f e5 d4 be 0a fc e7 be a3 73 47 3f
       0.47721067 -0.4158115 -0.45309478 0.7791082
000070 4f 4f e0 3e 2c ce 4b be e9 6d 0b 3e a6 31 05 3f
       0.43810508 -0.19902867 0.13616146 0.5202888
000080 53 6c 34 bd d8 ef 35 3e 0e f5 47 bf ae 71 3d be
       -0.04404862 0.17767274 -0.781083 -0.18500397
000090 71 a7 cb be 4b 26 8b 3e f8 f0 6b be 74 60 28 bf
       -0.39776185 0.27177653 -0.23041141 -0.65772176
0000a0 66 b1 4a 3e fa ea 09 3c 1e ee c6 be b0 af 26 3f
       0.19794235 0.008417839 -0.38853544 0.6511183
0000b0 1d 6c c0 3e 47 34 44 3d b3 59 18 3f a3 1a c2 3d
       0.37582484 0.047901418 0.5951187 0.09477737
0000c0 17 81 ec bd e3 6a 82 3d 5f db 73 3d d8 2e fc be
       -0.115480594 0.06368043 0.05953538 -0.4925449
0000d0 04 b6 91 be 4c 12 0c bf 0b ec 85 3f 0f 08 9b 3e
       -0.2845918 -0.5471542 1.046266 0.30279586
0000e0 b2 07 7b be cd a5 37 be e8 a6 bb 3e 8e d4 45 bf
       -0.24514654 -0.17934342 0.36650777 -0.7727746
0000f0 3c 07 35 3c 95 3c ae be cb a2 ea be e2 2b fa be
       0.011049088 -0.34030595 -0.45827326 -0.48861605
000100 f6 67 e1 3d 90 df 9c bd 69 3f 35 bf 3e 3d 36 bf
       0.11006157 -0.07659829 -0.7079988 -0.711872
000110 ed 86 60 3e e7 c4 45 bd fe 40 39 3f b8 87 93 3d
       0.2192647 -0.048283484 0.72364795 0.07203621
000120 7b f0 eb be d7 af 90 3e fd 71 b4 be da c8 e4 be
       -0.4608191 0.28259155 -0.35243216 -0.44684488
000130 1e 14 84 3e a2 01 d4 3c c5 f5 8a 3e 15 e6 f9 3e
       0.25796598 0.025879685 0.27140632 0.4880835
000140 20 56 86 3e af 3d 55 bd 3b d9 41 3f b5 1c d1 3e
       0.26237583 -0.05206078 0.7572209 0.40842214
000150 1c d4 c9 3e 13 31 18 be 64 86 c2 3e 6b e6 1d 3f
       0.3941964 -0.1486247 0.37993157 0.61679715
000160 a1 fe 9f 3d 84 d3 5d 3e a9 ad 4e 3f ba 9e 75 be
       0.078122385 0.21662718 0.80733734 -0.2398633
000170 bf 22 b4 3e d7 95 30 be a2 75 00 bd a3 e5 b6 bc
       0.3518276 -0.1724466 -0.031362183 -0.022326296
000180 27 9c 8c 3d 98 f1 b8 bd c2 b3 9b be 98 0d de be
       0.06865721 -0.09030455 -0.30410582 -0.43369746
000190 62 2f 8c 3e ae 6a 82 3e 52 8a 1f 3f a9 f6 a3 bd
       0.273799 0.25472015 0.62320435 -0.08006031
0001a0 40 b9 1c bc b4 d5 6d be bb ba f8 be d4 8c 48 bf
       -0.009565651 -0.23226053 -0.48579964 -0.78339887
0001b0 65 95 fb 3d b1 88 b0 bd 0b 09 15 bf 5e 8b 54 bf
       0.12284354 -0.08619822 -0.58216923 -0.8302516
0001c0 e2 da 9e 3b 19 ca 7c be b1 b7 56 3f 2e 3f 58 3e
       0.00484787 -0.24686469 0.8387404 0.21117851
0001d0 7e 82 98 be c9 2c d6 3e 0a 5f 22 be 3f 22 78 3d
       -0.29787058 0.41831043 -0.15856567 0.060579535
0001e0 ca e9 eb be 1c 33 ab ba d5 ff 21 3b 4c c3 7b bd
       -0.46076804 -0.0013061496 0.0024719138 -0.061465546
0001f0 2a c5 33 bd b2 63 61 3e 90 46 38 3e e0 64 1c 3d
       -0.043889202 0.22010687 0.17995667 0.03818214
000200 47 27 88 3e dc 87 1a bd c3 58 af be bc 0a f4 3e
       0.26592466 -0.03772722 -0.34247407 0.4766444
000210 39 d0 74 3e 98 26 98 bd 5b e0 00 3f f1 04 86 3e
       0.23907556 -0.07429236 0.5034234 0.26175645
000220 5f 42 3a be 2a 52 2e 3e 26 63 4f bf 20 e6 9c 3e
       -0.18189381 0.1702353 -0.81010664 0.3064432
000230 4c 75 81 be 97 bd fb 3e e8 98 38 bf 27 2d ba be
       -0.25284803 0.49168083 -0.72108316 -0.36362574
000240 87 b2 93 3d 72 39 95 3e 3d 09 03 bf d7 4f d2 3e
       0.07211786 0.2914539 -0.5118597 0.41076538
000250 71 34 15 bd 9e f7 93 be 5e dd d6 3e ed 29 11 bf
       -0.036426965 -0.28899854 0.41965765 -0.567046
000260 d7 9f 76 3e 9e 40 85 3e fa 26 1c be fa eb 4d 3f
       0.24084412 0.26025862 -0.15249243 0.80438197
000270 4e 02 5a be 8f 55 3d 3e 0b 5f 1b 3f 06 b8 ab be
       -0.21289942 0.1848967 0.606919 -0.33538836
000280 95 82 74 be b9 b4 5b be 45 87 ab be 70 be 2c bf
       -0.23877938 -0.21455659 -0.3350164 -0.67478085
000290 f1 8d 73 3e 85 b1 aa be c1 1d 00 be 49 2d a5 3d
       0.23784615 -0.33338562 -0.1251135 0.08065278
0002a0 ad d6 e9 bd ff 8a ce bc c9 53 0b be bc df f6 3b
       -0.11417899 -0.025212763 -0.1360618 0.0075339954
0002b0 76 bf d8 be db ae 99 3e f1 83 91 be 7d 3b 08 bf
       -0.42333573 0.30016217 -0.28420976 -0.5321577
0002c0 35 8f a1 3e 0a b8 8c 3e 11 f7 1b bb 5b bb c6 3e
       0.3155457 0.2748416 -0.0023798386 0.38814816
0002d0 56 9c 3c be 07 5b 97 be 51 0e f2 bd 24 a8 2f bf
       -0.18419012 -0.29561636 -0.11819137 -0.6861594
0002e0 c4 6c 78 3d c0 37 85 3e 89 c6 0b 3f 46 14 d8 be
       0.060650602 0.26019096 0.54599816 -0.42202967
0002f0 5f 3b 1d 3e 58 f7 fc be d2 d0 29 3f 2f a7 a0 3e
       0.1535468 -0.49407458 0.6633426 0.3137755
000300 f7 de 9d be e3 92 b0 bd 05 de 5c bd d9 02 46 bf
       -0.3083417 -0.086217664 -0.05392267 -0.77348095
000310 f6 c6 85 3e ad cd 93 bc 78 ae 89 3e 51 c2 12 3f
       0.26128358 -0.01804241 0.26890922 0.57327753
000320 47 53 05 3f 35 c9 09 bf c2 03 9e be e7 fd 5d 3d
       0.52080196 -0.5382264 -0.30862242 0.05419722
000330 78 b9 30 3e fa 9b 80 3e d0 10 ab 3e 48 fc 0f 3f
       0.1725825 0.25119 0.33411264 0.56244326
000340 21 85 e5 bc cf a5 ae be 61 65 d8 3e 21 b1 11 bd
       -0.028017582 -0.34110877 0.42264846 -0.035569314
000350 98 3c a6 be 00 75 e8 be e6 c1 a0 3e 62 2c 4b bf
       -0.32468104 -0.45401764 0.31397933 -0.793646
000360 e8 c6 93 3e 64 45 2b be 41 d0 73 be 3d 41 07 3e
       0.2886269 -0.16725689 -0.23809911 0.1320848
000370 96 87 b8 3e 33 df d3 be be 5f 01 3f f9 5b 0e 3d
       0.36040944 -0.41381225 0.50536716 0.03475568
000380 fc 0d 52 3e 3c 31 aa bd ca 70 14 bf cc e2 10 3f
       0.20513147 -0.08310172 -0.579846 0.56596065
000390 ba da 85 3e b5 c3 4a 3e 78 5f a2 3e 20 5c 36 3f
       0.26143438 0.19801219 0.31713462 0.7123432
0003a0 51 f5 22 3e 64 d5 cd be a7 64 0a bf 52 80 d4 be
       0.15913893 -0.40201867 -0.54059833 -0.4150415
0003b0 82 f5 ae 3e 9a 49 e0 be 3a 30 47 bf 80 22 15 3e
       0.34171683 -0.43806154 -0.7780796 0.14563942
0003c0 ae 9d 86 be 58 4c 79 3e 50 7b d9 3e 6c eb 30 bf
       -0.26292175 0.24345529 0.42476892 -0.69109225
0003d0 5f 7c a2 be 00 80 b4 3d 01 1e 21 3f a9 73 d4 be
       -0.31735513 0.088134766 0.6293641 -0.41494492
0003e0 e5 79 c9 be 24 3f a6 be eb 6e 72 be 45 f1 31 bd
       -0.3935081 -0.32470047 -0.23675124 -0.043442983
0003f0 80 08 9c 3e c4 c4 80 3e 0f 7d 00 3f a8 59 f2 3e
       0.30475235 0.2515012 0.50190824 0.47334027

atten_w.keys_nn.1.weight f4 [64, 4]
000000 c4 7b e5 3e 8c 46 0b 3e ef 49 9b be e2 0f 9d 3d
       0.44820988 0.1360113 -0.30329844 0.07669045
000010 f1 ab 3c be 32 98 81 be 68 ad 39 3f 41 d2 fc 3e
       -0.18424965 -0.25311428 0.7253022 0.4937916
000020 b6 73 42 3d 44 9c 1a bf 3c bb 80 be ca 52 1a bd
       0.04747363 -0.6039469 -0.25142848 -0.03767661
000030 7e a0 19 bf 26 a0 ec 3d 02 80 ad be ad 12 aa bd
       -0.60010517 0.115539834 -0.33886725 -0.083043434
000040 6b 89 05 bf 20 6d a3 be cd 92 d8 3e 81 23 5a 3c
       -0.5216281 -0.31919193 0.422995 0.013314129
000050 39 98 d7 3e a2 8f 5f be a7 6b 3d be 91 c1 0c bc
       0.42108324 -0.21832135 -0.18498097 -0.008591072
000060 e2 f5 b5 be da 1a 3c 3f 29 1e 43 bd 4f d7 9d 3e
       -0.35539156 0.7347847 -0.047636185 0.3082833
000070 21 f8 c6 be 0d 48 11 3f 5a f5 88 3e 8a 80 5c bd
       -0.38861182 0.56750566 0.26749688 -0.053833522
000080 af 40 11 3f d5 dc 83 be fa 6f 00 3e bd 5c a9 3d
       0.56739324 -0.2575442 0.12542716 0.082696415
000090 ab 44 01 3f 05 e3 7b bd 16 6e 2e 3e 10 27 ca 3d
       0.50495404 -0.0614958 0.17034182 0.09870732
0000a0 03 2c dd 3e a9 47 a6 3e 9e cf ac 3e 13 a5 10 be
       0.4319764 0.32476547 0.3375215 -0.14125471
0000b0 c4 de 9a 3e b6 79 9e 3e 6a 8b 9c 3e a8 35 a0 3d
       0.30248082 0.30952233 0.30575114 0.07822734
0000c0 bc 5a 65 be 6c d2 36 3f 2e 76 2e be f5 6b 48 3d
       -0.22397894 0.7141483 -0.1703727 0.04893108
0000d0 2e e5 03 bf c4 f0 c4 be e0 fe 9b 3e 20 53 ca bd
       -0.51521575 -0.3846494 0.30467892 -0.09879136
0000e0 60 04 9a be 6b 6a c7 be dc dd 54 be 16 f5 28 be
       -0.30081463 -0.38948378 -0.20787758 -0.16499743
0000f0 c6 d3 f5 3e 9c ff a3 3e ae 8f 26 be 4e a5 28 3f
       0.48013133 0.32030952 -0.16265747 0.65877235
000100 33 4f e7 3d 2f f1 0a 3f 9a 3b 02 bf 5e 50 d4 ba
       0.11294403 0.54274267 -0.50872195 -0.0016198268
000110 9e 51 39 3e 81 44 1b be 52 d9 7a be 84 a3 39 be
       0.1809754 -0.15162851 -0.24496964 -0.18128783
000120 a0 fd 1a bf 56 a4 b6 3d ad 13 97 3e 4c 3e 00 bf
       -0.6054325 0.08918063 0.295072 -0.5009506
000130 96 14 f6 bc 25 1d 86 3e 80 e7 8e bd c7 07 5b 3f
       -0.030039113 0.2619411 -0.06977749 0.8555874
000140 d9 53 f1 3e aa ee 93 be 25 96 d4 bc a3 4b af bd
       0.47134283 -0.28893024 -0.0259505 -0.085593484
000150 9c fe e1 3e d3 07 e2 3e a1 75 7e bd f5 72 79 be
       0.44139564 0.44146594 -0.0621239 -0.24360259
000160 fd b6 b5 be 90 d8 6d 3e 77 f4 09 bd 23 bf 19 bf
       -0.3549117 0.23227143 -0.033680405 -0.60057276
000170 78 b3 b5 be 99 a7 0d 3e 40 5d 86 be 66 3b b3 3e
       -0.35488486 0.13833465 -0.2624302 0.35006255
000180 05 f4 d1 bb 9f 4d 45 3e 3d 0f 32 bf 08 0c 56 bd
       -0.006407263 0.19267891 -0.695545 -0.052257568
000190 cd ec e5 3e 8f 74 8b 3e fc af ff 3e 1b 9e 77 3e
       0.44907227 0.27237365 0.49938953 0.24181406
0001a0 de 26 91 3e cf 6e 03 be 4d 9d 22 be 75 c9 21 3f
       0.28349966 -0.12835239 -0.15880318 0.63198024
0001b0 11 5a 7f 3e c1 90 a4 bd 51 7b c9 be 84 2b f6 3e
       0.24936701 -0.08035422 -0.39351895 0.48080075
0001c0 90 e2 ea be a1 05 bc 3e 10 b9 c9 3e 2b 23 7c 3c
       -0.45875978 0.36723045 0.39399004 0.015389244
0001d0 b3 80 98 3e e7 56 68 3e 85 fe 0a bf f8 8e a5 be
       0.2978569 0.226894 -0.54294616 -0.3233564
0001e0 19 53 df be b9 f8 5f be 9c 96 ed 3d 7c 09 d1 3e
       -0.43618086 -0.21872224 0.11600992 0.40827549
0001f0 f5 92 05 3f 54 8e 5c 3e 63 c8 29 be c9 6a bd bd
       0.52177364 0.21538669 -0.16580348 -0.09248883
000200 27 8d 7d 3e 39 ec 97 be ce 56 28 3d 05 6d 2f 3f
       0.24760877 -0.2967241 0.04109841 0.68525726
000210 d6 99 1a 3e 1c e8 b1 be 0f 7c 8b be 91 8b c5 3d
       0.15097746 -0.34747398 -0.27243087 0.09645761
000220 9c f5 f6 bd f0 8d 6c be 82 e7 ec bd 48 63 c2 be
       -0.12058565 -0.2310102 -0.11567594 -0.3796637
000230 cf 33 44 3e 1b a5 b5 be 8c 0c 32 be e8 32 97 be
       0.19160388 -0.35477528 -0.17387599 -0.29531026
000240 3f 38 d4 bd 91 ef 13 3f b3 61 2b 3e 58 bd f2 be
       -0.103622906 0.57787424 0.16736488 -0.47410083
000250 37 49 a7 be b3 7f d4 3d 6e 24 fd be 91 f9 c7 3d
       -0.32673046 0.10375919 -0.49441856 0.09764398
000260 ca e5 0e be be 21 19 3d 1b 2b c7 3e a1 24 d5 bd
       -0.13954845 0.037385695 0.38900074 -0.10407377
000270 31 fe 8e be 65 b1 28 be 47 f4 93 be 10 95 20 3f
       -0.27928308 -0.1647392 -0.28897306 0.6272745
000280 84 64 e9 bd c5 6c ba 3e cf 8c df be ac d3 0d bf
       -0.11396125 0.3641111 -0.43662116 -0.5540111
000290 ea fb 90 be e3 6a 79 3e 6f d5 f5 3c 40 5b c0 3e
       -0.28317195 0.2435718 0.030009 0.37569618
0002a0 60 b2 a3 be e9 7d b7 bd 49 6b a9 3e da 59 c7 bd
       -0.31972027 -0.08959562 0.33089665 -0.09733935
0002b0 74 a5 cd 3e 7a 0f 88 be f5 a0 7b 3e 01 cc 66 3e
       0.40165293 -0.26574308 0.24573119 0.22538759
0002c0 f2 08 90 be d4 34 d5 3d 5f 6c e5 be 97 d0 eb be
       -0.28131825 0.10410467 -0.44809243 -0.4605758
0002d0 a3 ae 00 bf 2a 87 32 be 51 a0 5a bc 99 c4 1b bf
       -0.50266474 -0.17434373 -0.0133438865 -0.6084686
0002e0 69 d7 14 3f 35 e6 98 be a7 62 8e 3e fa 1a b7 3d
       0.5814119 -0.29863134 0.2780964 0.08940692
0002f0 42 6c 2b 3f 9e 2b 74 bc fb 8d 61 be 8a 97 eb 3b
       0.66962063 -0.014902977 -0.22026818 0.0071896957
000300 db ea 87 bc 4b b8 0c be 1e a0 1e 3f 5a c4 93 3e
       -0.01659148 -0.13742177 0.6196307 0.28860742
000310 7f 0e f7 be 31 2c 13 bf a2 d1 b3 3e 91 fd e6 3e
       -0.48253247 -0.57489306 0.35120875 0.4511533
000320 a4 3b fe be f1 40 4b 3e 1b c2 27 3e da 3b bf 3e
       -0.49654877 0.19848992 0.16382639 0.3735035
000330 40 7b d6 bd 95 f8 45 3e 6f 42 27 3d 30 c6 2e bf
       -0.10472727 0.19333108 0.04083484 -0.6827116
000340 77 eb f5 be 8a ea a0 be 41 cc 1f bf 65 b1 e8 be
       -0.48031208 -0.3142894 -0.6242104 -0.4544784
000350 95 ca 66 3e 14 d4 e0 bd 47 f9 52 be 80 8c 93 3e
       0.22538216 -0.10977951 -0.20602904 0.2881813
000360 5a 42 b9 bd 25 e4 f2 3e 3b d2 dd be 16 c4 9b be
       -0.09045859 0.47439685 -0.43324456 -0.3042304
000370 45 f9 1c be cc e1 57 be ae e6 c0 3d 55 f8 d7 be
       -0.15329464 -0.21082228 0.09418999 -0.4218165
000380 21 cc 1b 3f 2f e6 75 be d5 fc c5 be 24 b0 75 3e
       0.6085835 -0.2401359 -0.38669458 0.23992974
000390 02 b2 63 3e 7a c1 0a be 2e 4a bc be 1e 6d 77 3d
       0.22235873 -0.13550368 -0.36775345 0.060406797
0003a0 b1 aa 60 3e 6c 99 19 bf e5 2c 8c bd a3 37 e4 bd
       0.21940114 -0.5999973 -0.068445005 -0.11143424
0003b0 d9 b4 4f be ed 20 26 3e e9 a4 cb 3e 32 1d 40 bf
       -0.20283832 0.16223498 0.39774254 -0.7504455
0003c0 53 fb aa 3e 80 35 0a bf 52 2e 44 3e dd 92 35 bd
       0.3339487 -0.53987885 0.19158295 -0.044329513
0003d0 3b 6f eb be e4 d0 b0 3e 95 38 9b 3e 1f ce 58 be
       -0.459833 0.3453437 0.30316606 -0.21172379
0003e0 0a c4 6c bd 0d 35 0c be 38 53 30 3f ab 7d 24 3f
       -0.057804145 -0.13692112 0.6887698 0.64254254
0003f0 1c 45 f3 3e de 5c 11 be f3 b8 46 be d5 9d 9b 3c
       0.47513664 -0.14195582 -0.1940649 0.018996159

atten_w.keys_nn.2.weight f4 [64, 4]
000000 d9 c9 69 bd 8d 01 29 bd 8f db 1a bf 71 8e e9 3e
       -0.057077263 -0.041261245 -0.6049127 0.45616487
000010 70 94 ac 3e b1 ab 9a be e6 60 5b be 62 9e ae 3e
       0.33707 -0.30209115 -0.21423683 0.34105211
000020 49 b7 6b bd 7e 01 c5 be 7a 14 27 3b 5f f9 a3 3d
       -0.05754784 -0.384777 0.0025494383 0.08006548
000030 e1 2c dd 3e 82 23 d0 3e ae 03 87 be 51 49 88 be
       0.43198302 0.4065209 -0.26369995 -0.26618436
000040 1f 04 08 bf 51 3d 4a be 89 69 e3 be 5b 37 e1 be
       -0.5313129 -0.19749953 -0.44416454 -0.43987545
000050 e3 99 27 3e 49 1e 49 be c2 ee dd 3e 9c 0f a4 3e
       0.16367297 -0.19640459 0.4334622 0.3204316
000060 a7 10 59 3e 95 3a c5 be b1 34 03 bf a2 fc 07 3f
       0.21197759 -0.38521257 -0.51252276 0.5311986
000070 ed fa 99 be 0b 3d f5 3e 7f e5 c9 be fe 62 85 3b
       -0.30074254 0.47898135 -0.39432904 0.0040706387
000080 cb af b1 3e ce 88 a8 3e 62 02 35 3e 6d 9b d7 bd
       0.34704432 0.32916874 0.1767669 -0.10527692
000090 f7 6b d7 3e 36 3c 05 3f d1 25 35 3e f3 4b 5d be
       0.42074558 0.52045 0.17690207 -0.21611004
0000a0 29 b0 cc be fd 30 1d 3f bb 96 1d be 2b 03 17 bf
       -0.3997815 0.61402875 -0.1538953 -0.5898921
0000b0 fe 6a fa 3e f3 06 9c 3e 8e fe d9 3e f5 d1 67 3f
       0.48909754 0.30474052 0.42577022 0.90554744
0000c0 96 18 9f be aa eb d2 be 1a 7a dd 3e 5a 15 5a 3e
       -0.31073445 -0.41195422 0.4325722 0.21297207
0000d0 aa 39 a4 be be 77 39 3e 3a 33 bf bc 96 a8 c5 be
       -0.32075244 0.18112084 -0.023339856 -0.38605183
0000e0 2f d2 6b 3e 4d a9 f3 be a6 56 f3 be 9c 4d 16 3f
       0.23029397 -0.47590104 -0.47527045 0.5871217
0000f0 77 27 62 be 02 b6 2b bf 17 02 2e 3e 15 f6 2b bf
       -0.22085367 -0.67074597 0.16992985 -0.67172366
000100 75 8c e2 be f1 07 0a bf f8 55 37 be 0b ac 89 3e
       -0.44247785 -0.5391837 -0.17903888 0.2688907
000110 3d c3 ec be 4b ea 86 be 6b d2 10 3d 21 b2 82 3e
       -0.46242705 -0.26350626 0.03535692 0.25526527
000120 38 bc d0 3e f6 fb f8 3d 59 05 90 3e 3b 25 3d 3f
       0.407686 0.12157433 0.2812908 0.73884934
000130 55 81 e5 be a6 46 d3 be be 2d 05 be 9d a7 a1 3d
       -0.44825235 -0.41264838 -0.1300573 0.07893298
000140 7a f7 c5 3e 1c 72 b0 be 9e c0 c3 3e 90 fa ab be
       0.38665372 -0.3446206 0.38232893 -0.33589602
000150 a4 eb a5 3e 9b ca 9c be b2 5d 48 3e 94 b9 c3 be
       0.32406342 -0.30623326 0.19566992 -0.38227522
000160 c2 24 54 be 7e f7 89 3e 00 9e 9f 3e 18 ee 32 3d
       -0.20717147 0.26946634 0.31175232 0.043684095
000170 dd 16 36 3e 00 bb 9b 3e c9 0d 0b be e6 a1 ce 3d
       0.17782159 0.30416107 -0.13579477 0.100894734
000180 cc f1 e9 bd e4 ec 63 3e ba 80 c3 be f6 b3 9c be
       -0.11423072 0.22258335 -0.38184148 -0.3060605
000190 83 4f 92 3e 5a 48 11 3e f9 2a 81 3c 32 ae 81 be
       0.28576288 0.14187756 0.015767561 -0.25328213
0001a0 ac c6 6e 3e bd 79 97 3e 41 b4 2f 3e b1 cf e2 be
       0.23317975 0.29585066 0.17158605 -0.4429908
0001b0 28 b5 cb bd 7b 04 ac be 76 3b d8 3e 8c 9b 81 be
       -0.09946662 -0.33597168 0.42232865 -0.25313985
0001c0 43 d6 bb 3e dd 1d f2 be 6b 34 b9 3e dd ea c8 3c
       0.36686906 -0.4728841 0.36172804 0.024526054
0001d0 08 7c f7 3e 00 a9 d7 3e 64 37 e4 be 8a c6 59 3e
       0.48336816 0.42121124 -0.4457351 0.21267143
0001e0 7d 25 d8 be 63 90 08 bf 10 ab 87 3e f1 02 dc 3e
       -0.422161 -0.53345317 0.26497698 0.42970994
0001f0 39 45 eb be 0d 6c 7d 3e 4a 9f 55 3e 8a df 0a bf
       -0.4595125 0.2474825 0.20861545 -0.54247344
000200 59 fb f7 3e 2d 18 12 3f c2 2f a8 3e 1a a0 e1 bb
       0.4843395 0.5706814 0.32848936 -0.0068855407
000210 5c fd af 3e 00 82 20 3d bd ca ce be 20 65 22 be
       0.34372985 0.039186478 -0.40389052 -0.15858889
000220 9f 83 fd be be 81 17 bf 39 c5 e2 3e ca b9 bc be
       -0.4951448 -0.59182346 0.44291094 -0.36860496
000230 0f 91 22 3e 43 2e 26 bd 74 06 2b 3e 5e 25 1d bb
       0.15875648 -0.040571462 0.1670168 -0.0023978571
000240 7b f2 ca 3c b9 20 31 bf 14 d4 ad 3e af 16 1f 3e
       0.024773827 -0.69190556 0.33950865 0.15535997
000250 ab 1d ba 3e ea ae d0 3d d2 5e 75 bb 47 84 05 3f
       0.3635076 0.10189612 -0.003744055 0.52154964
000260 80 96 e7 3e 58 02 f6 be 0a c0 bc be 63 db be 3e
       0.4523201 -0.48048663 -0.36865264 0.37276754
000270 5f ac c6 be f8 59 b9 be 7e f0 0d 3f 21 9d 61 be
       -0.38803384 -0.36201453 0.55445087 -0.22032596
000280 c9 50 dc 3e 6a 1c ff be df e0 b1 be d8 41 c5 bd
       0.43030384 -0.49826366 -0.34741876 -0.09631699
000290 2a 65 b0 be b4 47 e0 3e 50 e0 e1 3e 44 a2 e9 be
       -0.34452182 0.43804705 0.4411645 -0.4563161
0002a0 c7 ce 47 be cc 1f 1c be 94 b3 13 bf 39 51 cf 3e
       -0.19512473 -0.15246505 -0.5769589 0.40491655
0002b0 f9 d0 2f bd ff 51 f8 3e 61 ee 00 bf b9 8c ab bd
       -0.0429239 0.48500058 -0.5036374 -0.0837645
0002c0 47 64 8c 3d 37 41 ba be 7b 8b 09 3f da ec 58 bd
       0.06855064 -0.3637788 0.53728455 -0.052960254
0002d0 b5 98 fa bc 7f 63 bd 3e b3 70 b7 3e de 2a 4d be
       -0.030590395 0.36989972 0.3582817 -0.20035884
0002e0 ec 8f fe bc 45 92 b4 3e 33 51 ba 3e 04 2a 88 bd
       -0.031074487 0.35267845 0.36390075 -0.06648639
0002f0 ba 00 99 be 49 90 3e be 41 69 69 be df 18 b7 3d
       -0.29883367 -0.18609728 -0.22794057 0.08940291
000300 ba 58 89 3e c8 28 e7 3e a1 cc 8f 3d 2a 58 f6 bd
       0.26825505 0.451483 0.07021452 -0.12028535
000310 d1 68 fe be b8 90 95 3e 0e 6d c3 3e 88 f7 8f 3d
       -0.49689344 0.29211974 0.3816914 0.07029635
000320 5f c1 9c be b4 02 55 be 19 b4 a1 3e c4 60 c1 3e
       -0.3061628 -0.20801812 0.31582716 0.3776914
000330 0e f4 0f 3e 48 54 19 bf 26 0e b3 be e3 77 7a 3e
       0.14057943 -0.5989423 -0.34971732 0.24459796
000340 65 d1 8f be 9d 7a 0c bf aa b4 f9 be a5 18 7e 3e
       -0.28089443 -0.54874593 -0.48770648 0.24814089
000350 de 23 f0 3e 20 e9 db 3e 01 c0 95 3e 22 07 cf be
       0.46902364 0.42951298 0.2924805 -0.4043513
000360 93 70 7e 3e a7 5f 63 3e 95 0c c4 3d d8 08 71 3e
       0.24847631 0.22204457 0.09572712 0.2353853
000370 b7 91 d3 bd 5f c4 16 bf f5 73 cd 3d 61 56 4f bd
       -0.10330527 -0.5889339 0.10031883 -0.050619487
000380 68 4b 47 3e db 88 da 3e ae 87 a7 3e 4e 1d e8 3d
       0.19462359 0.42682537 0.32720703 0.113337144
000390 2f cf d4 3e c5 3d 7f be 61 50 8f 3e f4 22 3f be
       0.4156432 -0.24925907 0.27991012 -0.18665677
0003a0 35 ae 6d 3e 2c 98 97 3e 9d ef d2 be 16 1a b6 be
       0.23210986 0.29608285 -0.41198435 -0.35566777
0003b0 f7 78 e8 bd ba 01 30 bf 58 e3 b9 3d 21 d3 10 bf
       -0.11351197 -0.68752635 0.090765655 -0.5657216
0003c0 02 15 7f be 38 22 cd 3e 32 5d be 3e 24 e5 bf bd
       -0.24910358 0.4006517 0.37180477 -0.09369877
0003d0 ec 1c ec 3e ca a7 82 be 9f aa 54 be 50 72 2a be
       0.46115816 -0.25518638 -0.20768212 -0.1664517
0003e0 a0 92 04 3f 08 fb af be bc 2c d5 bd 85 9e c0 3e
       0.5178623 -0.3437121 -0.10408923 0.3762094
0003f0 65 87 33 be 69 7e 2d 3f 07 97 08 3f e1 36 e5 3e
       -0.17532118 0.6777101 0.5335545 0.44768432

atten_w.keys_nn.3.weight f4 [64, 4]
000000 08 07 69 3e 84 d1 8f 3e d8 05 7c be 05 76 b1 3d
       0.22756588 0.28089535 -0.24611604 0.086650886
000010 0c 59 11 3e 80 33 bf be 32 1a 4b 3f ef 21 76 bd
       0.14194125 -0.3734398 0.79336846 -0.060090955
000020 9e da de 3e 61 4a 9e be 1f 9e db be 86 82 67 bd
       0.43526167 -0.30916122 -0.42894074 -0.05652096
000030 94 61 82 be 09 f8 a9 be 3d b1 80 3e 8b 8b 1f bf
       -0.2546507 -0.33197048 0.25135222 -0.623223
000040 b5 43 a2 3d 27 24 7d 3e c6 e7 23 3f b2 f9 fb be
       0.0792307 0.24720822 0.64025533 -0.4921394
000050 8f ed 9f 3d 20 e5 bc 3d 03 3d d0 3e 18 1a 11 3f
       0.078089826 0.092233896 0.40671548 0.5668044
000060 37 31 b2 be 0f 6f 50 3e a4 97 55 be 1f 8e 36 be
       -0.34803173 0.20354865 -0.20858628 -0.17827652
000070 18 12 ae be dc 0d 14 3e d4 e4 dc bd a3 fb ff bd
       -0.3399818 0.14458412 -0.10785833 -0.12499168
000080 ae 78 82 be f2 a6 81 3e 06 ea 04 be d2 b8 65 be
       -0.25482696 0.25322682 -0.12979898 -0.22433785
000090 1f c8 e4 be 66 58 e8 bd 3d 0d 3d bf 38 c5 38 3e
       -0.4468393 -0.11344986 -0.73848325 0.18043983
0000a0 44 3f e6 3d 33 80 97 3e 68 f0 73 3e 8d 70 c3 3e
       0.11242536 0.29589996 0.23822176 0.38171807
0000b0 db d5 37 3e 3c 4c 96 3d dd 14 e0 be d2 41 40 3f
       0.17952673 0.07338759 -0.43765917 0.75100434
0000c0 55 ca df 3e ae ff 50 3d a9 c4 26 bf 05 00 42 3f
       0.43709055 0.051025085 -0.6514383 0.7578128
0000d0 65 4a 9c 3e c0 78 d8 3e 22 48 f1 be 03 19 b0 3d
       0.3052551 0.42279625 -0.47125345 0.085985206
0000e0 dc 77 4f 3e c7 58 a6 be 40 db 10 3f 28 55 7e 3e
       0.20260566 -0.32489607 0.5658455 0.24837172
0000f0 a9 e5 7d be 65 83 05 bf db d7 a4 3e 78 15 22 bf
       -0.2479464 -0.5215362 0.32195935 -0.6331401
000100 6d d7 88 3e eb d1 a2 be 49 69 27 3f 39 54 0b 3f
       0.26726857 -0.3180078 0.6539503 0.5442539
000110 88 77 ac 3e 34 bc e7 3e b9 84 16 3f 70 96 75 3f
       0.33684945 0.45260775 0.5879627 0.95932674
000120 6e 7d be 3e db 96 95 3e 14 0d 10 3f 14 00 17 3f
       0.3720507 0.29216656 0.56269956 0.58984494
000130 9c 0f 69 bc 6a a2 6f be 7a 50 e7 3e 68 2a 32 bf
       -0.014224913 -0.234018 0.45178586 -0.69595957
000140 24 c5 ce be 6a ce 97 bd 39 09 e7 bd a1 5e ec 3d
       -0.4038478 -0.07412417 -0.11281056 0.115414865
000150 ab a1 ce be 86 9a e8 3e ea c3 27 bc aa 79 09 bf
       -0.40357718 0.45430392 -0.010239581 -0.5370127
000160 c8 0f 1b be 28 88 66 bd 38 5a 93 bf ad 11 8d be
       -0.15142739 -0.056282192 -1.1511908 -0.27552548
000170 c0 5e 60 3e 5e 88 c8 3e 4d 98 71 3f 21 05 04 3f
       0.21911144 0.3916654 0.9437302 0.51570326
000180 9f 47 e7 3e af 36 af bd 62 01 72 bd eb be e3 3e
       0.4517183 -0.08555352 -0.05908335 0.44481596
000190 a4 fc d4 be f3 f6 a3 3e e8 f6 a1 be f8 20 2f 3e
       -0.41599 0.32024345 -0.31633687 0.1710242
0001a0 09 12 8b 3c 48 75 98 be 46 d4 35 3f 26 7a 08 bf
       0.016976373 -0.29776978 0.7102703 -0.53311384
0001b0 46 0e 74 be 95 9b 64 be eb 04 f0 be 7c a8 99 3e
       -0.2383357 -0.22324975 -0.46878752 0.30011356
0001c0 c6 b7 06 3f b7 e0 00 bf 10 cc 17 3f 80 66 77 3f
       0.52624166 -0.5034289 0.5929575 0.9664078
0001d0 e8 63 b7 be 89 5e 4d be 58 4b 93 3e 30 fd 71 bd
       -0.3581841 -0.20055594 0.2876842 -0.05907935
0001e0 22 8e 8a 3d 58 a4 e2 be 46 c3 9d 3e af 91 57 bf
       0.06765391 -0.4426601 0.30813044 -0.8420667
0001f0 9d 76 9e be 37 20 c0 3e 15 0b 44 be b4 43 3c bf
       -0.3094987 0.37524578 -0.19144852 -0.73540807
000200 c8 92 a7 be fd d3 9f be 40 a2 45 bf f1 02 f9 be
       -0.32729173 -0.31216422 -0.772007 -0.48635057
000210 f1 d0 03 3f c4 89 bd be a6 40 04 bd ca dd 5f 3f
       0.51490694 -0.3701917 -0.032288216 0.874478
000220 4e 10 fe 3c 7c 70 e6 be 0c 85 d6 3e 7b e6 c5 3e
       0.031013634 -0.45007694 0.41898382 0.38652405
000230 bf 41 f4 3e 8e d6 24 be 31 fd db 3d 20 28 4f 3f
       0.4770641 -0.16097471 0.10741652 0.809206
000240 b2 e2 c7 be cc ed 82 3d 46 57 f9 be 7a b4 3c bf
       -0.39040142 0.063930124 -0.48699397 -0.73712885
000250 4e 2e b4 be fb b8 9b be 03 a7 11 bf ca c2 2e bf
       -0.35191578 -0.30414566 -0.56895465 -0.68265975
000260 38 91 04 be 40 88 12 bf 23 78 b7 be 53 25 54 bf
       -0.12946022 -0.5723915 -0.35833845 -0.8286945
000270 3b a2 61 3e ba 96 de be 4a a3 8d be d8 dc 24 3f
       0.22034542 -0.4347437 -0.27663642 0.6439948
000280 19 fa e6 be 3b dd d1 be d3 36 f0 3e 95 cf 5e bf
       -0.45112684 -0.40989098 0.46916828 -0.87035495
000290 57 bf 7c 3e 4a 97 b8 3e 6d 4c a7 be 3d 37 55 be
       0.24682365 0.36052924 -0.32675496 -0.20821853
0002a0 0d a0 28 3d 6c f0 b1 be f9 25 25 3f e9 46 0a 3f
       0.04116826 -0.3475374 0.64511067 0.5401445
0002b0 25 41 cd 3c 8e ff df bd 55 18 5b 3f 93 d3 22 bf
       0.025055477 -0.10937415 0.85584 -0.63604087
0002c0 82 80 d1 be ae 2d ca 3e e5 e8 85 be 21 8a 32 bf
       -0.40918356 0.39487976 -0.26154247 -0.6974202
0002d0 b5 0a ef 3d df 0d ae be f8 9f ee be ff 6d 31 be
       0.11671964 -0.33994958 -0.4660642 -0.17327116
0002e0 8c 93 0b be 0d cb 1e 3e d0 92 3d 3f 99 c4 3b bf
       -0.13630503 0.15507145 0.74052143 -0.7334686
0002f0 be b4 2e 3e 03 86 ec be 1c fb 22 3e 23 35 b8 3e
       0.17061135 -0.46195993 0.15916103 0.3597804
000300 7f 16 6a 3e 90 91 95 bd f4 4c a1 be 55 c7 23 3e
       0.22860144 -0.073031545 -0.31504023 0.15994008
000310 2b 61 29 bd 27 78 9b be 26 35 88 3d ab 22 4d bf
       -0.041352432 -0.30365106 0.06650762 -0.80131024
000320 28 b8 3f be d0 2e b8 be bf a0 92 3e 16 26 14 bf
       -0.18722594 -0.35973215 0.28638265 -0.57870615
000330 80 f8 cb be 6a 86 10 3e 77 86 c2 3e f8 32 04 bf
       -0.39838028 0.14113775 0.37993214 -0.5164027
000340 2f b0 05 be 0a ca e7 bd 93 cb 21 3f 63 d3 79 bf
       -0.1305549 -0.11317833 0.63201255 -0.97588176
000350 d2 fd c6 be de 1d 07 3f 3d 8d 7f be 8b 48 51 bf
       -0.38865525 0.5277995 -0.24956222 -0.81751317
000360 1a 70 fd 3c b2 f4 f3 bd 42 ac 54 bf 3e c0 d2 3e
       0.030937243 -0.11911906 -0.83075345 0.41162294
000370 81 c2 49 3e 2f 4b b9 be a9 54 1e bf 7d 21 d5 3d
       0.19703104 -0.36190173 -0.6184793 0.10406778
000380 f6 58 68 3e d1 62 c3 be 50 a7 b9 3e 0e 63 c8 be
       0.22690186 -0.38161328 0.36260462 -0.39138073
000390 ef c8 f2 be 96 83 77 3e a2 2c fa be 65 2e 15 bf
       -0.47418925 0.2417129 -0.48862177 -0.5827392
0003a0 a5 80 88 3d 61 df bc be f6 c9 96 3d b7 ea d7 3e
       0.06665162 -0.36889175 0.0736274 0.4217126
0003b0 1b 5e e3 3e 77 14 8f be 17 3c 94 be 92 bc 1d 3f
       0.44407734 -0.279453 -0.28952095 0.6161586
0003c0 b7 0b f1 bd 7c 3a ec bd bb 9c 42 3f 5b 93 94 bd
       -0.117698126 -0.115345925 0.760204 -0.07254668
0003d0 91 2e 19 3e f0 a0 a1 3d fd e2 4e be 43 b8 72 3f
       0.1495917 0.078920245 -0.20203777 0.9481241
0003e0 a7 a4 f3 be 8c fa 31 bd 81 46 b9 3e ad 0e 49 bf
       -0.47586557 -0.04345183 0.36186603 -0.7853802
0003f0 04 9f b7 be 44 d9 07 3f 86 30 08 3f c0 0e 6b be
       -0.35863507 0.53065896 0.5319904 -0.22954845

atten_w.querys_nn.0.0.weight f4 [64, 140]
000000 fe a1 30 bd ee 6a e9 bd 61 17 88 3e 20 4b 93 be
       -0.043123238 -0.11397348 0.26580337 -0.28768253
000010 d9 10 1d be 1f 90 87 bd a5 9b b4 bb 17 41 0f 3e
       -0.15338458 -0.06619286 -0.0055117183 0.13989674
000020 2c 59 df bd 32 65 82 3b 30 f5 a8 be e5 00 60 3c
       -0.1090568 0.0039793486 -0.32999563 0.013672088
000030 86 18 e4 bd 6b fd 8e bd e2 94 b4 3e 3b 56 94 3c
       -0.1113749 -0.069819294 0.3526984 0.018107524
000040 de 0b 1c be 7b 2c 5c 3d 22 15 0c be da 13 48 be
       -0.15238902 0.053753357 -0.13679937 -0.19538823
000050 56 50 b1 bd 50 d1 77 bc 61 87 81 be f8 71 77 bd
       -0.08657901 -0.015125588 -0.25298598 -0.060411423
000060 d7 43 83 3c d9 d8 2f 3e 90 34 24 be 29 1b 1e bd
       0.01602356 0.17172565 -0.16035676 -0.03860012
000070 05 1e b3 bc 86 81 b1 3c 3c 68 19 be ed 25 4b 3c
       -0.0218649 0.021668207 -0.14981169 0.012399179
000080 16 50 81 3b af 30 c1 bc f4 58 f6 bd 64 66 98 bd
       0.0039463146 -0.023582784 -0.12028685 -0.074414045
000090 a2 fe c0 bc a5 d8 aa 3c 1f 87 b5 bd 1f c8 0a 3d
       -0.023558918 0.020855257 -0.08863663 0.033882257
0000a0 94 c7 9b bd b0 c0 18 bd 0d 02 23 be d9 e0 b3 bc
       -0.07606426 -0.037293136 -0.15918751 -0.021957802
0000b0 43 63 13 3d bc ea b3 3e a8 63 e6 bd e9 0f 4d bc
       0.035983335 0.35140026 -0.11249477 -0.012516
0000c0 b6 e5 ea 3c 72 41 e7 bd 0e 96 45 3d 64 ae b7 bd
       0.028673988 -0.112917796 0.048238806 -0.08968809
0000d0 2e 1a 98 bc ed 45 c3 3d 0a f2 90 be d3 fe 03 be
       -0.018567171 0.09534822 -0.2830966 -0.12890176
0000e0 47 03 c1 3d 3d 6d 75 be 2d 49 cf bb a4 6e 66 be
       0.09424453 -0.23967452 -0.006325862 -0.22503144
0000f0 7c f3 b0 be ec 7f e2 bd 04 46 a9 bc 1d bb 9b 3e
       -0.34560764 -0.110595554 -0.020663269 0.30416194
000100 d2 2e 87 3e 8a 83 cd 3b fc 85 9c be 00 19 f4 be
       0.2640291 0.006271784 -0.30570972 -0.47675323
000110 6e 71 9a 3d ce 83 00 3f b0 a3 eb bc 88 28 0e bf
       0.07541166 0.5020112 -0.028764576 -0.55530596
000120 d5 52 97 bd cc 81 44 3e ec e1 44 3e 40 45 82 3b
       -0.07388846 0.19190139 0.19226807 0.0039755404
000130 b1 92 c0 be 0a 22 18 3e 11 df 80 be dc a5 06 3e
       -0.37611917 0.14856735 -0.25170186 0.13149208
000140 14 14 45 3e 6e ae 21 3e 0e b5 c0 3d ba a5 17 be
       0.1924594 0.15789196 0.094095334 -0.14809313
000150 3a 31 2b bc 11 34 22 be 32 c2 f3 be 4d c5 82 be
       -0.010448748 -0.15840174 -0.47609097 -0.25541154
000160 72 c3 b3 be a6 f0 06 bd 49 82 90 3e 10 b2 af 3e
       -0.3511005 -0.032944344 0.282244 0.34315538
000170 8d 47 dd bb 4e f8 da 3d 05 6f 27 bd 79 da f1 3d
       -0.0067529143 0.106918916 -0.04087736 0.118092485
000180 ac 99 e7 3c fc 7b 74 be d0 be 1c bd c1 55 4d 3e
       0.028271519 -0.23875421 -0.03826791 0.20052244
000190 a2 cd 71 3d 65 05 37 be 65 24 6d 3e 8f 22 61 be
       0.059033997 -0.17873152 0.23158415 -0.2198584
0001a0 66 13 3a be 92 1e 86 3e 9c db 5a 3d fd 03 a8 bc
       -0.18171462 0.26195198 0.053432092 -0.020509714
0001b0 22 7e 4f 3e 6c 66 5c bd 0a 33 1c 3e a9 be 6d be
       0.2026296 -0.053808615 0.15253845 -0.23217262
0001c0 62 dc ba 3d aa a7 25 3e e2 93 76 bc 73 01 dd be
       0.09124066 0.1617724 -0.015049906 -0.43165168
0001d0 3f a2 65 be 36 19 96 3e 3b 26 02 be fc 0f b3 3e
       -0.22425173 0.2931611 -0.12709896 0.34973133
0001e0 7f 2d 25 3e ca 7c 8a 3e d0 48 8b be fe 70 f2 bd
       0.16130637 0.27048331 -0.2720399 -0.11837958
0001f0 c4 ed f5 be 96 96 43 bd 9b d4 c8 3c 37 1f 6a bd
       -0.48032963 -0.04775103 0.02451544 -0.057158675
000200 8c aa 04 be 26 81 9f 3d 7c 9d 96 bc 6d e2 8d bc
       -0.12955683 0.07788305 -0.018385641 -0.017319882
000210 ab 6a 7f bd ca 47 31 be 34 a0 64 be 67 d3 4b bb
       -0.062357586 -0.17312542 -0.22326738 -0.0031101347
000220 7d fa e5 3c e3 bc 80 3e ab b8 8d 3e 2a bb 21 3d
       0.028073544 0.2514411 0.27679953 0.039485134
000230 a0 aa 6e be 72 25 a2 3d 60 ba 31 be ff 70 f6 3d
       -0.23307276 0.079172984 -0.17356253 0.12033271
000240 57 42 60 be f1 c0 fa 3c 4f 5d 9e bc 9c b1 da bd
       -0.21900307 0.03060958 -0.019331602 -0.106784075
000250 e2 75 d8 bd e9 1f d6 3d ca 0d 17 be 17 36 06 be
       -0.10569359 0.10455305 -0.14751354 -0.13106571
000260 27 f6 c7 3c 55 81 23 bd e4 d6 aa bc cf 26 30 3e
       0.024409367 -0.039918263 -0.020854421 0.17202304
000270 39 7d 50 3e 9c bc ad 3d 0a a3 78 bd e1 fd ad 3e
       0.20360269 0.0848324 -0.06070236 0.33982757
000280 33 f7 5d be 89 42 3b 3c aa 9a 9e be fe cc 1c be
       -0.2167633 0.011429437 -0.30977374 -0.15312573
000290 f0 fb f3 bd 0b d7 bf be 80 68 b6 3c 28 03 92 bd
       -0.11913288 -0.37468752 0.022266626 -0.07129508
0002a0 60 91 82 bd fa 95 8f bd c4 53 04 bd e1 7b 03 3e
       -0.06375384 -0.07011028 -0.032306448 0.12840225
0002b0 d3 33 19 bd 98 cb ab 3b 6c 09 85 3d fc a2 ce bd
       -0.03740294 0.005242776 0.06495938 -0.100896806
0002c0 05 08 47 bd bf ee 68 be 6f 0b f7 3d 06 47 3c 3d
       -0.048591632 -0.22747324 0.12062728 0.04596617
0002d0 9c 43 08 bb f3 69 b0 be b6 13 15 3d 64 2c f2 3c
       -0.0020792251 -0.34455833 0.03639575 0.029562183
0002e0 62 05 7d bb c7 95 7c be 37 90 df 3c b4 ad 20 3e
       -0.0038607945 -0.2466651 0.027290447 0.15691262
0002f0 e4 bb 63 bc 60 b8 c7 bd 1b 1b c4 3d b7 d7 80 3c
       -0.013899777 -0.097519636 0.095754825 0.01572786
000300 09 7e ad 3b 94 eb 13 3e c5 75 f4 3d 79 76 b6 3d
       0.0052945656 0.14445335 0.11936525 0.089093156
000310 11 9c 2e b9 bf 56 05 3d 6a 9f 2a bc 32 7e 3b bd
       -0.00016652072 0.03255343 -0.010413984 -0.045774646
000320 4d 1f 5b 3c 39 50 26 ba f5 fb 3a 3e a5 e4 88 3c
       0.013374162 -0.00063443516 0.18260176 0.016710589
000330 84 2e e7 3d cc 19 9e 3c 16 cf 35 3b 80 45 92 3d
       0.11288169 0.01929941 0.002774184 0.07142162
000340 5d 09 18 3e 58 69 2f 3e a8 27 6e 3c a3 7a c8 be
       0.14847322 0.17130029 0.014535822 -0.39156064
000350 30 83 4d 3e 9b bb 0f 3d 8c 42 c7 3c 19 ed 07 3d
       0.20069575 0.035091024 0.024323724 0.0331851
000360 4c a9 ad bc 01 89 38 be dd e2 15 3e 91 5f 37 3d
       -0.021198891 -0.18021013 0.14637323 0.044768874
000370 15 38 c1 3a 07 8a 03 3e 58 fe 0b 3e a8 6f 67 be
       0.0014741445 0.12845622 0.13671243 -0.22601187
000380 c9 dc 97 bb 30 ab 89 3c 61 2f ac 3c 79 a2 ff 3c
       -0.004634474 0.016805261 0.021018686 0.031205403
000390 a6 98 ab 3d cd 0c 1e 3e 54 ee dc 3d c7 14 88 3d
       0.08378725 0.1543457 0.10787645 0.06644588
0003a0 4a 85 c0 3d 03 e2 76 bd 72 8a 55 3d 0a 15 06 bd
       0.09400423 -0.060274135 0.052133985 -0.03273491
0003b0 9d 34 99 3c f6 71 b2 3c de 2f 1f 3d 60 30 0e bd
       0.018701846 0.021782856 0.03886401 -0.034714103
0003c0 68 68 46 be 3a da 96 3c cd 45 75 3d 64 4b bc 3d
       -0.19375765 0.018414605 0.05988102 0.09194067
0003d0 3f e1 49 3d 0b 8c c1 bd 28 d0 19 3e f6 12 f3 ba
       0.049287077 -0.09450539 0.15020812 -0.001854508
0003e0 ed 25 34 bd 88 fb 79 bc eb 02 1c be 10 1b 09 bd
       -0.04398148 -0.015257724 -0.15235488 -0.033473074
0003f0 4f 8b 0e be b0 99 43 3d 3f b6 e9 3d 51 6b 39 3d
       -0.1392033 0.04775399 0.11411714 0.04526836

atten_w.querys_nn.0.0.bias f4 [64]
000000 ab bb 11 bb af d0 1c 3c d3 04 32 bb c1 77 ea 3b
       -0.0022237103 0.009571238 -0.002716352 0.007155389
000010 47 5a ec bd 4e c6 96 bc 1d e2 8a 3d e8 71 93 bd
       -0.115406565 -0.018405106 0.06781409 -0.0719946
000020 0d e8 8c 3d 5e 0c 3c bd e1 46 32 bc 8a f9 88 3d
       0.06880198 -0.04591023 -0.010881157 0.06688221
000030 90 ba cb bd 98 2e 37 3d 44 09 ae bc fe 9b 74 bd
       -0.09947693 0.04472217 -0.021244653 -0.05971908
000040 4d 78 f3 3d 88 bc 2e bd 56 98 89 3d d0 3e ab 3c
       0.1188818 -0.042660266 0.06718509 0.020903975
000050 be f5 54 bc 17 88 1c 3e 32 df 77 3d cd f6 24 bc
       -0.012998043 0.15286289 0.06051559 -0.0100686075
000060 5f 6e a4 bd 27 2a fc bd 00 39 01 3e f8 79 0e 3d
       -0.08028864 -0.123127274 0.126194 0.034784287
000070 7a 37 68 bd 8e 73 95 bd 37 11 d6 3d 8a ab 51 bc
       -0.05669353 -0.07297431 0.10452502 -0.012797246
000080 59 dc 95 3d 90 72 06 3d 31 24 b8 bc 23 9a c6 bc
       0.073174186 0.0328241 -0.022478195 -0.02424342
000090 83 fe 84 bd 51 55 fb 3c 23 d2 bf 3d bd 04 48 bd
       -0.06493857 0.03068033 0.09366252 -0.048832644
0000a0 51 54 63 bd 75 44 8c bd ad 32 b7 bc ec 44 14 3b
       -0.055500332 -0.06848995 -0.022363031 0.0022624088
0000b0 2f 30 0e 3e 95 03 a8 bc 2c e5 0a 3d a5 21 04 bd
       0.13885568 -0.02050952 0.03390996 -0.03225865
0000c0 9b 51 81 3d 03 6c 06 3d 20 5e e9 3d 98 33 3e bd
       0.06314393 0.03281785 0.11394906 -0.046435922
0000d0 74 ad 9f 3d 61 a5 9f 3b e5 86 05 3e e4 98 48 bc
       0.077967554 0.0048720096 0.1303974 -0.012243483
0000e0 74 76 32 3d 1a a0 56 bd 2e 0c 27 3e a7 25 4e bc
       0.043569997 -0.05239878 0.1631324 -0.012582219
0000f0 76 0d a1 bd 15 bc df bb 8c 50 8b 3c 42 8f d1 3d
       -0.078638956 -0.006827841 0.017006181 0.102324024

atten_w.querys_nn.0.2.weight f4 [64, 64]
000000 04 82 f7 bc 8d 45 61 be 81 54 f7 3d 84 10 a5 3d
       -0.030213363 -0.21999188 0.12076665 0.08059791
000010 90 0d d3 be 7e ea 86 3e 3d d6 71 3e d8 bd 1c be
       -0.41221285 0.26350778 0.23616882 -0.15306795
000020 12 d7 f2 3d bb 0b 6a be 12 79 90 3d a8 66 2d be
       0.11857428 -0.22856037 0.07054342 -0.16933692
000030 29 b6 7c 3e 30 ef 18 be 5d 2d 0b 3e 48 e1 22 be
       0.24678864 -0.14934993 0.13591523 -0.1590625
000040 bb 7b f2 3c fc 28 4a 3e 8e 84 00 be b2 e4 b1 bd
       0.029600015 0.19742197 -0.12550566 -0.08686198
000050 52 b6 ee 3d 39 9f 27 3e 70 bb e2 3c c1 e7 b1 3d
       0.116558686 0.16369332 0.027677268 0.08686782
000060 70 1f b5 be 57 26 eb be fb 3f 99 3c ff 34 be 3e
       -0.35375547 -0.45927688 0.018707266 0.37149808
000070 c3 70 63 3e d1 66 de bd f2 5e 38 3d 0b 58 a0 3d
       0.22210984 -0.108594544 0.045012422 0.07829293
000080 d9 77 8c bd e3 02 97 3d 4a 23 96 bd cd ec 3b be
       -0.068587966 0.073735975 -0.073309496 -0.18352051
000090 3a 71 81 3e f4 9b 15 3e 82 49 a1 bd 7e 5c 29 3e
       0.25281698 0.14610273 -0.07875349 0.16539189
0000a0 53 37 32 3e fd aa aa be 7c dc 65 3d 1e de 87 be
       0.17403917 -0.3333358 0.056118473 -0.2653665
0000b0 af 7d c3 3c 4c 7d 8f 3e 02 26 af 3e 5c 76 08 bd
       0.023863642 0.2802528 0.34208685 -0.033316
0000c0 df 36 0d 3e 2a 0b 2f 3e 85 ed 12 be 2b 03 11 be
       0.13790463 0.17094103 -0.14348419 -0.14161365
0000d0 6c 3f c3 bd e3 91 f9 3d c5 30 85 3e fa cc 74 3e
       -0.09533581 0.12186029 0.2601377 0.23906317
0000e0 e7 01 4f be c3 10 40 3e 4c fb c1 3e 7d a5 e3 bd
       -0.2021557 0.18756394 0.37887037 -0.11115549
0000f0 c3 6e 8c be c9 77 68 be 2f 20 d0 3d bf 6c 33 3e
       -0.27428254 -0.22701944 0.101623885 0.17521952
000100 d2 6b 14 bf 4b cf 59 bd 0a 18 cf be 2f e3 e0 be
       -0.5797702 -0.053176206 -0.40448028 -0.43923327
000110 50 57 db 3d 54 e8 07 be 71 3b f4 bc 9c 82 bf bd
       0.10710013 -0.1327222 -0.0298135 -0.09351084
000120 45 34 08 bf 1e 42 6c be 94 d5 59 3e b6 c7 7e be
       -0.53204757 -0.23072097 0.2127288 -0.24880871
000130 c8 96 a0 3e 4d c6 b1 be 59 78 c3 be ef 76 84 be
       0.31365037 -0.34721604 -0.38177755 -0.2587199
000140 71 16 f6 bd 56 d1 f6 bb 5f 11 04 be ed 57 16 be
       -0.12015999 -0.007532279 -0.12897252 -0.14681979
000150 f2 b3 b1 bd 5f d6 17 bf 12 b1 85 3c 07 30 25 be
       -0.086769 -0.5931148 0.016319785 -0.16131602
000160 f9 1a 9d bd 93 60 d0 3e 3b 81 6f be 3b f8 06 bf
       -0.0767116 0.4069868 -0.23389141 -0.5272252
000170 f8 6b 32 3e a0 82 40 3e 3a e9 9d be dd 20 92 3e
       0.17424 0.1879983 -0.30842 0.28540698
000180 9b 62 6b be a8 e9 d6 3d 52 81 d1 3c 37 06 21 bd
       -0.22986834 0.10493785 0.02557436 -0.039312568
000190 33 c2 54 bf e0 0e 34 be 31 0e ba bd 09 34 77 bd
       -0.83108824 -0.175838 -0.09084738 -0.06035236
0001a0 b1 1f b1 be a1 f9 21 3b cf dc bd 3d cb fd d2 3e
       -0.3459449 0.002471544 0.092706315 0.41209254
0001b0 4a 53 d5 bd 5a 76 f0 be f6 2f 69 be d2 12 8e be
       -0.10416277 -0.46965295 -0.22772202 -0.27748734
0001c0 4f 7b 28 bf d7 18 8f be 5b 7e c3 be 92 4e dc bd
       -0.65813154 -0.2794864 -0.3818234 -0.107571736
0001d0 8e d3 a2 be 1d b6 2a 3d 0f 77 af be 67 a7 b6 be
       -0.31802028 0.041677583 -0.34270522 -0.35674593
0001e0 8f 21 09 3e 21 f4 96 be 71 d1 e8 be b8 03 af bc
       0.13391708 -0.2948313 -0.4547229 -0.021364078
0001f0 98 a6 21 3f 06 c8 9f 3b 52 84 90 be 97 9a 9b be
       0.63144827 0.0048761396 -0.28225952 -0.3039138
000200 3e ca dd be dd a0 3c 3d d7 bd df be 7e b6 1f bf
       -0.4331836 0.04605185 -0.43699524 -0.62387836
000210 3c 0d 41 3e 32 e0 c0 be 96 04 3c bd 29 52 1e be
       0.18852705 -0.37671047 -0.04590281 -0.15461029
000220 76 66 ec be 50 63 46 be c0 89 22 3e 2c 2a 71 be
       -0.46171921 -0.19373822 0.1587286 -0.23551244
000230 77 41 3d 3d 4b 64 6e be 99 04 61 be cd e4 45 be
       0.04620501 -0.23280446 -0.2197441 -0.19325562
000240 3e ed 6d 3d f7 b4 37 be 62 b3 83 be eb 02 17 be
       0.05808758 -0.17940126 -0.25722796 -0.14747207
000250 21 2e d4 bd e4 67 1d bf c7 7f 0e be 0c b7 c8 bd
       -0.10360361 -0.6148665 -0.1391593 -0.098005384
000260 ac ca f3 3d fe 69 d5 3e cd e3 12 be 2d d5 00 bf
       0.11903891 0.41682428 -0.14344712 -0.5032528
000270 81 26 86 3e 3d 23 41 3e ef d0 24 be 45 9b d8 3e
       0.2620125 0.18861099 -0.16095327 0.4230596
000280 da c3 8f be e6 8a e5 3d 53 62 a5 3e 21 e4 65 be
       -0.2807911 0.112081334 0.32301578 -0.22450306
000290 00 46 28 bf 68 60 cd be 61 d9 dd 3c 34 2b ef bd
       -0.6573181 -0.40112615 0.027081193 -0.11678162
0002a0 d9 cf d2 be 55 62 b4 bd b2 c9 7f bd ec 61 d2 3e
       -0.411742 -0.08807818 -0.06244821 0.41090333
0002b0 46 08 fc 3c 97 67 e0 be 4e 6b f4 bd 1f dc 81 be
       0.030765664 -0.43829033 -0.11934529 -0.25363252
0002c0 13 5b 69 bf 54 61 dd be ce 3e 71 be b5 bb f1 bc
       -0.91154593 -0.43238318 -0.23559114 -0.029508451
0002d0 f9 3b a2 be 30 14 b0 bd ba 9a d1 be 8c 0b da be
       -0.3168638 -0.085976005 -0.4093836 -0.42586935
0002e0 07 8f dd bb 19 0d 06 bf 46 45 43 bf cf 0f 29 be
       -0.006761435 -0.52363735 -0.7627758 -0.16509937
0002f0 50 ac 4f 3f fc 3b b8 bd 41 60 a3 be dc 43 79 be
       0.81122303 -0.08995816 -0.31909373 -0.24342293
000300 f8 e2 1f be 48 9c 39 3e 4c 83 08 3d ad 5a a3 bd
       -0.15613925 0.18126023 0.03332834 -0.079762794
000310 a9 9d 13 be 6e 36 63 bd 90 98 48 be 2b 98 a8 bd
       -0.14415611 -0.05547183 -0.19589448 -0.08232149
000320 d4 41 c3 bd 9a 5f b6 3c 6f 17 d7 3d b1 71 bf bc
       -0.0953404 0.022262383 0.105025165 -0.023369642
000330 27 0a 2a be 47 3c 62 be c3 f1 b8 3d 32 07 f7 bd
       -0.16605435 -0.22093306 0.090304874 -0.12061919
000340 78 f3 74 be d8 fe ff 3c f6 37 44 be 59 67 9a bc
       -0.23921001 0.031249449 -0.19161972 -0.018848108
000350 50 84 00 be 4f a4 53 bd 97 b5 1a be ad 66 1b bd
       -0.12550473 -0.05167037 -0.15108334 -0.037939716
000360 30 c1 ff bc 49 cb e4 bd c2 35 84 bb 97 00 1b 3e
       -0.031220049 -0.11171586 -0.0040347287 0.15136944
000370 e9 91 3d 3e 54 8a 90 3e ad cf 13 be 52 15 b6 3e
       0.18512692 0.28230536 -0.14434691 0.3556314
000380 80 a5 27 be 75 a5 3e bc cf 23 79 3e ed fd ba be
       -0.16371727 -0.011636128 0.24330066 -0.36521855
000390 51 58 c1 3e 27 42 6f ba 22 c7 ff bd 7b e4 99 bc
       0.37762693 -0.0009126984 -0.124891534 -0.018785706
0003a0 9b 88 a4 3e 10 f5 00 be f1 93 16 bd 15 ba 1b be
       0.32135472 -0.12593484 -0.03676218 -0.15207703
0003b0 34 e8 fe bd b3 72 81 3e f1 91 df bd bc d6 50 be
       -0.12446633 0.2528282 -0.10916508 -0.20394415
0003c0 cd 16 18 be 5b 80 37 be 66 65 e0 bd e5 e5 bf 3d
       -0.14852448 -0.17920057 -0.1095684 0.09370021
0003d0 19 26 3d be d3 32 a0 be cd c7 27 be dd 7b 83 3e
       -0.18471564 -0.31288776 -0.16384812 0.25680438
0003e0 90 99 33 3c 6f 3c 84 be fc 02 49 bc 63 59 4f 3e
       0.010961905 -0.25827357 -0.012268778 0.20248942
0003f0 3f f8 f2 bc 48 af 16 be 57 a0 26 3e a2 3d 43 bd
       -0.029659389 -0.14715302 0.16272102 -0.0476662
