model/datten/6h_vs_8z/9_vdn_net_params.pkl (torch, 340629 bytes, 43 tensors)

atten_w.keys_nn.0.weight f4 [64, 4]
000000 b3 3a b2 bd 14 c0 c2 3e 98 52 4b be b4 b0 aa 3e
       -0.08702602 0.3803717 -0.19855726 0.3333794
000010 e8 1c 0a 3c 9a 4c b7 bd 11 ab ab 3e e3 06 30 bf
       0.008429743 -0.089501575 0.3352895 -0.6876051
000020 46 ec 86 3d 70 ff 2c be d9 2b f2 3e d5 4c 37 bf
       0.06588034 -0.16894317 0.47299078 -0.7160161
000030 9c 1f 04 bf ec 80 dd 3e 51 d3 48 3e 3c 7b fb be
       -0.5161073 0.43262422 0.19611861 -0.49117458
000040 07 dc ef bd 2a c0 1a bc 79 62 3a 3f 28 e7 95 bd
       -0.11711889 -0.00944523 0.7280651 -0.0731948
000050 27 d7 cb be d1 be 1c 3d ec c4 4c bf 14 e3 cb bd
       -0.39812586 0.038267914 -0.7998798 -0.09955421
000060 cf a9 f4 3e 92 4c db be b1 79 f0 be 80 46 4a 3f
       0.47785804 -0.42831856 -0.46967843 0.79013824
000070 12 e3 e1 3e 49 57 54 be a3 8d f7 3d 9e 26 08 3f
       0.44118553 -0.20736422 0.12087562 0.53183925
000080 7e 6e 49 bd 35 3d 46 3e 68 f3 4e bf 1c 74 20 be
       -0.04917764 0.19359286 -0.8084016 -0.15669292
000090 e1 9a cc be 68 64 8c 3e 0b 27 5c be 16 e5 2a bf
       -0.39961913 0.27420354 -0.21499269 -0.6675581
0000a0 c8 95 4c 3e 57 43 13 3c f5 04 d0 be 4b d4 29 3f
       0.19979012 0.008988223 -0.40628782 0.6633956
0000b0 28 88 c5 3e 0c 6a be bb 40 6a 21 3f 63 90 0f 3e
       0.3858044 -0.0058109816 0.6305275 0.14019923
0000c0 54 a8 ef bd 63 9f 6b 3d a5 fd af 3d 89 c6 00 bf
       -0.11702028 0.05752505 0.08593301 -0.5030294
0000d0 3e ca 93 be 5e a8 fb be 64 59 86 3f 11 66 79 3e
       -0.28865236 -0.4915189 1.049603 0.24355341
0000e0 80 46 7e be 23 c6 36 be 54 55 c6 3e 17 16 49 bf
       -0.24831581 -0.1784902 0.38736975 -0.7854933
0000f0 43 9c d6 3a a8 b7 ae be 69 87 ea be 49 71 00 bf
       0.0016373474 -0.34124494 -0.45806435 -0.5017286
000100 a1 d6 ce 3d 32 f4 ba bd 08 d5 2c bf 49 35 36 bf
       0.10099531 -0.09128608 -0.6751256 -0.71175057
000110 be 7b 63 3e 8a 93 e2 bd e5 ff 41 3f 1f 32 94 3d
       0.22215173 -0.11063297 0.7578109 0.07236122
000120 e9 95 ed be 17 6f 97 3e 3d 75 af be 39 7e e9 be
       -0.46403435 0.29576942 -0.34269133 -0.45604113
000130 52 fb 85 3e 17 2d 06 3c c6 e5 87 3e c8 34 ff 3e
       0.26168305 0.008189461 0.2654249 0.49844956
000140 fe 5a 88 3e 76 c7 06 bd 18 9b 3b 3f 8b b1 d3 3e
       0.26631922 -0.032905065 0.7328353 0.41346392
000150 e8 44 cb 3e 2b 50 29 be 94 c4 bc 3e 10 74 20 3f
       0.3970101 -0.16534488 0.36868727 0.626771
000160 99 a3 a2 3d a0 89 57 3e 14 a8 54 3f 7b 12 82 be
       0.0794136 0.21048594 0.83068967 -0.25404724
000170 6b 3f b5 3e 94 4c 49 be f1 25 19 bd e3 2f 19 bc
       0.35399947 -0.19658118 -0.0373897 -0.009349796
000180 bc e0 7b 3d a2 32 3e bd b9 ab a0 be ce 6c e7 be
       0.06149362 -0.046435006 -0.31381014 -0.452002
000190 48 6b 92 3e aa cf 2c 3e 68 7d 27 3f ce b1 4a bd
       0.28597474 0.16876093 0.6542573 -0.049485974
0001a0 f9 c7 5b bc 3a 9c 76 be d4 0f ef be ad 37 4b bf
       -0.013414376 -0.24083033 -0.46691763 -0.7938183
0001b0 14 09 ed 3d 1a dc ba bd 04 f5 0e bf 7d 27 56 bf
       0.11573997 -0.09124012 -0.55842614 -0.83654004
0001c0 27 a6 2e 3c 5c f9 80 be f6 5a 5c 3f e6 ad 53 3e
       0.010659731 -0.25190246 0.86076295 0.20671806
0001d0 2f 84 9a be 9a cd ff 3e d8 bb 3f be c0 82 3d 3d
       -0.30178973 0.4996155 -0.18724 0.04626727
0001e0 82 4c ee be 20 d3 bf 3c 14 7b 73 3c e8 eb a2 bd
       -0.46542746 0.023416102 0.014860887 -0.07955152
0001f0 e1 21 32 bd 17 6b 3a 3e 54 d5 4b 3e a1 d5 fd 3c
       -0.04348934 0.18204914 0.19905597 0.030985655
000200 e2 62 89 3e 68 64 51 bd 1d 9c b7 be 58 f2 fb 3e
       0.26833254 -0.051121145 -0.35861292 0.4920833
000210 9a 74 7a 3e 2b 4e 01 be 70 dc 03 3f ce 5b 8c 3e
       0.24458542 -0.12627475 0.51508236 0.2741379
000220 b0 72 3e be ea 88 37 3e 25 a2 56 bf 5e 96 a6 3e
       -0.18598437 0.17923322 -0.8384116 0.32536596
000230 97 2f 83 be 7e 21 06 3f 06 8a 3a bf 32 fc bc be
       -0.25622246 0.52394855 -0.7286686 -0.3691116
000240 e4 57 98 3d 3c 64 90 3e 3e 49 07 bf b5 ee d9 3e
       0.07438639 0.28201473 -0.52846134 0.42564932
000250 69 74 20 bd 62 86 92 be 9c e4 df 3e 7c b0 14 bf
       -0.039173517 -0.2861815 0.43729103 -0.58081794
000260 93 50 7a 3e a0 f4 81 3e e9 fd 2e be 09 16 51 3f
       0.24444799 0.25381947 -0.17089047 0.8167425
000270 93 22 59 be 4c e4 5f 3e 21 72 20 3f 14 da b4 be
       -0.21204595 0.21864432 0.62674147 -0.3532263
000280 a1 48 77 be f6 f5 5c be 84 99 a4 be ad 70 2f bf
       -0.241488 -0.21578202 -0.32148373 -0.68531305
000290 cb 58 6f 3e 6f 88 c1 be 8e 29 f5 bd cf a6 a3 3d
       0.23373716 -0.37799403 -0.119708166 0.079908006
0002a0 db 91 f7 bd ff b8 fd 3c 26 9f 30 be fb 20 ec bc
       -0.120883666 0.030972002 -0.1724821 -0.02882432
0002b0 04 a5 d9 be c9 5f a0 3e 58 77 8b be 1c a7 0a bf
       -0.4250871 0.31323078 -0.2723949 -0.5416124
0002c0 76 b9 a2 3e 74 da 7d 3e 87 9e 4c bb 5e ec cd 3e
       0.3178212 0.24790365 -0.003122242 0.40219396
0002d0 ce 35 40 be c0 e2 96 be 46 f9 c9 bd 5f 62 33 bf
       -0.18770525 -0.29469872 -0.09861998 -0.7007198
0002e0 5f dd 71 3d bc 4a 83 3e e2 00 12 3f 18 2c de be
       0.059049007 0.25642955 0.570326 -0.43393016
0002f0 4f 94 21 3e 07 ef 02 bf 60 63 2c 3f 4c 30 a4 3e
       0.15779231 -0.51145977 0.67339134 0.32068098
000300 89 c4 9f be 0a 81 a0 bd 4f ca 1e bd ab db 48 bf
       -0.31204632 -0.07837112 -0.038767155 -0.78460187
000310 19 14 87 3e 0f 2a 11 bc a9 9f 7c 3e 48 0f 15 3f
       0.2638252 -0.008860125 0.2467028 0.5822644
000320 66 a8 05 3f 37 77 13 bf 8f c4 a3 be 78 68 83 3d
       0.5221008 -0.5760378 -0.319859 0.0641641
000330 67 e7 33 3e af 1b 7c 3e f7 c5 a5 3e 09 da 12 3f
       0.17568742 0.24619935 0.32377598 0.57363945
000340 97 f8 e4 bc 92 18 9d be 05 a7 d9 3e 3f 09 bc bd
       -0.027950568 -0.30682808 0.42510238 -0.09181451
000350 ac 7c a7 be 94 79 e3 be db e7 a7 3e 84 96 4e bf
       -0.32712305 -0.44428694 0.3279408 -0.8069842
000360 2e 0e 95 3e b9 b6 46 be d0 7f 76 be f8 b3 17 3e
       0.2911238 -0.1940564 -0.24072194 0.14814746
000370 bd 8e bd 3e 9c 7c ed be d2 ad 05 3f cd 0b 31 3d
       0.37022963 -0.46384132 0.52218354 0.043224145
000380 2a 06 53 3e 9b 79 c0 bd 7c cb 18 bf 87 22 14 3f
       0.2060782 -0.093981944 -0.5968549 0.57865185
000390 67 47 87 3e e6 bf 47 3e 67 3c 9c 3e 51 b5 38 3f
       0.26421663 0.19506797 0.30514833 0.72151667
0003a0 e8 2c 1a 3e a6 30 da be 68 f8 0a bf ff f4 da be
       0.15056193 -0.4261524 -0.5428529 -0.42765042
0003b0 37 cf ae 3e b5 6a f4 be 44 22 4a bf 88 6c 25 3e
       0.34142467 -0.4773766 -0.78958535 0.16154683
0003c0 6c 24 87 be 40 13 79 3e cd 30 e3 3e a1 f2 33 bf
       -0.26394975 0.2432375 0.4437317 -0.702921
0003d0 54 15 a4 be 6b 16 d8 3d e1 3e 25 3f c9 52 db be
       -0.32047522 0.10551151 0.6454907 -0.42836598
0003e0 e6 7e cb be b1 49 91 be 69 9b 79 be 8b 03 6d bd
       -0.39745253 -0.28376535 -0.2437569 -0.057864707
0003f0 2f cb 9d 3e 57 93 61 3e 1a b1 00 3f 4e 2d f8 3e
       0.3081908 0.22028862 0.50270236 0.48472065

atten_w.keys_nn.1.weight f4 [64, 4]
000000 59 8c da 3e 24 92 f8 3d 89 c1 93 be 2c a7 d0 3d
       0.42685202 0.12137249 -0.28858593 0.101881355
000010 a0 af 1b be e6 2b 69 be 26 7c 4c 3f d6 8e 06 3f
       -0.15203714 -0.22770652 0.79876935 0.525617
000020 98 09 69 3d 83 db 16 bf bb 25 43 be 66 a2 c5 3c
       0.056893915 -0.589287 -0.19057362 0.02412529
000030 e6 cf 15 bf be 3b e1 3d b4 5e b6 be 81 6c dc bd
       -0.5852035 0.10997723 -0.35619128 -0.10762883
000040 9d 02 fc be 3d d3 94 be 0e 4a c7 3e 9a 75 52 bc
       -0.49220744 -0.29067412 0.38923687 -0.012845421
000050 47 87 c7 3e 93 c0 4f be 9b 5e 2e be fa 35 78 3c
       0.38970396 -0.20288305 -0.17028277 0.015149588
000060 4a b8 b0 be 9e f5 3b 3f 16 fd c8 bd f0 9f 8d 3e
       -0.345156 0.7342166 -0.09813897 0.27661085
000070 5e 7e c1 be 67 de 0e 3f c1 95 76 3e d5 91 ac bd
       -0.37791723 0.5580811 0.24080564 -0.08426253
000080 cc 07 0a 3f 4a f1 83 be c0 62 32 3e 70 3c fe 3d
       0.5391815 -0.25770026 0.17420483 0.12413871
000090 b5 87 f8 3e 98 47 6a bd 96 e8 51 3e e5 eb 06 3e
       0.48541036 -0.057197183 0.2049888 0.13175924
0000a0 87 69 d3 3e c5 4a 95 3e 98 3f c3 3e e3 a4 ed bd
       0.41291448 0.29158607 0.38134456 -0.11603715
0000b0 e5 4b 8b 3e e3 5d 90 3e b8 69 a1 3e 70 f2 aa 3d
       0.2720634 0.2819663 0.3152597 0.083470225
0000c0 18 65 61 be 18 bf 34 3f 32 f4 5d be dc 5a 86 3c
       -0.2201122 0.70604086 -0.21675184 0.016400747
0000d0 b7 cf fa be ea 58 ba be 05 27 94 3e 2c 32 f0 bd
       -0.489866 -0.3639596 0.2893602 -0.117283195
0000e0 a3 76 89 be a5 7e b4 be 9b 80 5a be 81 08 33 be
       -0.26848325 -0.35252872 -0.21338122 -0.17483713
0000f0 f8 9b e6 3e 76 71 88 3e 8d 10 0c be 43 7a 2f 3f
       0.4504087 0.26649064 -0.13678189 0.6854593
000100 4f d0 a5 3d 56 0b 02 3f 2e 5c 11 bf cd d3 a4 bc
       0.08096372 0.5079855 -0.5678128 -0.020120526
000110 35 13 31 3e 9f c5 12 be d9 a7 63 be c1 58 17 be
       0.17292483 -0.14333199 -0.22231998 -0.1477995
000120 e0 41 13 bf bd 12 b0 3d 6a 60 8d 3e 74 ff 07 bf
       -0.5752239 0.08597324 0.2761262 -0.53124166
000130 63 22 04 bd 39 c4 8f 3e 7d 33 f1 bd 5b 81 5e 3f
       -0.032259356 0.28079394 -0.11777399 0.8691613
000140 85 92 eb 3e f9 77 95 be aa 61 6a bb 42 a8 7b bd
       0.46010223 -0.29193094 -0.0035763779 -0.06143976
000150 df 76 cc 3e f5 42 bf 3e d5 e3 64 bd 4c 00 6c be
       0.3993444 0.37355772 -0.05588134 -0.23046988
000160 82 cf ad be 2f 1e 53 3e 59 2a 4a bd d4 7a 2b bf
       -0.33947378 0.20616983 -0.049356792 -0.66984296
000170 5e 26 a7 be 1e 98 19 3e e5 62 98 be 57 5a a6 3e
       -0.3264646 0.14999434 -0.2976295 0.324908
000180 ca 7f db bb 77 12 42 3e 46 34 3f bf eb a2 a6 bd
       -0.0066985833 0.18952356 -0.7468914 -0.08136543
000190 b6 95 d9 3e 54 25 75 3e 06 ed 03 3f ce 13 86 3e
       0.42497033 0.23940021 0.51533544 0.26186985
0001a0 2c a9 80 3e bb 4e b5 bd 5e 3c 11 be 73 92 30 3f
       0.25129068 -0.08852907 -0.14183185 0.68973464
0001b0 81 88 4f 3e 0c 70 a5 bd 21 6d d0 be d0 f1 06 3f
       0.20266916 -0.08078012 -0.4070826 0.52712727
0001c0 c6 21 e1 be 0e 89 b5 3e 02 3b bc 3e ee 70 71 bc
       -0.4397108 0.35456127 0.3676377 -0.014736397
0001d0 55 bb 90 3e 71 aa 61 3e f6 60 02 bf 91 6c 95 be
       0.28267923 0.22037674 -0.509292 -0.29184392
0001e0 32 2f d5 be dd 95 3e be d7 ce df 3d 69 5e cc 3e
       -0.4163757 -0.18611856 0.109281234 0.3991578
0001f0 d2 a0 fb 3e 01 f4 4c 3e c8 68 18 be e7 97 94 bd
       0.49146134 0.20014955 -0.14883721 -0.072555356
000200 ac a4 81 3e c6 00 87 be ca d7 9b 3d ea 19 48 3f
       0.25320947 -0.26367778 0.07609518 0.7816454
000210 e5 72 19 3e d9 a5 a4 be c8 8f 61 be 8b 1b 2f 3e
       0.14985235 -0.32157782 -0.22027504 0.1710035
000220 25 50 cf bd 38 29 96 be 0a c3 08 be 3c 4a e2 be
       -0.10122708 -0.29328322 -0.13355651 -0.4419726
000230 03 98 34 3e ef d8 b8 be 62 aa 0c be 2a 34 88 be
       0.17636113 -0.36103007 -0.13736871 -0.26602298
000240 ff 49 e8 bd b1 3a 0e 3f e9 4e ee 3d a0 48 0d bf
       -0.11342239 0.55558306 0.11636145 -0.5518894
000250 cd d2 9a be 74 fc dd 3d 84 f0 06 bf ae 0a 8a 3d
       -0.30238953 0.10839167 -0.5271075 0.06740318
000260 e3 fa 02 be 32 65 64 3d 94 ee bd 3e 41 ed 14 be
       -0.12791018 0.05576057 0.37096083 -0.1454363
000270 6e 4f 7a be 2d 51 f4 bd 7f 96 9e be f7 2f 1f 3f
       -0.24444363 -0.119295456 -0.30974194 0.62182564
000280 17 a9 ed bd 46 4d b4 3e c1 d3 f2 be a9 e2 1a bf
       -0.11604517 0.35215205 -0.4742718 -0.60502106
000290 76 99 8e be 58 ee 6e 3e 48 0b d1 3b 18 c9 b7 3e
       -0.27851456 0.23333108 0.0063795187 0.3589561
0002a0 9d bd 9d be a6 e2 b3 bd 95 aa 9d 3e f8 fb fa bd
       -0.30808726 -0.08783464 0.30794206 -0.122550905
0002b0 be fc c6 3e e3 3d 81 be 68 94 8e 3e 73 52 85 3e
       0.38864702 -0.25242528 0.278476 0.26039466
0002c0 b0 e0 76 be 98 37 8e 3d d2 17 fc be 65 94 06 bf
       -0.24109149 0.069441974 -0.49236923 -0.5257018
0002d0 2e 13 f0 be 8b ba 2b be c4 17 da bc c9 97 23 bf
       -0.46889633 -0.16770379 -0.02662266 -0.6390348
0002e0 a7 b0 0f 3f 68 80 94 be e3 d1 9b 3e ca 0b ed 3d
       0.56128925 -0.29004216 0.30433568 0.11574514
0002f0 70 5a 26 3f 1c 9d 96 bc 16 96 4c be 58 b0 09 3d
       0.64981747 -0.018385462 -0.19979128 0.03361544
000300 29 ce 8b bc be 64 05 be c7 c1 2a 3f 00 f1 a4 3e
       -0.017066078 -0.13026711 0.6670193 0.32215118
000310 49 55 e5 be ba 93 08 bf fe 90 b3 3e 6e 9b e3 3e
       -0.4479163 -0.5335041 0.35071558 0.4445452
000320 b1 c2 f6 be 77 60 51 3e dc e5 12 3e 13 c2 b3 3e
       -0.48195413 0.20446955 0.14345497 0.35109004
000330 d6 7f 9a bd fc c7 22 3e 8f 6c 9e bd 8d f0 4f bf
       -0.07543914 0.158966 -0.0773555 -0.81226426
000340 68 be e6 be f1 70 9b be 14 52 1f bf c4 bc f0 be
       -0.45067143 -0.30359605 -0.62234616 -0.47019017
000350 09 fd 4a 3e b0 57 bc bd b7 2e 3c be ec ec ae 3e
       0.19823088 -0.091964126 -0.18377195 0.34165132
000360 81 ad b5 bd 83 2b ee 3e f1 13 fb be 6b 87 b3 be
       -0.08870984 0.46517572 -0.49038652 -0.35064253
000370 30 51 f0 bd ea 94 3b be 13 ce ce 3d 05 c3 e6 be
       -0.11734235 -0.18318525 0.10097899 -0.45070663
000380 fd e9 17 3f e3 72 74 be 12 7d bc be d4 7d 88 3e
       0.5934141 -0.23871951 -0.3681417 0.266585
000390 06 db 51 3e b7 a0 fb bd 2e 17 b0 be 90 1e b8 3d
       0.20493707 -0.12286513 -0.34392685 0.08990204
0003a0 bb 8b 5a 3e fb 05 19 bf 0c 74 de bc 36 ed 9b bd
       0.21342365 -0.5977475 -0.027154945 -0.07613604
0003b0 3f a6 59 be 1c 66 b6 3d cb d6 cf 3e 67 78 54 bf
       -0.21254824 0.089061946 0.40593562 -0.8299622
0003c0 e2 a2 a7 3e 2e 87 08 bf c5 e5 68 3e bf d4 19 bc
       0.32741457 -0.5333127 0.227439 -0.0093891015
0003d0 84 86 db be 23 d6 ae 3e 3f 7f 8a 3e 48 a9 80 be
       -0.42876065 0.34147748 0.27050206 -0.2512915
0003e0 60 14 7e bd 44 a5 03 be 84 66 43 3f 62 83 32 3f
       -0.06203115 -0.12856013 0.763283 0.69731724
0003f0 66 8d e6 3e 38 19 11 be fb 84 2e be f0 f0 36 3d
       0.45029753 -0.14169776 -0.17042916 0.04466337

atten_w.keys_nn.2.weight f4 [64, 4]
000000 70 0f 4c bd b9 d6 c8 bc f9 b1 1e bf 37 2c dd 3e
       -0.04981941 -0.02451645 -0.61990315 0.43197796
000010 2e 75 9f 3e 58 4a 9a be 44 b9 62 be af 3b cc 3e
       0.31144089 -0.30134845 -0.22140986 0.39889285
000020 ed cc 42 bd 6b a4 c5 be 00 18 0d bc 99 6b 1a 3d
       -0.047558714 -0.38602003 -0.008611679 0.03770027
000030 9c c9 d6 3e 15 d8 ce 3e 1a 97 84 be ab d2 71 be
       0.4195069 0.40399233 -0.2589653 -0.2361552
000040 0b 5e 06 bf fb b5 47 be ba 72 e6 be ae 83 f0 be
       -0.5248725 -0.19503014 -0.45009404 -0.46975464
000050 05 9c 1a 3e 1b 9a 53 be 3f 75 e7 3e 80 3a c3 3e
       0.15098579 -0.20664255 0.4520664 0.3813057
000060 44 c3 3b 3e 0c 42 bd be 92 64 0e bf 01 e6 1a 3f
       0.18336207 -0.36964452 -0.5562221 0.6050721
000070 db 33 90 be d7 49 f4 3e d3 35 d7 be 02 e1 7c bd
       -0.28164563 0.47712585 -0.42033252 -0.06173802
000080 df 31 ae 3e 1f e9 a3 3e 22 63 48 3e 99 8c 93 bd
       0.34022424 0.32013795 0.19569066 -0.07204551
000090 62 e0 d1 3e 02 92 02 3f fb 9c 43 3e 72 03 2a be
       0.40991503 0.5100404 0.19102852 -0.16602877
0000a0 68 82 c0 be e6 bc 18 3f d5 8e 30 be 13 30 25 bf
       -0.37599492 0.59663236 -0.17241986 -0.6452648
0000b0 00 aa f5 3e 7f 75 9c 3e 09 fe dc 3e a0 3c 71 3f
       0.47981262 0.30558392 0.43162563 0.9423313
0000c0 b4 58 99 be f6 e8 d1 be c3 f7 d9 3e 7c 78 36 3e
       -0.29950488 -0.40998048 0.4257184 0.17819399
0000d0 44 e1 98 be 92 c7 17 3e 24 da 1a bd 16 ea e9 be
       -0.29859364 0.14822224 -0.03780569 -0.45686406
0000e0 65 5e 69 3e 32 8b e8 be 83 ed fe be 01 1a 18 3f
       0.22789915 -0.45418698 -0.49790582 0.5941468
0000f0 12 35 5a be 02 16 2c bf 0d a8 2c 3e 6b 1d 36 bf
       -0.21309307 -0.6722108 0.16860981 -0.7113864
000100 d4 fc db be 81 6e 05 bf 5c 04 4a be 2a 96 73 3e
       -0.4296633 -0.5212174 -0.19728225 0.23787752
000110 d2 c3 e9 be 7c aa 83 be df 9f ee 3c f3 52 6f 3e
       -0.45657212 -0.25716007 0.029128967 0.23371486
000120 b0 23 ca 3e 8d b0 f9 3d 91 6a 93 3e 2f 92 49 3f
       0.39480352 0.121918775 0.2879224 0.78738683
000130 ee a4 e2 be 20 de d0 be ef 7a 0d be 99 9c 57 3d
       -0.44266456 -0.40794468 -0.13816427 0.052639578
000140 82 d2 bf 3e 44 9c b3 be 2c 42 ca 3e f8 d4 9c be
       0.37465292 -0.3508016 0.3950361 -0.30631232
000150 f7 23 9b 3e ea 99 a0 be f0 7b 60 3e d5 42 b3 be
       0.30300876 -0.31367427 0.21922278 -0.35011926
000160 b9 bc 2e be 71 d1 89 3e b5 76 a8 3e 6d 82 cc b9
       -0.1706418 0.26917604 0.32903066 -0.00039007087
000170 61 88 25 3e ed 96 a2 3e a0 f7 00 be c7 8c 1d 3e
       0.16165306 0.31755772 -0.12594461 0.15385734
000180 b8 d1 e3 bd 8b ee 62 3e da 4a c8 be 16 08 b3 be
       -0.11123985 0.2216131 -0.39119607 -0.34967107
000190 bb d3 8d 3e 97 54 0d 3e 72 1a 9e 3c bd 3a 66 be
       0.277006 0.138018 0.01929972 -0.22483344
0001a0 b8 25 67 3e 34 b0 94 3e 69 76 39 3e 09 e6 d3 be
       0.22572982 0.29040682 0.18111576 -0.4138644
0001b0 93 b2 ac bd b2 65 b4 be 7d 72 e0 3e a8 fe 98 be
       -0.08432498 -0.35233837 0.43837348 -0.29881787
0001c0 a4 67 b6 3e 71 5a fb be 06 e2 c1 3e 1a 4c 74 3d
       0.35625947 -0.4909244 0.37867755 0.05964289
0001d0 d0 d4 f3 3e 35 c7 d5 3e eb 29 dd be 3a 14 7a 3e
       0.476233 0.41753545 -0.43196043 0.24421778
0001e0 99 89 d3 be f6 53 07 bf 8e 44 7b 3e e9 ee c7 3e
       -0.41315916 -0.5286249 0.2453787 0.3904946
0001f0 3e fe de be 22 5c 6d 3e 68 d2 5d 3e 07 bd 1a bf
       -0.43553346 0.23179677 0.21662295 -0.6044468
000200 89 bc f2 3e a0 90 10 3f 0a d1 ad 3e 2a 9c 0f 3d
       0.47409466 0.5647068 0.33948547 0.03506104
000210 1e 66 ab 3e f0 9f 0e 3d b4 9d ca be 99 60 fb bd
       0.33476347 0.034820497 -0.39573443 -0.12274284
000220 d7 05 f6 be 92 78 16 bf 98 dd e1 3e 4c 26 d0 be
       -0.4805133 -0.58777726 0.44114375 -0.40654218
000230 de 3e 15 3e 74 5d 7b bd 43 45 36 3e 63 8b 13 3d
       0.14574763 -0.06136842 0.17799859 0.0360216
000240 10 54 44 3d 36 ce 41 bf 7d 12 c6 3e 72 66 dc 3d
       0.04793173 -0.7570528 0.3868598 0.107617274
000250 ef c2 b3 3e 69 f5 ce 3d 38 f4 fb b9 fb 5f 10 3f
       0.3510966 0.10105402 -0.00048056408 0.56396455
000260 98 30 d8 3e 47 45 e1 be 39 58 bb be 55 b6 de 3e
       0.42224574 -0.43998167 -0.36590746 0.43498483
000270 ad 01 c0 be 31 6c ba be 59 64 0b 3f c7 b7 88 be
       -0.3750128 -0.36410668 0.54449993 -0.2670271
000280 03 c4 c9 3e 2d d9 fe be 1a 2d ae be 30 85 b1 bc
       0.39407358 -0.49775067 -0.34018785 -0.021669954
000290 f5 98 a0 be d0 c5 d7 3e f5 32 ed 3e 60 dc 0b bf
       -0.31366697 0.42143106 0.4632794 -0.5463314
0002a0 5a 33 3e be aa 21 0e be b9 90 16 bf 10 43 bf 3e
       -0.18574277 -0.1388003 -0.5881458 0.37355852
0002b0 8b 07 7c bd 62 97 09 3f 3a fd 0a bf f9 75 34 bd
       -0.06153063 0.53746617 -0.54292643 -0.04405782
0002c0 1c 0f 54 3d f0 1b cd be 24 18 12 3f ab f7 da 39
       0.051772222 -0.40060377 0.57068086 0.00041764727
0002d0 f5 d4 0e bd 0f 00 b9 3e 63 ad bc 3e af 02 3b be
       -0.03487106 0.36132857 0.36851034 -0.18262742
0002e0 74 11 d7 bc 6e d7 af 3e d9 ac c3 3e fa 41 20 bd
       -0.02625344 0.34344047 0.3821781 -0.03912542
0002f0 be a4 94 be 54 d2 3d be ba 9a 7d be 4f 04 5b 3d
       -0.29031938 -0.18537265 -0.24766055 0.053470906
000300 b9 c8 85 3e fe 83 e2 3e 82 89 ad 3d c9 ef b0 bd
       0.26129702 0.44241327 0.08473493 -0.086394854
000310 c2 00 f8 be aa 41 98 3e 22 90 c0 3e ab 13 11 3d
       -0.48438078 0.29737598 0.37609965 0.035419147
000320 d0 f0 96 be 33 10 41 be d7 25 9c 3e 5b f4 ad 3e
       -0.294806 -0.18853836 0.3049762 0.3397549
000330 53 dd 0b 3e 0e 2a 16 bf a1 63 b8 be ee 13 80 3e
       0.13658647 -0.5865792 -0.3601351 0.25015205
000340 f9 5f 8b be 59 76 0a bf a2 4e fb be 1d 18 61 3e
       -0.2722166 -0.54086834 -0.4908343 0.21981855
000350 72 e2 ec 3e d6 ac d6 3e b1 58 9a 3e aa 0f bf be
       0.46266514 0.41928738 0.3014579 -0.37316638
000360 8c 81 75 3e 21 33 5f 3e 48 96 d5 3d 46 af 8b 3e
       0.239752 0.21796848 0.104290545 0.2728216
000370 ae 7e b8 bd 43 44 17 bf 20 da c5 3d 83 78 bb bd
       -0.09008537 -0.59088534 0.09660745 -0.09153845
000380 ad 23 3e 3e 1f 70 d3 3e b2 79 ab 3e 56 3c 1e 3e
       0.18568297 0.4129648 0.33491284 0.15452704
000390 3f f8 cb 3e f5 c6 85 be 6f 73 94 3e 41 a0 18 be
       0.39837834 -0.26128355 0.2899432 -0.14904882
0003a0 02 07 62 3e 59 9a 93 3e 9a f9 cd be 2b f8 a2 be
       0.22072986 0.28828695 -0.40229493 -0.31829962
0003b0 bd 24 da bd be 1e 31 bf b9 fc b8 3d 3e 42 1b bf
       -0.106515385 -0.69187534 0.09032578 -0.6064795
0003c0 80 bb 53 be 09 6b cd 3e a6 1c c5 3e 0c e6 24 be
       -0.20676994 0.40120724 0.3849842 -0.16103381
0003d0 ce c5 e4 3e 45 d5 79 be d9 62 40 be b9 e8 f1 bd
       0.44682163 -0.24397762 -0.18787707 -0.118119664
0003e0 5c c4 00 3f 88 a3 ab be 49 66 ce bd 95 b0 d8 3e
       0.5029962 -0.33523202 -0.10078103 0.4232222
0003f0 b5 a2 2f be 68 65 33 3f b5 73 08 3f 91 8b 03 3f
       -0.17151912 0.7007661 0.53301555 0.51384836

atten_w.keys_nn.3.weight f4 [64, 4]
000000 2a 07 5f 3e 0b 72 88 3e 62 9c 98 be d9 01 ed 3d
       0.21780077 0.26649508 -0.2980681 0.11572618
000010 9c dc 19 3e a3 af c1 be 10 87 53 3f 40 4b c7 bd
       0.15025562 -0.37829313 0.82627964 -0.0973115
000020 4c 44 dd 3e fd 4b 9e be 85 7c ed be 4a 84 7c bc
       0.4321617 -0.3091735 -0.46384063 -0.0154124
000030 bf 17 82 be 41 30 a8 be 3a 2b 93 3e c8 a9 2f bf
       -0.25408742 -0.32849315 0.28743917 -0.6861844
000040 99 19 af 3d fd 5d 78 3e fb e3 28 3f be c9 04 bf
       0.08549804 0.24254604 0.6597287 -0.51870334
000050 5c 47 b6 3d b7 19 af 3d e1 b8 d0 3e 20 47 14 3f
       0.089003295 0.085498266 0.4076605 0.5792103
000060 53 0c b5 be b9 27 50 3e 5f 2f 3f be 79 fe 56 be
       -0.35360965 0.20327653 -0.18670414 -0.20995511
000070 fc d5 ae be 8e 8f 19 3e a1 14 b0 bd 8e af 23 be
       -0.34147632 0.14996168 -0.08597685 -0.15984938
000080 c4 0c 85 be f9 41 81 3e 37 c6 e3 bd d1 ad 7a be
       -0.25986302 0.25245646 -0.11121791 -0.24480368
000090 f7 1a e9 be 54 44 ca bd e0 3d 3f bf 15 f9 49 3e
       -0.45528385 -0.09876314 -0.7470379 0.19723924
0000a0 d6 08 fa 3d c4 92 92 3e b6 cf 6a 3e c3 05 c5 3e
       0.122087166 0.28627598 0.22930798 0.38480958
0000b0 19 dd 34 3e 57 d5 92 3d dc c4 ee be 58 07 49 3f
       0.17662467 0.071695976 -0.46634567 0.7852683
0000c0 ef 83 de 3e f0 9e 40 3d 04 05 30 bf 82 ac 4d 3f
       0.43460032 0.047026575 -0.68757653 0.8034135
0000d0 3d 44 9a 3e 6d 75 d6 3e 86 ca 04 bf a2 ad 01 3e
       0.30130187 0.41886464 -0.51871526 0.12663892
0000e0 ef f8 5c 3e d8 9a a5 be 73 90 13 3f db d6 7a 3e
       0.21579336 -0.323447 0.57642287 0.24496023
0000f0 6d c0 7b be 7f 5d 04 bf be 27 b5 3e dd 46 31 bf
       -0.24585123 -0.51705164 0.35381883 -0.69248754
000100 d2 07 8e 3e 29 bd a1 be 35 57 2a 3f ba ca 0d 3f
       0.2774034 -0.3158963 0.6653932 0.5538746
000110 e8 c7 b0 3e 27 a8 e3 3e cf 38 18 3f 12 1c 78 3f
       0.34527516 0.44464228 0.59461683 0.9691783
000120 9b 08 c5 3e f3 5c 91 3e 13 14 11 3f 2d 82 14 3f
       0.38483128 0.28391227 0.56671256 0.5801113
000130 cf f0 2a bc 1f 6b 6d be 94 15 f4 3e 2c a4 3a bf
       -0.01043339 -0.23185395 0.47672713 -0.72906756
000140 2e ff cf be 92 24 6f bd 8c 55 d1 bd 29 2b f0 3d
       -0.40624374 -0.058384486 -0.10221395 0.11726982
000150 67 44 ce be a2 68 e8 3e 3f ef 81 3c fd ac 12 bf
       -0.40286562 0.45392329 0.015861152 -0.5729521
000160 c3 62 29 be c6 b8 0a bd e1 3b 98 bf 7b a0 6a be
       -0.16541581 -0.03386762 -1.1893274 -0.22912781
000170 ab a9 72 3e 3c e2 be 3e 14 9a 77 3f 70 ac f2 3e
       0.23697536 0.37281978 0.9671948 0.47397184
000180 84 33 e8 3e 9e c9 bb bd b3 20 b2 bd 8c 4f fc 3e
       0.45351803 -0.09169315 -0.08697643 0.4927944
000190 98 d3 d7 be 29 93 a3 3e 69 d9 9b be dd 26 31 3e
       -0.4215362 0.31948212 -0.30439308 0.17299981
0001a0 9f 14 c1 3c 46 c1 97 be fd 6f 40 3f eb 9f 14 bf
       0.023569403 -0.29639643 0.7517088 -0.58056515
0001b0 1e 13 7a be 39 a1 5c be 21 68 f8 be 39 e2 a6 3e
       -0.24421355 -0.21545877 -0.48516944 0.3259447
0001c0 3c 7a 06 3f 24 cb ff be 02 c4 16 3f 78 fd 7c 3f
       0.52530265 -0.49959671 0.58892834 0.9882426
0001d0 de 9b b6 be 20 f7 41 be 07 f1 a2 3e 45 12 9d bd
       -0.35665792 -0.18941927 0.31824514 -0.076695
0001e0 8f d0 8f 3d 04 4c e2 be 66 f1 a7 3e 58 2e 5e bf
       0.07022201 -0.4419862 0.3280136 -0.86789465
0001f0 54 a7 9d be f9 fb bc 3e f5 2d 38 be 46 ce 42 bf
       -0.30791724 0.3691099 -0.17986281 -0.76096
000200 22 f2 ac be 2d dd 95 be 90 e9 47 bf 47 88 ed be
       -0.33778483 -0.29270306 -0.78090763 -0.46393034
000210 ff ad 03 3f c7 8c bd be 6d 48 70 bd e3 e7 68 3f
       0.5143737 -0.37021467 -0.05866282 0.9097883
000220 af 84 0d 3d 62 a7 e5 be 80 93 dc 3e 39 a4 c9 3e
       0.034550365 -0.44854265 0.43081284 0.39383104
000230 23 ef f3 3e dc 7f 26 be c5 c1 b2 3d e5 97 56 3f
       0.47643384 -0.16259712 0.08728365 0.8382552
000240 dd 9d c9 be fa eb 8d 3d 59 b5 f2 be ed f6 41 bf
       -0.39378253 0.069297746 -0.47403982 -0.75767404
000250 0c ed b9 be 0c b1 97 be 96 50 10 bf ae 36 32 bf
       -0.36313665 -0.29627264 -0.56372964 -0.69614685
000260 96 03 0d be c6 73 10 bf 63 63 b5 be 0e 79 57 bf
       -0.13770899 -0.56426656 -0.3542739 -0.8416909
000270 4b 9b 5d 3e a7 f7 dd be 34 c2 9c be 0a de 2d 3f
       0.21641271 -0.43353006 -0.30616915 0.6791693
000280 d0 bb e6 be 3e ce cf be fa c9 01 3f b1 7a 6c bf
       -0.45065165 -0.40587038 0.50698817 -0.9237471
000290 27 32 7d 3e 05 bd ae 3e b3 14 b4 be 46 8e 56 be
       0.24726163 0.34128585 -0.35172042 -0.2095271
0002a0 7a 83 4d 3d cf 32 b4 be dc f2 2d 3f 62 aa 08 3f
       0.050174214 -0.35195014 0.679487 0.53384984
0002b0 1d 22 03 3d 4b f5 dc bd 97 92 64 3f 00 37 2e bf
       0.032014955 -0.107889734 0.8928618 -0.68052673
0002c0 ed d4 d1 be 30 7d c9 3e 6c 18 74 be d0 61 3c bf
       -0.40982762 0.39353323 -0.23837441 -0.7358675
0002d0 a6 55 c0 3d 47 5e 9d be 8f 34 0c bf 0a a9 dd bd
       0.09391336 -0.3073599 -0.547677 -0.10823257
0002e0 e7 7a 05 be 80 9d 19 3e 71 ef 43 3f 70 42 44 bf
       -0.13035165 0.15001488 0.76537234 -0.76663876
0002f0 9b ce 2b 3e 8f ea e7 be 1d f5 09 3e 85 9d c6 3e
       0.16778032 -0.45296142 0.1347241 0.38792053
000300 59 15 66 3e 18 bd 94 bd 51 fb b7 be 1c ab 66 3e
       0.22469081 -0.07262629 -0.35933927 0.2252621
000310 e5 e9 26 bd d6 56 9a be 23 91 a9 3d 45 97 53 bf
       -0.040750403 -0.30144376 0.08279636 -0.82652694
000320 92 8d 3c be bc 4e b5 be 7e 17 a3 3e 92 46 21 bf
       -0.1841338 -0.35411632 0.3185386 -0.62998307
000330 dd a8 ca be fc 16 13 3e 31 f8 d6 3e ec 75 12 bf
       -0.39581957 0.14364237 0.4198623 -0.57211185
000340 89 2a 02 be 38 72 e3 bd 22 78 27 3f 0c fe 80 bf
       -0.12711538 -0.1110577 0.65417683 -1.0077529
000350 2e ed c7 be 0d 7d 06 3f 66 e6 67 be 48 cb 59 bf
       -0.3904814 0.5253456 -0.22646484 -0.8507581
000360 c8 21 bd 3c a4 96 ea bd da e7 5d bf a5 27 e7 3e
       0.023087397 -0.11454514 -0.866819 0.45147434
000370 66 0b 3c 3e e4 e3 b9 be 0c ce 2f bf 8e 48 41 3e
       0.18363723 -0.3630668 -0.6867378 0.18875334
000380 99 ac 6b 3e 18 1b c2 be 9f 31 c0 3e 9f be d2 be
       0.2301506 -0.37911296 0.37537858 -0.41161057
000390 ec 52 f5 be 84 1a 77 3e 1b 32 f2 be de 0c 1b bf
       -0.47914827 0.24131209 -0.47303852 -0.6056651
0003a0 fc ce 80 3d d5 05 ba be 03 5b 80 3d ba c7 e3 3e
       0.06289479 -0.36332574 0.06267359 0.44488317
0003b0 78 de e1 3e 26 66 8f be fc 5f a3 be 41 03 27 3f
       0.44115043 -0.2800762 -0.31909168 0.6523934
0003c0 60 48 ce bd 94 9e dc bd 1b 14 5c 3f 5b 0d 24 be
       -0.10072398 -0.10772434 0.8596818 -0.1602072
0003d0 03 8e 17 3e e5 59 9d 3d e3 ae 60 be e4 0f 7a 3f
       0.14800267 0.07683162 -0.21941714 0.976805
0003e0 2a c2 f2 be f1 c8 2a bd 66 98 c8 3e 9d 26 52 bf
       -0.4741376 -0.04169554 0.3917877 -0.8209017
0003f0 bd 90 b5 be 03 a3 07 3f 4b 50 10 3f 81 0b 89 be
       -0.3546199 0.5298311 0.5637252 -0.2676659

atten_w.querys_nn.0.0.weight f4 [64, 140]
000000 88 6c db 3c c8 65 93 bd 42 b9 33 3e 81 69 a5 be
       0.02678515 -0.071971476 0.17551139 -0.32307056
000010 b5 7a 2f be 66 62 91 bd 2b 90 fa bc 2d 3e 22 3e
       -0.17136653 -0.07098846 -0.030586323 0.1584403
000020 a5 df e3 bd 4e 7a 73 bc 6e 02 aa be 19 1c 2a bc
       -0.11126641 -0.014860703 -0.3320498 -0.010382676
000030 22 a8 65 bd d4 f7 08 3c f0 d9 a1 3e 97 db d4 bb
       -0.056068547 0.008359868 0.31611586 -0.0064959037
000040 e0 7d 3a be 8b 5c 71 3d 40 68 e7 bd 38 b1 74 be
       -0.1821208 0.058926146 -0.11299181 -0.23895729
000050 2e 46 cd bd ba ab 81 bd 8c d3 92 be 18 1c 45 bd
       -0.10023151 -0.06331582 -0.28677022 -0.048122495
000060 fb 29 d3 3b ee 9a 45 3e dd b5 4b be 0c fe 49 bd
       0.0064442134 0.19297382 -0.19893594 -0.049314544
000070 74 d2 21 bd c2 03 67 3d 13 a5 1d be 76 df 81 bc
       -0.039507344 0.056400068 -0.15395002 -0.015853625
000080 a8 58 3a 3c ff 7a d0 bc 54 8d 1a be 51 11 96 bd
       0.011373676 -0.025449274 -0.15092975 -0.073275216
000090 b5 99 d1 bc 9b e3 4e 3c a1 44 c2 bd 4b 1c 95 3c
       -0.025585989 0.012627508 -0.09485746 0.018201968
0000a0 ba 49 96 bd 48 e3 3d 3b 5d 58 4c be e3 2c a2 bc
       -0.07338281 0.0028974582 -0.19955583 -0.019796794
0000b0 60 9b d4 3c 06 86 a3 3e 2f 50 04 be 27 3a cb bc
       0.025952995 0.3193819 -0.12921213 -0.024808003
0000c0 41 ac e6 3c 12 a6 de bd 24 8a c3 3c f4 9a a5 bd
       0.028158309 -0.10871519 0.023869582 -0.080861956
0000d0 69 36 70 bc 8a d2 b0 3d c2 40 9c be 41 f3 00 be
       -0.01466141 0.08633907 -0.30518156 -0.12592794
0000e0 9e a5 cf 3d 72 27 4d be 21 de 8a bb 85 b8 3c be
       0.10139011 -0.20034578 -0.0042379056 -0.18429764
0000f0 88 31 9e be 7e 6a 20 be 7d 82 76 bb 69 70 77 3e
       -0.30897164 -0.15665624 -0.0037614398 0.24163975
000100 cb db 88 3e 1d 54 95 3d 4f d1 86 be 2f f7 ff be
       0.2673019 0.07291434 -0.26331565 -0.49993274
000110 f1 c4 91 3d 60 91 1a 3f 4f 3a 95 bc 7a 05 0b bf
       0.07117642 0.60378075 -0.01821628 -0.5430523
000120 7e ff 9b bd a0 8a 3a 3e 7d 71 54 3e 4e a8 3d bc
       -0.07617091 0.18216944 0.20746417 -0.0115757715
000130 99 68 cf be 01 e9 5c 3e ea bb 53 be 04 57 2f 3e
       -0.4050949 0.21573259 -0.20677152 0.17123038
000140 2c 6e 62 3e 52 e2 01 3e 96 e6 bb 3d d3 77 cc bd
       0.2211234 0.1268399 0.0917484 -0.09983792
000150 ef aa 32 bb f9 fb 0c be b3 20 fa be 4a 7c 64 be
       -0.002726253 -0.13767995 -0.48853073 -0.22313038
000160 0c 26 85 be ba b1 ff bc 44 88 b5 3e 7c 88 ad 3e
       -0.2600559 -0.031212676 0.35455525 0.33893192
000170 60 6f 00 bd 5f e1 a1 3d 52 57 96 bd 36 d3 38 3e
       -0.031356215 0.07904314 -0.07340874 0.1804932
000180 93 a7 0e 3d 6f 5f 18 be 8a fb 01 bd d0 df 81 3e
       0.03482778 -0.14880155 -0.031734027 0.25366068
000190 85 5f be 3d 8b 62 4d bd 20 df 66 3e 2b 47 90 be
       0.09295563 -0.050142806 0.22546053 -0.28179297
0001a0 93 f0 41 be c2 5a 76 3e 1b 95 52 3d 52 54 1a be
       -0.18939428 0.24058059 0.05141173 -0.15071228
0001b0 c3 e0 76 3e e3 33 ef 3d 0d 8e 88 3e 13 93 2e be
       0.24109177 0.116798185 0.26670876 -0.17048292
0001c0 c9 ed d2 3d 12 46 1c 3e 36 4b 84 3c 5b 97 f8 be
       0.1029926 0.15261105 0.016149145 -0.48552975
0001d0 dd 62 5d be 32 b3 83 3e b4 df cb bd 7d be a6 3e
       -0.21619745 0.25722653 -0.09954777 0.32567206
0001e0 77 f4 3f 3e 02 dd 8d 3e af e1 88 be e6 db cd bd
       0.187456 0.27707678 -0.26734683 -0.10051708
0001f0 7a 22 16 bf 1d 3d ac 3b c2 c2 c3 3b 72 a4 cc bc
       -0.5864636 0.0052563087 0.0059741447 -0.024980757
000200 9c 20 5e bd 5d 6a 9b 3d b4 aa 7f ba 03 01 9f bc
       -0.054230317 0.075886466 -0.0009752915 -0.019409662
000210 3f cb 88 bd 03 02 ae bd 9a e6 29 be ff f4 f1 bc
       -0.06679391 -0.084964775 -0.16591874 -0.029535769
000220 d4 a0 60 3c 10 ad 95 3e 61 47 76 3e 2e e5 a1 3d
       0.013710219 0.292336 0.24050666 0.07905041
000230 9d fd 7d be 9e f7 e1 3c 4e 3e 17 be 5f 8c 12 3e
       -0.24803777 0.027583893 -0.14769861 0.1431136
000240 07 2f 52 be b0 54 3d 3d 60 29 66 3d d9 96 1a be
       -0.20525752 0.046223342 0.056191802 -0.15096606
000250 57 5f 24 be be 1f dd 3d ad c4 08 be d2 ce 09 be
       -0.16051994 0.1079707 -0.13356276 -0.13457802
000260 5d a9 2c 3d 7a 7e de bb dc a4 dd bc 54 6e 37 3e
       0.042153705 -0.0067899795 -0.02705615 0.1791318
000270 4e 58 49 3e 7e 3a f5 3d 30 07 ae bd ca a2 d2 3e
       0.19662592 0.11974047 -0.08497465 0.41139823
000280 f9 2b 4e be 61 e0 c7 bc e3 06 98 be 4b a8 65 be
       -0.20133962 -0.024398984 -0.29692754 -0.2242748
000290 3a 47 0d be 3b bd bd be 20 37 7a 3d 63 f3 a9 bd
       -0.13796702 -0.37058434 0.061087728 -0.082983755
0002a0 85 30 44 bd 67 43 15 bd 96 bd 22 bd 08 3d 0d 3e
       -0.047897834 -0.036441233 -0.039731584 0.13792813
0002b0 0e 62 71 bd 17 b9 6a 3d 0f 1b b9 3d 76 d9 07 be
       -0.058931403 0.05730542 0.09038364 -0.13266549
0002c0 63 51 7a bd 64 86 1f be b8 66 04 3e 0c b2 e9 3c
       -0.061112773 -0.1557861 0.12929809 0.028527282
0002d0 7e 6b 50 bc a6 d2 93 be 00 a6 5d 3d 78 36 0d 3d
       -0.012720941 -0.2887165 0.054113388 0.034475774
0002e0 40 2b c1 3c 1b 74 51 be 6c 68 88 3c 9b 1d 34 3e
       0.023580194 -0.20454447 0.016651355 0.17589419
0002f0 91 cb d8 bb 96 0b 5d bd f6 69 d3 3d 6e 6c c5 3c
       -0.006616064 -0.053966127 0.10322945 0.024099555
000300 a2 26 b5 3c 3d e8 55 3e 45 9a fb 3d a1 ec da 3d
       0.022113148 0.20889373 0.12285284 0.10689665
000310 d9 b4 06 3c 90 63 dd 3c 1b c3 ae 3b 6e 74 42 bd
       0.008221828 0.027025014 0.005333317 -0.047474317
000320 52 d5 23 3d f2 cb 7e 3c a7 d7 8d 3e 43 76 34 bc
       0.03999836 0.015551554 0.27703592 -0.011014524
000330 4d e4 d1 3c f6 cf 7c bc a0 20 81 bd 62 62 17 3c
       0.025621558 -0.015430441 -0.06305051 0.009239765
000340 a0 e1 0e 3e 90 d0 2f 3e d7 c8 99 3c 27 ef c7 be
       0.13953257 0.17169404 0.018772526 -0.39049646
000350 b6 99 1c 3e 9c 87 aa 3d 86 d3 84 3d cc a9 ee 3d
       0.15293011 0.08326647 0.064856574 0.1165348
000360 48 a1 f0 3c 10 f9 90 be 4f d5 37 3e d1 fd ba 3c
       0.02937378 -0.2831502 0.17952465 0.022826107
000370 29 8b d4 3c c6 07 93 3d bf bd dd 3d 2b 06 dd bd
       0.025945263 0.07179217 0.10827207 -0.10792192
000380 e0 f6 02 3b d6 24 90 3b 44 99 c8 3c ca f3 99 ba
       0.0019983575 0.0043989224 0.024487145 -0.0011745628
000390 33 90 cb 3d 50 61 b9 3d b7 15 9a 3d d2 69 4b 3d
       0.09939613 0.09051764 0.07523673 0.049661465
0003a0 d1 20 c2 3d 42 a9 e4 bd 46 0e a6 3d 04 c8 48 3d
       0.094789155 -0.11165096 0.08108191 0.049018875
0003b0 0b 87 56 bd 8c 1b c0 3d ff 64 26 3d 71 63 6e 3a
       -0.05237488 0.09380254 0.04062366 0.00090937974
0003c0 58 0d 86 be 88 09 e3 3c 64 ab 85 3d 55 66 fb 3d
       -0.26182055 0.027714506 0.06526831 0.12275378
0003d0 8a bf 59 3d 3d cf 18 be e8 1f 85 3e 80 2c 65 bd
       0.05316118 -0.14922805 0.26000905 -0.05595064
0003e0 78 22 09 bd 8d 1a 86 bd 57 09 fb bd 3f 7a be 3c
       -0.033480138 -0.06548033 -0.12257641 0.02325165
0003f0 e7 db 5f bd 96 78 d4 3c 0a c6 ba 3d a4 98 57 3d
       -0.054653075 0.025936406 0.09119804 0.052635804

atten_w.querys_nn.0.0.bias f4 [64]
000000 f9 24 ec 3b 62 3d 65 3c ff 82 41 bc a4 3e 7a 3c
       0.007206556 0.013991686 -0.011811017 0.015273724
000010 46 a4 fb bd 75 88 9b bc 28 96 9e 3d 4a 20 86 bd
       -0.12287192 -0.018985966 0.07743484 -0.065491274
000020 8d 18 90 3d f5 b3 29 bd 14 1e 92 bc 07 d5 97 3d
       0.07035933 -0.041431386 -0.017836608 0.074136786
000030 1a b6 cf bd 08 73 38 3d 58 07 a7 bc a1 a4 86 bd
       -0.10142155 0.045031577 -0.020389244 -0.06574369
000040 1d bb f5 3d 00 be 1c bd 95 8f 96 3d 7b 9c 84 3c
       0.1199858 -0.038267136 0.07351605 0.016187897
000050 8a 4c 45 bc 50 32 27 3e 8d ab 76 3d 39 10 30 bc
       -0.012042174 0.16327786 0.060222197 -0.010746055
000060 b8 51 aa bd 0a b6 f9 bd 1c fa 01 3e c1 61 16 3d
       -0.08316368 -0.12192924 0.12693065 0.03671432
000070 03 77 52 bd e2 c3 93 bd e7 5f da 3d 99 de 61 bc
       -0.05138303 -0.07215096 0.10662823 -0.013785982
000080 d0 ae 9a 3d e3 f6 04 3d 25 36 9f bc c2 ba 29 bd
       0.07552874 0.032462012 -0.019434998 -0.04143787
000090 fb e3 73 bd 74 6e 06 3d c6 7e c1 3d 06 ef 2f bd
       -0.05954359 0.03282018 0.09448008 -0.04295256
0000a0 44 4b 50 bd 01 96 47 bd 98 57 b7 bc b1 ed 84 3b
       -0.05085303 -0.04872704 -0.022380635 0.0040566553
0000b0 9e fa 0d 3e da a9 a0 bc 1c 7f 1f 3c 51 4b ed bc
       0.13865134 -0.019612242 0.009734895 -0.028966578
0000c0 e6 ba 99 3d d2 c9 0b 3d 3f 25 ee 3d f0 b3 40 bd
       0.07506351 0.034128018 0.11628198 -0.0470466
0000d0 4a 43 a3 3d 44 5c 18 3c e5 e6 07 3e 67 1a 15 bc
       0.07971819 0.009299342 0.13271673 -0.009100533
0000e0 8b 83 1b 3d e4 8a 5f bd 99 9a 2b 3e d1 71 a8 bc
       0.037967246 -0.054575816 0.16758193 -0.020562084
0000f0 93 6f 94 bd d7 b6 03 bc 2d 9d ac 3c c1 7c d1 3d
       -0.072478436 -0.008039198 0.021071041 0.10228873

atten_w.querys_nn.0.2.weight f4 [64, 64]
000000 02 4c a3 3c d8 61 57 be 60 c3 18 3e 7c 44 ae 3d
       0.019933704 -0.21033418 0.1491828 0.08509156
000010 ef fd b0 be a7 eb b3 3e e3 fb 7c 3e c5 04 0c be
       -0.34568736 0.35140726 0.24705462 -0.13673694
000020 68 e7 0e 3e 7c 77 46 be 2d 78 a0 3d 2c e8 98 bd
       0.13955462 -0.19381517 0.07835422 -0.07466158
000030 24 86 b1 3e b5 54 12 be 4a e2 09 3e fd ca f7 bd
       0.34672654 -0.14290126 0.13465229 -0.12099264
000040 fc 49 08 3d dc 37 8f 3e c4 e2 c4 bd a5 d4 03 be
       0.033273682 0.27972305 -0.096135646 -0.12874086
000050 ee 54 e1 3d be 8d 39 3e 4d b8 e5 3c ae 30 a6 3d
       0.11002527 0.18120477 0.028041983 0.08114754
000060 85 d1 b2 be 15 3c fa be 77 06 99 3c 06 78 d5 3e
       -0.34925476 -0.48873964 0.01867984 0.41693133
000070 ae ee 6b 3e 48 54 b7 bd 88 64 38 3d 93 a6 b7 3d
       0.23040268 -0.08951622 0.04501775 0.089673184
000080 2d c6 3a bd 74 30 8e 3d 94 ce 16 bd 70 3b 6d be
       -0.04559915 0.069428355 -0.036818102 -0.23167205
000090 ca f6 5f 3e 03 4a 22 3e d5 02 a3 bd 33 ff 61 3e
       0.21871486 0.15848546 -0.079595245 0.22070007
0000a0 58 3e 3a 3e 0c 0d a4 be 1c 43 b4 3d 4e 09 3e be
       0.18187845 -0.32041204 0.088018626 -0.18558237
0000b0 77 03 ce 3c 11 ff 87 3e 4b 3b 9c 3e 31 71 7f bd
       0.025148137 0.26561788 0.30513987 -0.062363807
0000c0 9f 10 ff 3d ca 6c 3a 3e a1 8e 08 be 91 19 0b be
       0.12454342 0.18205562 -0.13335659 -0.13583972
0000d0 2a b1 b5 bd 03 88 27 3e 0f a5 8b 3e ee af 9f 3e
       -0.08871682 0.16360478 0.27274367 0.3118891
0000e0 cd bd 59 be 73 f5 94 3e 18 c6 da 3e a1 24 d7 bd
       -0.2126381 0.29093513 0.4272926 -0.10505033
0000f0 1d 33 8f be ca ee 6c be 38 ef 27 3e 84 eb 39 3e
       -0.27968684 -0.23137966 0.16399848 0.18156248
000100 9b fa 1f bf 4d 6f 86 3c 8b fa d3 be 81 ac e3 be
       -0.6249177 0.016410494 -0.41402087 -0.44467548
000110 15 f2 ed 3d 6d 85 52 be 64 e9 d2 bd 81 e4 dd bd
       0.11618439 -0.2055871 -0.10298422 -0.10834599
000120 b8 28 13 bf 44 5e 81 be 2b 95 53 3e db 12 83 be
       -0.57484007 -0.2526723 0.20662372 -0.25600323
000130 7b ed a1 3e cd e8 b6 be 0e ea c6 be 56 a2 a1 be
       0.31626496 -0.35724488 -0.38850445 -0.31569165
000140 0c 89 fe bd 99 e4 a9 bd 53 91 19 be 83 9c fc bd
       -0.12428483 -0.08295555 -0.14996843 -0.1233454
000150 50 3c cd bd 4f aa 21 bf 1a 28 51 3c 75 d8 dc bd
       -0.10021269 -0.63150495 0.012765909 -0.107834734
000160 40 48 df bd 67 3f d9 3e e3 7b 7e be d7 e5 0e bf
       -0.109024525 0.42431185 -0.24851947 -0.5581946
000170 7c 21 19 3e b5 95 30 3e fc cb a4 be c0 b6 8c 3e
       0.1495418 0.17244609 -0.32186878 0.27483177
000180 58 76 7d be 21 5a cb 3d d2 d1 9b bc b5 31 8e bd
       -0.24752176 0.099293 -0.019020949 -0.069430746
000190 95 83 43 bf 5b ec 3a be 38 81 c0 bd 41 c1 ea bd
       -0.76372653 -0.18254225 -0.093996465 -0.114626415
0001a0 c2 c7 8c be 9f 6f 1d bc 8f c8 50 3d af cb 9f 3e
       -0.27496153 -0.009609132 0.050972518 0.31210086
0001b0 98 c5 e1 bd 6c 2d 02 bf c8 93 68 be 0a 2a be be
       -0.11024016 -0.5085056 -0.22712624 -0.37141448
0001c0 a0 ad 2a bf 7b f9 96 be ae 40 c8 be db fa 30 3c
       -0.6667118 -0.29487213 -0.39111847 0.010801996
0001d0 3b a3 a9 be be 46 3f bd 4b ae b3 be 9e b5 d8 be
       -0.33132347 -0.046698324 -0.35093912 -0.42326063
0001e0 1a fd d6 3d de dd c4 be 58 fa ff be b3 01 7f bd
       0.10497494 -0.3845052 -0.49995685 -0.06225748
0001f0 76 0f 1d 3f 69 15 06 bc 16 82 a7 be 72 63 a1 be
       0.61351717 -0.0081838155 -0.32716435 -0.31521183
000200 0d 42 fd be a7 aa c8 3d 08 d5 eb be 6b 34 22 bf
       -0.49464455 0.09798174 -0.46060967 -0.63361233
000210 8f d6 45 3e 2d 83 e9 be 56 5d e6 bd 5b cf 35 be
       0.19320129 -0.45607892 -0.11248271 -0.17754881
000220 08 6a 04 bf d8 38 5b be f6 04 1c 3e a2 d8 86 be
       -0.5172429 -0.21408403 0.15236267 -0.26337153
000230 08 24 d6 3c 2c ab 7e be af ef 69 be 4e 4e 7f be
       0.026140228 -0.24869984 -0.22845338 -0.24932215
000240 f3 5e 55 3d 65 62 86 be 5a f4 95 be 89 60 e7 bd
       0.052092504 -0.26246944 -0.29287988 -0.112977095
000250 50 28 ed bd e6 72 29 bf 30 95 14 be b4 f3 81 bd
       -0.115799546 -0.66190946 -0.14510036 -0.06345311
000260 2b 66 c3 3d 88 eb de 3e 60 a2 27 be c4 f5 07 bf
       0.09540971 0.4353907 -0.16370535 -0.53109384
000270 2c d7 77 3e 52 04 27 3e d0 c5 36 be 30 73 ce 3e
       0.24203175 0.16310242 -0.17848897 0.40322256
000280 42 8c 99 be b4 66 d7 3d 34 96 85 3e 31 52 85 be
       -0.2998982 0.10517636 0.26091158 -0.2603927
000290 af 92 1a bf 5d 24 d4 be c4 1d b0 3c c0 f5 25 be
       -0.6038007 -0.41433993 0.021498568 -0.16207027
0002a0 83 b8 bb be 74 62 d5 bd ea aa ca bd 6f 1d a1 3e
       -0.3666421 -0.10419169 -0.098958805 0.3146777
0002b0 a3 c0 99 3c 13 7f e7 be 0e df af bd 54 df ab be
       0.018768614 -0.45214137 -0.08587466 -0.33568823
0002c0 96 b5 6b bf c0 2d ea be db ef 80 be 22 8b c4 3d
       -0.92073953 -0.4573803 -0.25182995 0.0959685
0002d0 68 b3 ad be 61 22 23 be c5 90 da be cc 5d fb be
       -0.3392594 -0.15931083 -0.42688575 -0.49095
0002e0 19 d3 03 bd 66 50 2b bf f5 1e 53 bf 43 4b 53 be
       -0.03218374 -0.66919553 -0.8246911 -0.20634179
0002f0 58 1f 4d 3f ce b5 d1 bd e1 6e b7 be c4 9c 84 be
       0.8012595 -0.102397546 -0.3582678 -0.25900853
000300 74 18 2f be be 3c 52 3e 39 bb 87 3d 21 9e 9d bd
       -0.17099172 0.20530984 0.06627507 -0.07696176
000310 4b 63 03 be c3 d2 8f bd 02 a8 5c be a2 cc ad bd
       -0.12830846 -0.070226215 -0.21548465 -0.08486296
000320 9d 51 d1 bd ae 03 e9 3c 7b 67 dc 3d 72 a1 67 bc
       -0.102206446 0.028444137 0.10761925 -0.014137613
000330 61 1a f5 bd e8 32 65 be c9 97 ab 3d 67 39 0a be
       -0.11967922 -0.223827 0.0837856 -0.1349846
000340 f3 38 77 be 02 74 e5 3c cf 26 41 be 60 27 b0 bc
       -0.24142818 0.028009418 -0.1886246 -0.02150315
000350 43 2a 0a be 67 96 66 bd 08 fc 1a be f0 96 33 bc
       -0.13492684 -0.05629578 -0.15135205 -0.010961279
000360 69 cf 25 bd f5 22 d6 bd 09 b5 42 bc 95 5f 11 3e
       -0.040481005 -0.10455886 -0.011883982 0.14196618
000370 2d 01 38 3e 76 be 91 3e e4 de 1b be ec 6e b7 3e
       0.17969199 0.28465623 -0.15221745 0.35826814
000380 4d d8 2b be 4e 5d 67 bc da 94 79 3e ef d6 be be
       -0.16781731 -0.014121367 0.24373189 -0.37273356
000390 49 cb bc 3e 18 7a 96 ba 49 c7 ff bd 2c 4b 0c bd
       0.36873844 -0.0011480479 -0.124891825 -0.034251377
0003a0 9a fe b9 3e 56 40 06 be e1 42 16 bd 76 dc db bd
       0.36327058 -0.1311048 -0.036684874 -0.10735409
0003b0 a4 a3 fe bd 56 a2 6f 3e 52 7d 53 be 66 0a 42 be
       -0.12433556 0.2340177 -0.20653275 -0.18949279
0003c0 3c 67 1d be 58 0e 3b be 40 f3 e6 bd 08 3f 25 3e
       -0.15371412 -0.1826719 -0.11276865 0.16137326
0003d0 41 7d 43 be b0 de 94 be 49 0d 29 be 25 bf 91 3e
       -0.1909075 -0.29076147 -0.16508974 0.28466144
0003e0 ea dd 26 bc 52 89 85 be 56 d5 f9 bc 1b 17 76 3e
       -0.010184744 -0.2608133 -0.030497234 0.24032252
0003f0 2d fc 14 bd 29 c3 20 be d2 9d 0c 3e 45 fd 5b bd
       -0.036373306 -0.15699448 0.13732079 -0.053708334
