model/ddn/5m_vs_6m/10_rnn_net_params.pkl (torch, 126663 bytes, 10 tensors)

fc_obs.weight f4 [64, 72]
0	0xbda8e1cf	-0.082461946
1	0xbd9d4f89	-0.07681186
2	0xbe072751	-0.13198592
3	0xbe1cc9a3	-0.15311293
4	0xbdd82b59	-0.10555143
5	0xbda8962d	-0.08231769
6	0xbd747d8c	-0.059690043
7	0x3d5a07e1	0.05323017
8	0xbe819f8d	-0.2531704
9	0xbd81d160	-0.06338763
10	0x3de6d8b4	0.112718016
11	0x3e05ecb6	0.1307858
12	0x3f2e73af	0.6814527
13	0xbd85ec6b	-0.06539234
14	0xbe7e69d0	-0.24845052
15	0x3b1bab52	0.0023753238
16	0x3e0a6a5b	0.13517134
17	0x3e5d338c	0.21601695
18	0x3e02fabc	0.1279096
19	0xbdb8e47f	-0.09027957
20	0x3e3cbeb0	0.18432117
21	0x3df4d1d7	0.11954086
22	0x3f3da80b	0.7408454
23	0xbd0ce2fe	-0.034396164
24	0xbd379568	-0.04482022
25	0xbd9351ce	-0.071933374
26	0x3c19df86	0.009391671
27	0xbba49c02	-0.0050234804
28	0xbd4349fc	-0.04767798
29	0xbddfdf91	-0.10931314
30	0x3d7f3164	0.062302962
31	0xbc8ec2ce	-0.017426874
32	0xbc6dacf0	-0.014506564
33	0x3e0aa28a	0.13538566
34	0xbd27411f	-0.04083359
35	0x3ea2eef9	0.31822947
36	0x3f3dfd41	0.7421456
37	0x3eac562d	0.33659497
38	0x3e2fdb4d	0.171735
39	0xbe0b3a58	-0.13596475
40	0x3ebd436c	0.369655
41	0x3fa0aadb	1.2552141
42	0x3bf3256b	0.007420232
43	0x3e3cf1c7	0.18451606
44	0xbd215c75	-0.039394815
45	0x3f20a372	0.627494
46	0x3f79e32b	0.97612256
47	0x3f2d0665	0.6758788
48	0x3dd79031	0.10525549
49	0xbdc818eb	-0.09770378
50	0x3e3adc91	0.18248202
51	0x3f34d229	0.7063318
52	0x3f09a27d	0.5376356
53	0x3e15f558	0.14644372
54	0x3cdf3d79	0.027250992
55	0xbd7abceb	-0.061215322
56	0x3e3f6175	0.1868952
57	0xbf060fd6	-0.52367914
58	0xbd34d103	-0.04414464
59	0x3d53bd00	0.051693916
60	0x3cbd9613	0.02314285
61	0x3dc65373	0.096838854
62	0x3daa062f	0.08301961
63	0x3e04227f	0.12903784
64	0xbb32239e	-0.0027181874
65	0xbc065d23	-0.008200916
66	0xbe00767c	-0.12545198
67	0xbe1ea2f3	-0.15491848
68	0xbdca6978	-0.09883398
69	0x3d762bf7	0.060100522
70	0x3d658066	0.056030653
71	0xbd7896c5	-0.06069066
72	0x3daf35d7	0.08555191
73	0xbd56c006	-0.05242922
74	0x3d729a8f	0.05922943
75	0xbcec22b2	-0.028825138
76	0x3da841e8	0.082156956
77	0xbde77fc4	-0.11303666
78	0x3d3e3be9	0.046443854
79	0x3e56685f	0.20938252
80	0x3e2a4636	0.16628346
81	0x3e319e28	0.17345488
82	0x3dda70c6	0.10666041
83	0x3db934b3	0.09043255
84	0x3e5c0d4c	0.21489447
85	0xbd91b372	-0.071143046
86	0xbd0e4f0a	-0.034743346
87	0xbd96748c	-0.07346448
88	0x3cafeb9b	0.02147465
89	0x3d48cd28	0.049023777
90	0x3f0f08d2	0.55872834
91	0xbd969e98	-0.07354468
92	0xbc89aeac	-0.016806923
93	0x3ddac941	0.106829174
94	0x3d16da88	0.0368295
95	0x3da4cec3	0.08047249
96	0x3e88081f	0.26568696
97	0x3da63681	0.081158645
98	0x3dba577f	0.0909872
99	0x3ae40bb4	0.0017398507
100	0xbe5a3af8	-0.21311557
101	0x3df46307	0.119329505
102	0xbc9bf2d7	-0.019036693
103	0x3dcb3c02	0.09923555
104	0xbd9027e3	-0.07038858
105	0x3c4630fc	0.01209664
106	0xbea9d9e0	-0.33174038
107	0xbd647347	-0.055774
108	0xbe554c58	-0.20829904
109	0x3de49c3c	0.11162612
110	0xbd943645	-0.072369136
111	0xbe614999	-0.22000732
112	0xbe35d293	-0.17756109
113	0xbeb451ca	-0.3521865
114	0xbe5708b0	-0.20999408
115	0x3a34a9fa	0.00068917836
116	0xbe27a7f0	-0.16372657
117	0xbe355032	-0.17706373
118	0xbed0d3ef	-0.40786693
119	0xbe0835a9	-0.1330172
120	0x3e28fd3d	0.16502853
121	0xbe19f32f	-0.15034173
122	0xbd8dbeef	-0.06921183
123	0xbe75dd2a	-0.24010149
124	0x3e91c417	0.28469917
125	0xbd2b6aaa	-0.04184977
126	0xbe84480b	-0.25836214
127	0xbe0d8237	-0.13819204
128	0x3e05d133	0.13068084
129	0xbc130757	-0.008973918
130	0x3d8b30cc	0.06796417
131	0x3dcba386	0.09943299
132	0x3e7b7d9a	0.24559632
133	0x3e2ce1a2	0.16882947
134	0x3e0a55b9	0.13509263
135	0x3df42f0d	0.11923037
136	0xbe3a397a	-0.18185988
137	0x3e81a2bb	0.25319466
138	0x3e80fb75	0.25191846
139	0x3c41edba	0.011836464
140	0xbd637ae3	-0.055537116
141	0xbd3e5f61	-0.04647768
142	0xbd8dd8af	-0.06926095
143	0x3d41bd79	0.047299836
144	0xbe5695ae	-0.20955536
145	0xbe7327d8	-0.23745668
146	0xbd3be6b1	-0.0458743
147	0xbd48b980	-0.04900503
148	0xbe1075e7	-0.14107476
149	0x3df08bda	0.117454246
150	0x3e145680	0.14486122
151	0xbdb4b57a	-0.088236764
152	0xbdb771dc	-0.08957264
153	0xbe532e3a	-0.20623103
154	0xbd9fdc3b	-0.078056775
155	0x3e583a06	0.21115884
156	0xbdd01bf3	-0.10161581
157	0x3dea4882	0.11439611
158	0xbead4bfb	-0.3384703
159	0xbea87171	-0.3289905
160	0xbdc87427	-0.09787779
161	0xbe6f023d	-0.23340698
162	0xb92d3765	-0.00016519202
163	0xbe08f336	-0.13374028
164	0x3e1dadb0	0.15398288
165	0x3ddc5e96	0.10760228
166	0xbd9ae425	-0.07563046
167	0x3d9d3e0b	0.076778494
168	0xbdd498ca	-0.10380705
169	0x3cf042fe	0.02932882
170	0x3d3aba92	0.045588084
171	0xbd18401e	-0.037170522
172	0x3db52723	0.08845355
173	0x3c97d06c	0.018532
174	0x3e4028df	0.18765591
175	0x3c54b812	0.012983339
176	0xbf1c455d	-0.6104334
177	0xbdac18e2	-0.084031835
178	0xbd9ede00	-0.07757187
179	0x3d075df2	0.033048578
180	0x3eb80bdb	0.35946545
181	0x3dde5ab3	0.10857143
182	0x3e91c170	0.28467894
183	0x3ccdea1b	0.025136044
184	0x3e92210d	0.2854084
185	0x3e6db930	0.23215175
186	0xbc495e45	-0.012290542
187	0x3e644165	0.22290571
188	0xbc8f6755	-0.017505327
189	0x3e9539b6	0.29145592
190	0xbe3c9fed	-0.18420382
191	0x3ea0b555	0.31388345
192	0x3da4d797	0.08048933
193	0xbc19bde6	-0.009383654
194	0x3dd87c05	0.1057053
195	0xbed52532	-0.4162994
196	0x3e53b22a	0.20673433
197	0x3e414c46	0.18876752
198	0x3e2afdfd	0.16698451
199	0xbdc3bffb	-0.09558102
200	0xbb99ad1e	-0.0046898266
201	0x3dc417e6	0.09574871
202	0x3d2c23b4	0.042026237
203	0xbe84587f	-0.25848767
204	0x3bed0627	0.0072333994
205	0xbf1690a8	-0.5881448
206	0x3e9912d6	0.29897183
207	0x3e6fa775	0.23403724
208	0x3d4c9636	0.04994794
209	0x3e4eaf58	0.20184076
210	0x3ec2ce8e	0.38048214
211	0xbe292222	-0.16516927
212	0xbe4881e4	-0.195808
213	0xbe006732	-0.12539366
214	0xbe4e339b	-0.20136873
215	0xbe81fc39	-0.25387743
216	0xbe3442cb	-0.17603604
217	0x3c66b1ed	0.014080507
218	0xbbb2ad4a	-0.0054527866
219	0xba9758f9	-0.0011546902
220	0xbe1bf39f	-0.15229653
221	0x3dc7b515	0.097513355
222	0x3e017013	0.12640409
223	0xbd9297a9	-0.07157833
224	0xbcf713a4	-0.030160733
225	0xbd1989a9	-0.0374848
226	0x3d996683	0.07490256
227	0x3e1bc4ad	0.15211745
228	0x3e0d6f75	0.13812049
229	0xbe78feb0	-0.24315906
230	0xbde4d7c5	-0.11173967
231	0xbe369d7f	-0.17833517
232	0x3c17049f	0.00921741
233	0xbdec1b76	-0.11528675
234	0x3eb0f59d	0.34562388
235	0xbe117315	-0.14204057
236	0xbdabe78d	-0.08393774
237	0x3d15fa79	0.036615822
238	0x3dd33299	0.10312385
239	0x3c659d78	0.014014594
240	0xbcd4584b	-0.025921008
241	0xbdca3dd6	-0.098750755
242	0x3b808855	0.003922502
243	0xbda411c1	-0.08011199
244	0xbe9b70eb	-0.30359587
245	0xbd862e6b	-0.06551822
246	0xbd59986e	-0.053123884
247	0x3c36a88c	0.011148583
248	0x3e60ff0f	0.21972297
249	0x3d0c084c	0.0341876
250	0x3e26f0de	0.16302821
251	0x3d3b0191	0.04565579
252	0x3e6a905a	0.22906628
253	0xbd80b5d1	-0.06284679
254	0x3e25b56c	0.16182488
255	0xbc284eed	-0.010272724

fc_obs.bias f4 [64]
0	0xbde1efe9	-0.11032087
1	0x3b91c42d	0.004448435
2	0xbd674858	-0.056465477
3	0xbc4d0cb4	-0.012515236
4	0x3e0a96a7	0.13534032
5	0x3db7459b	0.08948823
6	0x3ce10315	0.02746729
7	0x3dc854c0	0.0978179
8	0xbd3076d9	-0.043082092
9	0x3e07f757	0.13277946
10	0xbd04ec73	-0.032452058
11	0xbd8e1f01	-0.06939507
12	0xbca79bbe	-0.020460006
13	0x3dfa4831	0.12220801
14	0xbd9f63a7	-0.07782679
15	0x3e2ddd72	0.16979006
16	0x3d60c12d	0.054871727
17	0x3d65f147	0.056138303
18	0xbd929301	-0.07156945
19	0x3d789181	0.06068564
20	0xbbd215e2	-0.0064113
21	0xbd4374b4	-0.04771872
22	0xbe7baba9	-0.24577202
23	0x3d8dc55c	0.06922409
24	0xbe0757e4	-0.13217121
25	0xbdc66a13	-0.09688201
26	0x3d05cb46	0.03266456
27	0xbc10bb9b	-0.008833791
28	0x3c779535	0.015111257
29	0xbd8fb59b	-0.0701706
30	0xbacfa964	-0.0015843329
31	0x3e7a1122	0.24420598
32	0x3c749ddb	0.014930214
33	0x3d5ed2bc	0.05440019
34	0x3d8a8a03	0.06764605
35	0x3dba5d7b	0.09099861
36	0x3d0190cc	0.03163223
37	0xbc8616c8	-0.016368285
38	0xbd8e1260	-0.069370985
39	0xbd6c0a4b	-0.057627004
40	0x3d938ef7	0.07205003
41	0x3dc496ab	0.0959905
42	0xbe1a46e9	-0.15066113
43	0x3bb5583b	0.0055341995
44	0x3e0ca2a7	0.13733922
45	0xbd24ac6d	-0.0402035
46	0x3cf14ca1	0.029455485
47	0xbe0381d0	-0.12842488
48	0xbdac9f55	-0.08428828
49	0x3dc4d1e2	0.096103445
50	0x3e0cc106	0.13745508
51	0x3d43e4bf	0.04782557
52	0xbd7226f4	-0.05911918
53	0xbc1979fe	-0.009367464
54	0x3db73f07	0.089475684
55	0x3d29851c	0.04138671
56	0x3e39d9ee	0.1814954
57	0x3e0cae5c	0.13738388
58	0xbd772da7	-0.06034627
59	0xbe3675a6	-0.17818317
60	0xbd6fe377	-0.058566537
61	0x3db2b318	0.08725566
62	0x3dd17f09	0.10229308
63	0x3df00b1f	0.11720871

rnn.weight_ih f4 [192, 64]
0	0x3eb4a8a7	0.35284922
1	0x3d0b916e	0.03407424
2	0x3d974815	0.073867954
3	0xbc867490	-0.016413003
4	0xbe4bff2e	-0.19921562
5	0x3e182219	0.14856757
6	0x3e929e39	0.2863634
7	0xbdcbc15a	-0.09948988
8	0x3e0394c0	0.12849712
9	0xbda7a371	-0.08185471
10	0xbecdce3d	-0.4019641
11	0x3e9b2af6	0.30306214
12	0xbef04648	-0.4692862
13	0x3d91a96c	0.07112393
14	0x3d3b6baa	0.045756973
15	0x3eb784b2	0.35843426
16	0x3d9c0fc6	0.07620196
17	0x3d7006d9	0.05860028
18	0x3e837762	0.2567702
19	0xbd679599	-0.05653915
20	0xbcc05551	-0.023478182
21	0x3f03e38e	0.51519096
22	0x3d48d30e	0.049029402
23	0x3edb5402	0.4283753
24	0x3da5f114	0.08102623
25	0x3e0bbb10	0.13645577
26	0x3de9f095	0.114228405
27	0x3cf54f20	0.029944956
28	0x3e0bad05	0.1364022
29	0xbe7116a4	-0.23543793
30	0x3d85a072	0.06524743
31	0xbea91573	-0.33024177
32	0xbe029116	-0.12750658
33	0xbe370acb	-0.17875211
34	0x3e7501e6	0.23926505
35	0x3c4f7931	0.012663172
36	0x3dbf91f0	0.09354007
37	0x3e16818c	0.14697856
38	0x3d8278d7	0.063707046
39	0x3e1e41ca	0.15454784
40	0xbcd498b1	-0.025951715
41	0x3dbd45c9	0.09241826
42	0x3e059b40	0.13047504
43	0x3ee5f0cc	0.44910276
44	0x3ddcfe47	0.10790687
45	0xbee5c90a	-0.44879943
46	0xbec80cef	-0.39072368
47	0xbd8c1ccb	-0.06841429
48	0xbf3da279	-0.7407604
49	0xbbcadd9e	-0.0061909696
50	0x3eae20ff	0.3400955
51	0xbd9147ca	-0.07093771
52	0xbdac4bcd	-0.08412895
53	0x3eb85079	0.35998896
54	0xbda6595b	-0.08122512
55	0x3df6ef3e	0.120573506
56	0x3e70b758	0.2350744
57	0x3daf32b7	0.08554595
58	0xbeed6d9e	-0.46372694
59	0xbdc99040	-0.09841967
60	0xbcbefdb5	-0.023314336
61	0x3d3c7e50	0.0460189
62	0x3d31aa67	0.0433754
63	0xbf5bc842	-0.85852444
64	0xbcaa2355	-0.0207688
65	0xbf94f3e4	-1.163693
66	0xbe0bad89	-0.13640417
67	0xbf103611	-0.563325
68	0x3e76c8df	0.24100064
69	0x3ef57834	0.4794327
70	0xbe3c8644	-0.18410593
71	0x3e37c732	0.1794708
72	0x3d55df56	0.052214943
73	0xbf39ee03	-0.726288
74	0xbfb162d4	-1.3858285
75	0xbea4e91c	-0.32209098
76	0xbdc8b5cb	-0.09800299
77	0xbe6b73ef	-0.22993444
78	0x3e70b375	0.23505957
79	0x3d34a37e	0.04410123
80	0xbda93107	-0.08261304
81	0xbed095bb	-0.40739235
82	0x3f0cc677	0.54990333
83	0x3ec38584	0.38187802
84	0xbd66dc2c	-0.056362316
85	0xbe8a9edc	-0.27074325
86	0xbe0e7459	-0.1391157
87	0xbf24021a	-0.64065707
88	0xbdf63dee	-0.12023531
89	0xbd8650d8	-0.065583885
90	0x3d8e9c32	0.06963386
91	0xbe582c51	-0.21110655
92	0xbd915fbc	-0.07098338
93	0xbf963d60	-1.173748
94	0x3e0ac138	0.1355027
95	0xbee6823b	-0.45021233
96	0xbe538bad	-0.20658751
97	0x3e7258d0	0.23666692
98	0x3ea8cd1c	0.32968986
99	0x3e059bbd	0.1304769
100	0xbd96f74d	-0.07371388
101	0xbe670606	-0.22560892
102	0x3e09abba	0.13444415
103	0xbd1dc587	-0.038518455
104	0xbe226dfc	-0.15862268
105	0x3e97748a	0.295811
106	0xbdf32dcf	-0.11873972
107	0xbead086e	-0.33795494
108	0x3d193057	0.037399616
109	0xbed946e3	-0.42436895
110	0xbf5d6dc7	-0.8649563
111	0x3c02743a	0.007962281
112	0xbfa31928	-1.2742052
113	0xbe170ebe	-0.14751717
114	0x3f1215cf	0.5706453
115	0xbf0e04a1	-0.55475813
116	0x3cf501c5	0.02990807
117	0x3e9f1aab	0.31075034
118	0xbe5b2e5b	-0.21404402
119	0x3edf18b8	0.43573546
120	0x3d2c4f2e	0.0420677
121	0xbfa0ad03	-1.2552799
122	0xbe9fa5c0	-0.31181145
123	0xbd030183	-0.031983864
124	0x3c8d41c8	0.017243281
125	0xbf1d360c	-0.61410594
126	0xbd458dbc	-0.04823087
127	0xbdefda9a	-0.11711617
128	0x3e5bb2d4	0.21454936
129	0xbe8cae73	-0.27476844
130	0x3de0d587	0.10978227
131	0x3dc64c40	0.09682512
132	0x3e2679ff	0.16257475
133	0x3cf74a00	0.030186653
134	0x3d50ed79	0.05100772
135	0x3dbece33	0.09316673
136	0x3cbde1cb	0.023178956
137	0x3d7deeb0	0.06199521
138	0xbe22db5c	-0.15903991
139	0xbdbcebb3	-0.092246436
140	0x3dc781a8	0.09741527
141	0x3d832c7b	0.06404968
142	0x3f2dc6cc	0.67881465
143	0xbe686550	-0.22694898
144	0x3d884253	0.06653275
145	0xbe2646e2	-0.16237977
146	0xbe844b39	-0.2583864
147	0xbd9812c9	-0.07425458
148	0x3c889357	0.01667182
149	0x3d8b2be3	0.0679548
150	0xbd58f581	-0.052968506
151	0x3e817d8f	0.25291106
152	0x3e375b66	0.1790596
153	0x3e1864dd	0.14882226
154	0x3e1611cd	0.14655228
155	0xbef1c06e	-0.47217125
156	0x3e22bed6	0.1589311
157	0xbdaf0eb8	-0.08547729
158	0xbd16b108	-0.036789924
159	0xbf2fedcc	-0.68722224
160	0x3c991ecd	0.018691445
161	0x3e847acf	0.25874946
162	0xbe8b37fc	-0.2719115
163	0x3e1f56b4	0.15560418
164	0xbf118f58	-0.5685935
165	0xbdec7ace	-0.11546861
166	0x3eda2730	0.42608023
167	0xbdb45ed6	-0.08807151
168	0xbe278a0c	-0.16361254
169	0xbe750548	-0.23927796
170	0x3e86a136	0.2629487
171	0x3d6e4667	0.05817261
172	0xbe5dec7e	-0.21672246
173	0x3cae34f2	0.02126548
174	0x3ee8f365	0.45498195
175	0x3e88ae1a	0.2669533
176	0x3e8f8bb1	0.28036264
177	0x3e50cf69	0.2039162
178	0xbe6031b1	-0.21893956
179	0x3d5b750a	0.053578414
180	0xbd5825a6	-0.05277028
181	0x3eb9d913	0.36298427
182	0xbe2a5986	-0.16635713
183	0x3e557ba0	0.2084794
184	0xbe327041	-0.17425634
185	0xbef44479	-0.4770849
186	0x3d27b2b8	0.040941924
187	0x3e0d9885	0.13827713
188	0x3dc641af	0.09680497
189	0xbd232c42	-0.03983713
190	0x3e8fdc10	0.28097582
191	0xbe339f97	-0.17541347
192	0x3e108de6	0.1411663
193	0x3d971e8f	0.073788755
194	0x3df96a3f	0.12178468
195	0xbe151a91	-0.14560916
196	0xbf306028	-0.6889672
197	0xbea90a43	-0.33015642
198	0x3e993c00	0.2992859
199	0x3f2f949b	0.6858613
200	0xbe90e04b	-0.28296122
201	0x3e935990	0.28779268
202	0x3e060bd4	0.1309045
203	0xbcbca820	-0.023029387
204	0x3d8cb0e8	0.0686968
205	0xbda1a435	-0.07892648
206	0xbe39841a	-0.18116799
207	0xbf336077	-0.7006907
208	0xbed771d2	-0.42079026
209	0x3e510391	0.20411517
210	0xbeaa68d5	-0.33283105
211	0xbf3861c8	-0.720242
212	0x3e291cdc	0.16514915
213	0x3e0632d5	0.13105328
214	0x3cbae954	0.022816338
215	0x3e3580c3	0.177249
216	0xbcbed5dc	-0.023295335
217	0xbd6c1f67	-0.057647135
218	0xbecb13d5	-0.39663568
219	0xbe45defa	-0.1932334
220	0xbdf404bd	-0.11914966
221	0x3e2efe12	0.17089108
222	0xbe59ceca	-0.2127029
223	0x3f0957ee	0.53649795
224	0xbe2f3454	-0.17109805
225	0x3e1cb720	0.15304232
226	0xbdcdc11c	-0.10046598
227	0xbe4fdcac	-0.20299023
228	0xbe785182	-0.24249843
229	0xbe081cab	-0.13292186
230	0xbe7b782c	-0.2455756
231	0xbe9bd42e	-0.30435318
232	0x3e1b4d18	0.15166128
233	0xbeb62d46	-0.35581416
234	0xbe33d4a3	-0.17561583
235	0xbe1f25f9	-0.15541829
236	0xbf0db161	-0.55348784
237	0x3e8d8e6e	0.27647728
238	0x3ee7d0a4	0.45276368
239	0xbe719081	-0.2359028
240	0x3ee1e4e5	0.44119945
241	0x3d014a15	0.03156479
242	0x3f25d7d8	0.64782476
243	0x3e00ed44	0.1259051
244	0xbf00fc23	-0.5038473
245	0xbdc183fa	-0.09449001
246	0x3ded0d5f	0.11574816
247	0xbf0b75fe	-0.54476917
248	0x3dc3c911	0.09559835
249	0x3d9e43e6	0.07727794
250	0xbd830bb6	-0.06398718
251	0xbd4cd9bf	-0.050012346
252	0xbd6041f8	-0.054750413
253	0x3e111606	0.14168558
254	0xbdd19e09	-0.10235221
255	0x3f5e350a	0.8679968

rnn.weight_hh f4 [192, 64]
0	0x3ecaa973	0.39582404
1	0xbecec076	-0.4038121
2	0x3e1396a5	0.14412935
3	0xbd70d520	-0.058797
4	0x3be38430	0.006943248
5	0x3d802dbc	0.06258723
6	0x3d6b7f5b	0.057494503
7	0xbdb44c7a	-0.08803649
8	0x3e46571a	0.19369164
9	0xbd43cd0c	-0.04780297
10	0x3dbff821	0.09373499
11	0x3df42d8f	0.11922752
12	0xbe0dcb65	-0.1384712
13	0x3e954fab	0.29162344
14	0x3cd8f096	0.026481908
15	0xbe9abb85	-0.3022119
16	0xbdaedaf0	-0.08537853
17	0xbecbb9bd	-0.39790145
18	0xbd6387d1	-0.055549446
19	0x3d55a649	0.052160535
20	0x3e6610c4	0.22467333
21	0x3d69a061	0.057037715
22	0x3e362c29	0.17790283
23	0x3dd69c7e	0.10479067
24	0x3ca5afba	0.020225395
25	0xbeade8b6	-0.33966607
26	0xbdc0637e	-0.09393977
27	0x3e18ff84	0.14941221
28	0x3e65adb6	0.22429547
29	0x3cecf57f	0.028925655
30	0x3e610f3c	0.21978468
31	0x3cc582d2	0.024110232
32	0x3da55663	0.080731176
33	0x3d9096ce	0.07060014
34	0x3e19c616	0.1501697
35	0x3efdf3be	0.49600023
36	0xbdb8f2e4	-0.09030703
37	0xbbe07c35	-0.006850744
38	0xbd021ba5	-0.031764645
39	0xbe3ef551	-0.18648268
40	0xbc830ca3	-0.015997237
41	0x3e8ac5a5	0.27103916
42	0xbd9606b6	-0.07325499
43	0x3eb84e43	0.3599721
44	0x3e8e4e20	0.2779398
45	0xbec44f0d	-0.3834156
46	0xbe6fd5c6	-0.23421392
47	0x3e537e42	0.20653632
48	0xbea7c342	-0.32766157
49	0xbd482ba5	-0.048869748
50	0xbd4a5c20	-0.049404263
51	0xbdd7c9c7	-0.10536533
52	0x3ba20387	0.004944268
53	0xbd9e6ea7	-0.07735949
54	0xbe5f72eb	-0.21821181
55	0xbf0fc9ac	-0.561671
56	0x3e86e255	0.26344553
57	0x3c90c574	0.017672278
58	0xbde2c182	-0.11072065
59	0x3e23c947	0.1599475
60	0xbe8f7f5b	-0.28026852
61	0xbde440a0	-0.11145139
62	0xbd80e7ae	-0.062941894
63	0x3e385319	0.18000449
64	0x3b32497b	0.0027204442
65	0xbebde225	-0.37086597
66	0xbc66de1f	-0.014091044
67	0xbd7d82be	-0.061892264
68	0x3d14c755	0.03632291
69	0xbe9c698c	-0.30549276
70	0xbdb5d841	-0.08879138
71	0xbc80ace5	-0.015707443
72	0xbe8979a0	-0.26850605
73	0xbe7e2988	-0.2482053
74	0xbc5e1b4a	-0.013556311
75	0xbe7e2a10	-0.24820733
76	0xbe9a9658	-0.30192828
77	0x3d803cf4	0.06261626
78	0xbdd8741b	-0.1056902
79	0xbe9bee9a	-0.30455476
80	0x3e5d1fd6	0.21594176
81	0xbe73d515	-0.23811753
82	0xbcbd9287	-0.023141159
83	0xbc6d77c3	-0.014493885
84	0xbe0a9f34	-0.13537294
85	0x3ea63138	0.32459426
86	0xbe046c43	-0.12931924
87	0x3e98f6d5	0.29875818
88	0x3e9bba55	0.30415598
89	0xbe3dbeb1	-0.18529774
90	0x3d8d02b7	0.068852834
91	0x3eab6a8f	0.33479735
92	0x3e803ac3	0.25044832
93	0x3ea53054	0.32263434
94	0xb92f5401	-0.00016720594
95	0x3b12d456	0.0022404394
96	0xbdf3077f	-0.11866664
97	0x3dcc8e24	0.09988049
98	0x3f0ceaeb	0.55045956
99	0x3e3057c0	0.17220974
100	0xbdc5e313	-0.096624516
101	0xbe28ec21	-0.16496326
102	0xbe181917	-0.14853321
103	0x3e13cec9	0.14434351
104	0xbe0f20a3	-0.13977294
105	0x3e95c1f5	0.2924954
106	0x3e275816	0.16342196
107	0xbe1ea1d4	-0.1549142
108	0xbdaad62f	-0.083416335
109	0xbf12836d	-0.5723179
110	0x3d77cdd0	0.060499012
111	0xbb9b3ac4	-0.00473723
112	0xbea1f2f6	-0.31630677
113	0x3d93b643	0.07212498
114	0x3eac71fe	0.3368072
115	0x3e2d1823	0.16903739
116	0xbd77a604	-0.06046106
117	0x3db49c8f	0.08818924
118	0xbe5b2142	-0.21399406
119	0x3e5fdb54	0.21861011
120	0x3dd23fa7	0.10266047
121	0xbab8e94c	-0.0014107614
122	0xbe162f73	-0.14666538
123	0xbdc79836	-0.09745829
124	0x3e2c1130	0.16803432
125	0xbd3f17e6	-0.04665365
126	0x3f551d80	0.8324814
127	0xbd3edc5a	-0.046596862
128	0x3e5e0d23	0.21684699
129	0x3c2a1245	0.010380332
130	0xbe97e3a9	-0.29665878
131	0x3e6c2359	0.23060359
132	0x3ec67eb1	0.38768533
133	0xbe256b83	-0.16154294
134	0x3eacd561	0.33756545
135	0x3ea7cede	0.32775015
136	0xbe8d2fb9	-0.27575472
137	0x3e53ee0d	0.20696278
138	0x3eae1b68	0.34005284
139	0xbe645401	-0.2229767
140	0x3e202d1e	0.15642211
141	0x3e304183	0.1721249
142	0xbdcff6a2	-0.10154463
143	0x3d32ece0	0.043682933
144	0xbe964f4e	-0.2935738
145	0xbd56ff53	-0.05248959
146	0x3e52cabd	0.20585151
147	0x3dfec91f	0.124407046
148	0xbebe241e	-0.3713693
149	0x3d8dcc43	0.069237255
150	0xbede8329	-0.43459442
151	0xbda3342f	-0.079689376
152	0x3ea82126	0.3283779
153	0xbdf3dea1	-0.119076975
154	0xbdeb387b	-0.11485382
155	0xbd8b3c94	-0.06798664
156	0xbe497181	-0.19672205
157	0xbe66ebba	-0.2255086
158	0xbe993a0d	-0.29927102
159	0xbd1e2d72	-0.03861756
160	0x3e5852e1	0.21125366
161	0xbe5b29b4	-0.21402627
162	0x3e2cc496	0.16871867
163	0x3e3dc7dc	0.18533272
164	0xbf327c67	-0.6972107
165	0x3ed2c375	0.41164747
166	0x3ccfe8c0	0.025379539
167	0x3dd00436	0.10157053
168	0xbe81a010	-0.2531743
169	0xbd95002c	-0.072754234
170	0x3d184673	0.03717656
171	0x3d20f428	0.039295346
172	0xbdaaba9b	-0.083363734
173	0x3d625f94	0.05526693
174	0xbecf8b77	-0.4053609
175	0xbe46ffdb	-0.19433539
176	0x3d89880c	0.06715402
177	0x3f49b2a1	0.7878819
178	0x3dd42c1a	0.10359974
179	0x3eb65ee1	0.35619262
180	0x3eaa2f63	0.33239278
181	0x3e8b20a7	0.2717335
182	0xbe20ad36	-0.15691075
183	0xbea15d67	-0.31516573
184	0x3db4957a	0.08817573
185	0x3e5c6dab	0.2152621
186	0xbdf6d8b7	-0.12053054
187	0xbe8a65b4	-0.27030718
188	0xbe8c6739	-0.27422503
189	0xbd06e53f	-0.03293347
190	0x3f397d69	0.72456986
191	0xbcc1f290	-0.023675233
192	0xbdb75605	-0.08951954
193	0x3ddbbf01	0.107297905
194	0x3dc99a53	0.09843888
195	0x3d39ffcf	0.045409974
196	0xbea82519	-0.32840803
197	0x3ddbf7e8	0.10740644
198	0xbe960156	-0.29297894
199	0xbe10b8bd	-0.14132972
200	0x3eaa35a5	0.33244053
201	0xbdd9d07f	-0.106354706
202	0x3e3d4780	0.18484306
203	0x3e62c039	0.2214364
204	0x3f327c77	0.6972117
205	0xbeaeb366	-0.34121245
206	0xbbbed826	-0.0058241067
207	0xbdee3b80	-0.116324425
208	0x3d5c5df6	0.053800546
209	0x3d830eae	0.06399284
210	0xbe25cfc3	-0.16192536
211	0x3dab26e3	0.083570264
212	0xbf0c3754	-0.54771924
213	0xbe49afbc	-0.19695944
214	0x3e4f1f65	0.2022682
215	0x3d827c14	0.06371322
216	0xbeea0f52	-0.45714813
217	0xbebf18f6	-0.3732373
218	0xbe004919	-0.12527885
219	0x3e2bc49b	0.16774218
220	0xbe5f69ce	-0.21817705
221	0x3d28148f	0.04103523
222	0x3e003df3	0.12523632
223	0x3eb59ef8	0.35472846
224	0x3dd8482b	0.1056064
225	0xbe79e74e	-0.24404642
226	0xbe1466f1	-0.14492394
227	0xbe8400f6	-0.25781983
228	0x3d00db40	0.031459093
229	0xbec0b067	-0.37634584
230	0xbd52ac6b	-0.05143396
231	0x3be9863c	0.0071265977
232	0x3db1e8ed	0.08687005
233	0x3e9511b2	0.29115063
234	0xbd30dba6	-0.043178223
235	0x3ceab2e2	0.028649751
236	0xbd94cd37	-0.07265704
237	0x3e99679d	0.29961863
238	0x3e1baff0	0.15203834
239	0x3de55e6c	0.1119965
240	0xbe8ae7be	-0.2712993
241	0xbe8e75fd	-0.27824393
242	0xbf82acf5	-1.0209032
243	0xbdad1efb	-0.08453175
244	0x3e0c971c	0.13729519
245	0x3e275853	0.16342287
246	0xbe148216	-0.14502749
247	0xbd37a4ca	-0.04483489
248	0x3d2d7e89	0.042357
249	0xbe3d6e04	-0.18498999
250	0x3d88eb36	0.06685488
251	0x3ecca208	0.3996737
252	0xbee3e774	-0.44512522
253	0x3e805fd4	0.2507311
254	0x3ed7d24c	0.4215263
255	0x3db9607d	0.09051607

rnn.bias_ih f4 [192]
0	0x3e563ff4	0.20922834
1	0xbe0ddec8	-0.13854516
2	0xbe6cce60	-0.23125601
3	0xbd7fdac6	-0.062464498
4	0x3c7e0327	0.015503681
5	0xbde46542	-0.11152126
6	0x3c0a48cc	0.008440208
7	0xbdabc975	-0.08388034
8	0xbd8b4131	-0.06799544
9	0xbba2289b	-0.004948688
10	0xbda4dced	-0.08049951
11	0xbd45e0db	-0.048310142
12	0x3e075bb5	0.13218577
13	0x3ace38b3	0.001573345
14	0xbe087488	-0.13325703
15	0xbda6dccc	-0.081475824
16	0xbd6208b1	-0.05518407
17	0xbdba59b5	-0.090991415
18	0x3e500e22	0.20317891
19	0x3c9e8663	0.01935119
20	0xbb3af849	-0.0028529337
21	0x3e119f0e	0.14220831
22	0x3dc86c9e	0.09786342
23	0xbd5903b7	-0.05298206
24	0xbe027511	-0.1273997
25	0xbdcae755	-0.09907404
26	0x3dfc920b	0.12332543
27	0x3d9a9016	0.075470135
28	0x3dcdcdc8	0.10049015
29	0x3d8d88a1	0.069108255
30	0xbd27bf84	-0.040954128
31	0xbd8fac44	-0.07015279
32	0xbd28e9c8	-0.041238576
33	0x3de206c7	0.11036449
34	0xbe1339e4	-0.14377552
35	0x3c91abaa	0.017782051
36	0x3c6ad103	0.014332059
37	0xbdce2d42	-0.10067226
38	0xbb02afa5	-0.0019941118
39	0x3d1b28c8	0.03788069
40	0xbd19d26d	-0.037554193
41	0x3d7cb6c2	0.06169773
42	0xbdd96eed	-0.106168605
43	0xbd9548f3	-0.072893046
44	0x3e4dfddf	0.20116375
45	0x3e41d252	0.18927887
46	0xbde2c0e8	-0.1107195
47	0xbbf96e63	-0.007612036
48	0xbc78ea09	-0.015192517
49	0xbd4614c9	-0.048359666
50	0xbd53fdeb	-0.051755827
51	0x3e2487a5	0.1606737
52	0x3ca8c4d2	0.020601664
53	0xbdd32dd7	-0.10311478
54	0x3d66b38f	0.056323584
55	0xbd23850c	-0.039921805
56	0xbdd6f1cf	-0.1049534
57	0xbda0a24a	-0.07843454
58	0xbc8e341e	-0.017358836
59	0x3d96a29d	0.07355235
60	0xbe21bce6	-0.15794715
61	0x3e8ec96f	0.27888057
62	0xbda846a9	-0.08216602
63	0xbdd488a9	-0.10377628
64	0x3e430379	0.19044293
65	0xbd3080fa	-0.04309175
66	0x3cc582bd	0.024110192
67	0xbe872ee0	-0.2640295
68	0x3c790343	0.015198532
69	0xbe46e869	-0.19424595
70	0xbe31c779	-0.17361249
71	0xbe56aaa7	-0.20963536
72	0xbb1778e7	-0.0023112835
73	0x3c25b85e	0.010114757
74	0xbde57f96	-0.11205976
75	0x3d6fc001	0.05853272
76	0xbe76bbf9	-0.24095143
77	0xbe8ca01b	-0.274659
78	0x3e99b6e3	0.30022344
79	0xbdceedbf	-0.1010394
80	0xbd4bb4c8	-0.049732953
81	0xbd34df29	-0.044158135
82	0xbd2750d1	-0.040848557
83	0xbe2ccb56	-0.16874442
84	0xbe17b7e3	-0.14816241
85	0xbb770b29	-0.003769586
86	0xbea64870	-0.3247714
87	0xbe0455bd	-0.12923332
88	0xbcf9c4bc	-0.030489318
89	0xbe0037d7	-0.12521301
90	0xbe8dbdc7	-0.2768385
91	0xbe2af403	-0.16694646
92	0xbeaeef39	-0.34166887
93	0xbe462895	-0.19351418
94	0xbd7eda38	-0.06221983
95	0xbde33651	-0.110943444
96	0xbcbf2a8c	-0.023335718
97	0xbf0e9b6d	-0.5570591
98	0x3e515113	0.20441084
99	0xbcb6bb06	-0.022305977
100	0xbdf9aec1	-0.12191535
101	0xbead57a2	-0.3385592
102	0x3c4247c2	0.011857929
103	0xbc7c9645	-0.015416686
104	0xbd0132f4	-0.031542733
105	0xbdfbdc06	-0.122978255
106	0xbd15863b	-0.036504965
107	0xbe3a4c3b	-0.18193142
108	0xbdd376ee	-0.103254184
109	0xbe2e29cd	-0.17008133
110	0xbe365f08	-0.17809689
111	0x3e2c7a10	0.16843438
112	0xbe48ae23	-0.19597678
113	0x3d2dd5b4	0.04244013
114	0x3cf3f81f	0.0297814
115	0xbc11d89a	-0.0089017395
116	0xbe937bd7	-0.2880542
117	0xbdc60733	-0.09669342
118	0xbe33a9b3	-0.17545204
119	0xbe2cdb1d	-0.1688046
120	0xbe54ab50	-0.20768476
121	0xbbaebf5b	-0.00533287
122	0xbd956c5b	-0.07296058
123	0x3dfd22d5	0.12360159
124	0xbbc37149	-0.0059644324
125	0xbdc5838c	-0.09644231
126	0xbe423f46	-0.1896945
127	0xbe35ee38	-0.17766654
128	0x3dcc6c78	0.09981626
129	0xbd921e00	-0.07134628
130	0xbe4ed84a	-0.20199695
131	0x3e88b4fd	0.26700583
132	0x3df1d1b9	0.118075795
133	0x3e3a0753	0.18166856
134	0xba8536db	-0.0010163443
135	0x3e4ca891	0.19986178
136	0xbdc5de86	-0.096615836
137	0x3d1f674d	0.038916875
138	0x3dd74f48	0.105131686
139	0xbe0f6937	-0.1400498
140	0xbdcfa48e	-0.10138808
141	0xbde123d0	-0.10993159
142	0xbbe7d553	-0.007074991
143	0x3dfa41af	0.122195594
144	0x3b1f643e	0.0024321224
145	0x3df81b1d	0.121145464
146	0xbdd728ac	-0.105058044
147	0x3e31dc2b	0.17369144
148	0xbd455165	-0.048173327
149	0xbcae6f76	-0.021293383
150	0xbd509745	-0.050925512
151	0xbebcf642	-0.3690663
152	0x3d8e889a	0.069596484
153	0xbcde8b6e	-0.027166095
154	0xbd07746f	-0.033070024
155	0xbbb54687	-0.005532089
156	0xbdc05e09	-0.09392936
157	0x3e35622e	0.17713234
158	0xbe13c41d	-0.1443028
159	0xbe203cfb	-0.15648262
160	0x3e6d63f1	0.23182656
161	0x3d5eeba6	0.05442395
162	0xbdd8a8e8	-0.10579091
163	0x3dd01c09	0.10161597
164	0xbbd0f8ab	-0.0063773
165	0x3e04ecfa	0.12981024
166	0xbe140509	-0.14455046
167	0x3db62784	0.08894256
168	0xbd7ae55c	-0.06125389
169	0xbe1bee15	-0.1522754
170	0x3c9f96c1	0.019481065
171	0xbd256871	-0.040382806
172	0x3e10eefa	0.14153662
173	0xbce4cc1e	-0.027929362
174	0xbea6efac	-0.3260473
175	0x3cd2186d	0.025646413
176	0x3e515928	0.20444167
177	0x3d0c29e5	0.03421964
178	0xbda788ef	-0.08180415
179	0x3de97137	0.11398547
180	0x3e14858b	0.14504068
181	0x3e004330	0.1252563
182	0xbe006a81	-0.12540628
183	0xbd9c0e74	-0.07619944
184	0x3da8d2b6	0.08243315
185	0x3d485074	0.04890485
186	0xbd9a014e	-0.0751978
187	0xbe0649ec	-0.13114136
188	0x3e0fb079	0.14032163
189	0xbdc21ad5	-0.09477774
190	0xbd849b67	-0.06474953
191	0x3d99961c	0.07499334

rnn.bias_hh f4 [192]
0	0x3e070851	0.13186766
1	0xbe1d7a6b	-0.1537873
2	0xbd871575	-0.065958895
3	0xbc6af536	-0.014340689
4	0x3d827c44	0.06371358
5	0xbe4c5974	-0.19955999
6	0x3d8310d6	0.063996956
7	0xbd0ad2a8	-0.033892304
8	0xbe048d67	-0.12944566
9	0xbe1daa42	-0.1539698
10	0xbd9641ea	-0.07336791
11	0x3d165ad8	0.03670773
12	0x3dc57fdf	0.0964353
13	0x3d99b2d9	0.075048156
14	0x3d1291a5	0.03578343
15	0x3d664ad8	0.05622372
16	0x3cb77d45	0.0223986
17	0x3d06855a	0.032842018
18	0x3e014a11	0.1262591
19	0x3c29975a	0.010351026
20	0x3dd074f3	0.10178556
21	0xbd2356d0	-0.039877713
22	0x3e2de22a	0.16980806
23	0xbdecc20b	-0.11560448
24	0xbe30cd35	-0.1726578
25	0xbe322716	-0.17397723
26	0x3b87a3f4	0.004139418
27	0x3bd5bc62	0.006522701
28	0x3d2e8689	0.04260877
29	0x3cb109f7	0.021611197
30	0xbcf6be43	-0.03012002
31	0xbd8b3ecc	-0.06799087
32	0xbdb48491	-0.088143475
33	0x3e709596	0.23494563
34	0xbe006eab	-0.12542216
35	0xbd23aae7	-0.039957907
36	0x3e1c625b	0.15271895
37	0xbd1a408d	-0.037659217
38	0x3e0fcd28	0.14043105
39	0xbc5772ae	-0.0131499
40	0xbe091635	-0.13387378
41	0xbd74d3ed	-0.05977242
42	0xbdbaff35	-0.09130708
43	0x3e06c292	0.1316016
44	0x3baac4f5	0.0052114674
45	0x3db880d5	0.09008948
46	0xbe1c0ce1	-0.15239288
47	0x3d2a5736	0.041587077
48	0xbdca4cdb	-0.0987794
49	0x3dfe4c41	0.12416888
50	0xbc04973e	-0.0080927
51	0x3e099bae	0.13438293
52	0x3d93aec8	0.07211071
53	0xbd80a723	-0.06281879
54	0x3da2d2ff	0.079504006
55	0x3d6e91a0	0.058244348
56	0x3d0980c0	0.03357005
57	0x3dcbfa3c	0.09959838
58	0x3df95b91	0.12175668
59	0x3c93f7b5	0.018062452
60	0xbddfe218	-0.10931796
61	0x3dcee526	0.101023
62	0xbb1077dc	-0.0022044098
63	0xbe588428	-0.21144164
64	0x3e1982cc	0.14991301
65	0xbe8a4ed6	-0.27013272
66	0x3db042b6	0.08606474
67	0xbea8e1fd	-0.32984915
68	0xbe25e516	-0.1620067
69	0xbe80c5c5	-0.25150886
70	0xbe39453a	-0.18092814
71	0xbc3af3cd	-0.011410666
72	0xbd405134	-0.04695244
73	0xbdfb1a04	-0.122608215
74	0xbe136259	-0.14392985
75	0xbd28ff1e	-0.041258924
76	0xbd9b5863	-0.07585218
77	0xbdb1ca91	-0.086812146
78	0x3ebe6694	0.37187636
79	0xbe3c6954	-0.18399554
80	0x3d810177	0.062991075
81	0xbd9e5340	-0.077307224
82	0xbd8b672f	-0.0680679
83	0xbe3b8bd2	-0.18315056
84	0xbdb7c6e5	-0.08973483
85	0xbda1bb91	-0.078971036
86	0xbeccc817	-0.39996406
87	0xbded19ec	-0.1157721
88	0x3d028ed3	0.03187449
89	0xbe3b4bff	-0.18290709
90	0xbde80e7f	-0.1133089
91	0xbe91a51c	-0.2844628
92	0xbece113c	-0.40247524
93	0xbe38e3da	-0.18055668
94	0xbbe590fb	-0.0070058084
95	0xbdf09d04	-0.11748698
96	0xbe0135d8	-0.12618196
97	0xbef23db5	-0.47312704
98	0x3e0cb094	0.13739234
99	0x3de817b0	0.11332643
100	0xbcca28c0	-0.024677634
101	0xbe9b8d90	-0.3038144
102	0xbd8b3d47	-0.06798797
103	0xbe047c85	-0.12938125
104	0xbd4460c2	-0.047943838
105	0xbe1d05cf	-0.15334247
106	0xbc93f408	-0.0180607
107	0xbdb498ae	-0.08818184
108	0xbd4c2d70	-0.04984802
109	0x3d7db117	0.061936464
110	0xbec5e8cc	-0.38654172
111	0x3e0aea8f	0.1356604
112	0xbe88d613	-0.26725826
113	0xbd8b11bb	-0.06790491
114	0x3cde98d4	0.027172484
115	0xbc9824bc	-0.018572204
116	0xbea4ed01	-0.3221207
117	0xbdfedabd	-0.12444065
118	0xbd4b7e28	-0.04968086
119	0xbe7e9a03	-0.24863438
120	0xbd053691	-0.03252274
121	0xbdc049e4	-0.093890935
122	0xbd10b8c7	-0.035332467
123	0x3dace30c	0.08441743
124	0x3dd9f218	0.10641879
125	0xbd4b3f0b	-0.04962067
126	0x3cd68f14	0.026191272
127	0xbd1b8871	-0.037971918
128	0xbe8fba8a	-0.28072006
129	0x3dcbf0a3	0.09958007
130	0xbb68bd32	-0.003551316
131	0x3d104c9e	0.035229318
132	0x3e04750c	0.12935275
133	0x3c628285	0.013825064
134	0x3d993f24	0.07482746
135	0xbe273eea	-0.16332594
136	0xbd950e7a	-0.07278152
137	0xbe36efa1	-0.17864849
138	0xbe0af02f	-0.13568185
139	0xbe151256	-0.14557776
140	0x3e51e85c	0.20498794
141	0x3ea30b99	0.31844786
142	0xbaed0b77	-0.0018085082
143	0x3e1cd9c2	0.15317443
144	0x3d59c520	0.05316651
145	0xbdf6bc61	-0.12047649
146	0x3e1271ac	0.14301175
147	0x3c085199	0.008320236
148	0x3e513e88	0.2043401
149	0x3eabfc22	0.335908
150	0xbe025c0a	-0.12730423
151	0x3e189a3a	0.14902583
152	0xbd25615f	-0.040376063
153	0xbde27f81	-0.11059476
154	0xbea950d4	-0.3306948
155	0xbc6d365b	-0.014478291
156	0x3e08bb1a	0.13352624
157	0x3d6d6c16	0.057964407
158	0x3e91348a	0.28360397
159	0x3e5b3f00	0.21410751
160	0xbe14ead3	-0.14542703
161	0xbe2497b2	-0.16073492
162	0xbd1288ac	-0.03577487
163	0x3db80e6f	0.08987128
164	0xbddcc909	-0.10780532
165	0x3c4b6acc	0.012415599
166	0xbd52df12	-0.051482268
167	0x3daaa0e0	0.08331466
168	0x3d813cfb	0.06310459
169	0x3d4a78c1	0.049431566
170	0x3e337fe3	0.17529254
171	0x3d8bdf5f	0.06829714
172	0xbc6bf1d5	-0.014400919
173	0xbe5bbe54	-0.21459323
174	0x3edb1158	0.4278667
175	0x3ab26d2f	0.0013612862
176	0xbc8f8574	-0.01751969
177	0x3d892259	0.066960044
178	0x3e048d2c	0.12944478
179	0xbde9ec87	-0.11422067
180	0x3c1d2ee3	0.009593698
181	0xbc1f2546	-0.0097134765
182	0x3d4d2b79	0.050090287
183	0xbd24fbb5	-0.04027911
184	0xbea11c01	-0.31466678
185	0x3e658ca8	0.22416937
186	0xb9bcc1a7	-0.00036002437
187	0xbd3c9e7d	-0.046049584
188	0x3d8db2de	0.06918882
189	0xbd57ff8c	-0.052733943
190	0xbdbbeef2	-0.091764346
191	0xbd8762fe	-0.06610678

phi.weight f4 [64, 8]
0	0xbe51b2d8	-0.2047838
1	0xbde85f68	-0.11346322
2	0xbe896397	-0.26833794
3	0x3e871322	0.26381785
4	0x3e008bb9	0.125533
5	0xbd035802	-0.032066353
6	0x3e50afaf	0.20379518
7	0xbdb1aa53	-0.08675065
8	0x3d3fb1e5	0.046800513
9	0x3e3e82f7	0.18604647
10	0x3e27f79e	0.16403052
11	0xbb58754b	-0.0033028896
12	0xbd82e134	-0.0639061
13	0x3d41cfd2	0.047317334
14	0x3cb9ed48	0.022696152
15	0xbd6176dc	-0.055044994
16	0x3d31be46	0.04339435
17	0xbf1d7548	-0.6150708
18	0x3e8e2479	0.277622
19	0x3db7e475	0.089791216
20	0x3e55763e	0.20845887
21	0xbdfb2ea2	-0.12264754
22	0xbd72e0c1	-0.059296373
23	0xbdc7e9ca	-0.097613886
24	0x3e490029	0.19628967
25	0x3ecdd97c	0.4020499
26	0xbe951c09	-0.29122952
27	0x3e289a20	0.16465044
28	0xbe257aa1	-0.1616006
29	0x3da2050d	0.079111196
30	0xbd27fe0e	-0.04101377
31	0x3c7a1dac	0.015265863
32	0x3ef41108	0.47669244
33	0xbee5fc0c	-0.4491886
34	0x3e8916c9	0.26775196
35	0x3e1c91da	0.15290013
36	0x3e01c6e2	0.12673524
37	0xbdafabd7	-0.08577698
38	0xbe3249c1	-0.17410947
39	0x3d5bff77	0.053710427
40	0x3f1118df	0.56678575
41	0x3af36bfe	0.0018571613
42	0x3b831462	0.0040002326
43	0xbafa94c0	-0.0019117817
44	0xbba5ac54	-0.0050559435
45	0x3c81bb80	0.015836477
46	0xbc83d967	-0.016094876
47	0xbace1939	-0.001572407
48	0x3b06e5b8	0.00205837
49	0xbd564084	-0.05230762
50	0x3d1bf067	0.038071062
51	0xbdae24ec	-0.08503136
52	0x3c7f2231	0.015572117
53	0xbd11588f	-0.035484847
54	0x3d02a54d	0.031895924
55	0xbccd5073	-0.025062775
56	0x3bea2eb2	0.00714668
57	0x3ed0f5da	0.4081257
58	0x3ed4937d	0.41518775
59	0x3e95eca4	0.29282105
60	0xbdd7fbad	-0.1054605
61	0xbe47c675	-0.19509299
62	0x3b88957f	0.004168212
63	0xbd9b2e5a	-0.075772
64	0xbd30da64	-0.043177024
65	0xbeaabd10	-0.33347368
66	0x3e676b0c	0.22599429
67	0x3e779925	0.24179514
68	0x3d3a993e	0.0455563
69	0xbc801be4	-0.0156383
70	0x3d8a7d58	0.06762189
71	0x3d85f4d1	0.06540836
72	0x3f0a99c0	0.54140854
73	0xbdf7139a	-0.120642856
74	0xbc3b1c03	-0.011420253
75	0xbc953eb8	-0.018218383
76	0xbca48197	-0.020081325
77	0x3b3391bc	0.0027400097
78	0x3b2081bd	0.0024491393
79	0x3bf931f3	0.0076048314
80	0x3e9a2688	0.30107522
81	0xbce18f7e	-0.027534243
82	0x3d19c323	0.037539613
83	0x3be18c56	0.0068831844
84	0xbc5b3dd9	-0.013381445
85	0xbb8a9e5e	-0.0042303046
86	0xbc031a82	-0.008001925
87	0xbc3b905d	-0.011447993
88	0x3e9800bf	0.2968807
89	0xbd89eeac	-0.06734976
90	0xbb838e4e	-0.004014767
91	0x3ac55933	0.0015056491
92	0xbd6df22a	-0.058092274
93	0xbd718eb8	-0.058973998
94	0xbd819f97	-0.063292675
95	0xbd76fa23	-0.060297143
96	0x3d8fd9dd	0.07023976
97	0xbd6c601e	-0.057708852
98	0x3c35d503	0.011098149
99	0xbcb3ebb4	-0.021962978
100	0x3c235465	0.009968852
101	0x3b6a72d6	0.0035774014
102	0x3c92f636	0.017939668
103	0xbb07dcd3	-0.0020730987
104	0x3e29edb4	0.16594583
105	0xbbd367a6	-0.006451565
106	0xbdc0270a	-0.09382446
107	0x3b83206a	0.004001667
108	0xbda125e5	-0.07868556
109	0x39a99dec	0.00032351853
110	0xbd2ec7a1	-0.04267085
111	0x3b5e2b8d	0.003390047
112	0x3e33e5a6	0.17568073
113	0x3e87384a	0.26410133
114	0x3e96d941	0.29462627
115	0xbe1f102c	-0.15533513
116	0x3e1c684e	0.15274164
117	0x3e2ad0b4	0.16681176
118	0xbd61baa0	-0.05510962
119	0x3c0f263e	0.008737145
120	0x3e9706fd	0.2949752
121	0xbe037371	-0.12837006
122	0x3c1613d7	0.009160004
123	0xbd42d9b3	-0.047570895
124	0x3bed9374	0.007250244
125	0xbc7b4a16	-0.015337488
126	0xb9c48eb8	-0.00037490367
127	0xbc0aebf2	-0.008479105
128	0x3ed986dc	0.42485702
129	0xbe1b8351	-0.15186812
130	0x3cc7982e	0.024364557
131	0xbc402f89	-0.011730083
132	0x3b98e842	0.004666359
133	0xbc872444	-0.016496785
134	0xbc3e1a0f	-0.011602893
135	0x3c85fc1a	0.016355563
136	0xbd3bff31	-0.045897666
137	0x3c143b6a	0.009047369
138	0xbcd9104c	-0.026497029
139	0x3c81dd48	0.015852585
140	0xbc96f934	-0.018429376
141	0x3aa309a0	0.0012438782
142	0xbb48ca78	-0.003063826
143	0x3917982c	0.0001445717
144	0x3c818c40	0.015813947
145	0xbe0d06eb	-0.1377217
146	0x3e04eeec	0.12981766
147	0x3e62fced	0.22166796
148	0x3f187073	0.59546584
149	0xbe42f6e1	-0.1903949
150	0x3e2a6de6	0.16643485
151	0xbec459a6	-0.38349646
152	0x3ecacf4f	0.3961129
153	0x3f089cd9	0.5336433
154	0xbe23f4e1	-0.16011383
155	0xbe0cb38e	-0.1374037
156	0x3deaeee7	0.11471348
157	0xbbb37f3a	-0.005477813
158	0x3cce4988	0.025181547
159	0x3b4fed7f	0.0031727252
160	0xbe76b4de	-0.24092433
161	0xbebbedf3	-0.36704978
162	0xbe073205	-0.13202675
163	0x3cb2b2d6	0.021813791
164	0x3d43ebcd	0.0478323
165	0x3bd26022	0.0064201513
166	0xbc9a77e5	-0.018855998
167	0xbc54437b	-0.012955542
168	0x3f022ad6	0.5084661
169	0xbd6ba2a0	-0.05752814
170	0xbce045b0	-0.02737698
171	0xbd0210e1	-0.03175438
172	0xbc8dbbc0	-0.01730144
173	0xbc1b7822	-0.009489091
174	0xbbed2b7c	-0.0072378498
175	0xbb85f39f	-0.00408788
176	0xbe07b5cc	-0.13252944
177	0xbf0ce66f	-0.55039114
178	0x3e70ae09	0.23503889
179	0xbe2b2708	-0.16714108
180	0x3e9f0c16	0.31063908
181	0xbd3682af	-0.044558223
182	0xbcb357d5	-0.021892468
183	0xbdb0cd8e	-0.086329564
184	0x3f09f898	0.5389495
185	0xbec01c53	-0.3752161
186	0xbd09d4f0	-0.03365034
187	0xbdde35fa	-0.10850139
188	0xbc8f5fc8	-0.017501727
189	0xbd2a3bd0	-0.041560948
190	0xbaf742bb	-0.0018864492
191	0xb9d04510	-0.00039724307
192	0x3ef4733f	0.47744176
193	0xbe4b49f9	-0.19852437
194	0xbd67e95f	-0.056619044
195	0xbd6facad	-0.058514286
196	0x3c27a473	0.010232079
197	0xbd932cfb	-0.07186314
198	0x3c4fae51	0.012675838
199	0xbcf2ea2a	-0.029652674
200	0x3e734c67	0.23759614
201	0xbed70c3a	-0.42001516
202	0x3d3fa28a	0.04678587
203	0xbde2f0ee	-0.1108111
204	0x3d028855	0.031868298
205	0xbd7ac5a5	-0.061223645
206	0x3bc7a3e3	0.006092535
207	0xbd20378b	-0.03911547
208	0x3ec4adbc	0.384138
209	0xbdc731ba	-0.097262815
210	0x3c0e42c3	0.008682909
211	0xbcb8f2b1	-0.022576662
212	0x3c2cabb4	0.010538984
213	0xbbcc80a5	-0.0062409216
214	0x3b2c4de6	0.0026291548
215	0xbb9539bd	-0.004554002
216	0xbb2def34	-0.0026540281
217	0x3e1d8861	0.15384056
218	0xbd7da2c7	-0.061922815
219	0x3d343dcf	0.044004258
220	0x3cc5405a	0.024078537
221	0xbd057db3	-0.03259058
222	0x3d387f1d	0.0450431
223	0xbd1c0e8c	-0.03809981
224	0xbeaa6ba8	-0.3328526
225	0x3d81a38e	0.06330024
226	0xbe851169	-0.25989845
227	0x3d4840d7	0.04888996
228	0xbcb2cee7	-0.021827174
229	0xbc97bff9	-0.018524157
230	0x3cbaec29	0.022817688
231	0xbd8aec81	-0.06783391
232	0x3df55838	0.11979717
233	0xbdaca986	-0.084307715
234	0xbd42922f	-0.047502693
235	0xbccb3d8d	-0.024809623
236	0xbcfff869	-0.03124638
237	0xbc3f7d52	-0.011687594
238	0xbbd0242d	-0.0063519687
239	0xbb966f6e	-0.00459092
240	0x3eaa04b2	0.33206707
241	0xbeb173f9	-0.34658793
242	0x3f029509	0.5100866
243	0xba9568b8	-0.0011399006
244	0x3e3de2da	0.18543568
245	0x3e6882d8	0.22706163
246	0xbc8bcdfa	-0.01706599
247	0xbe12b067	-0.14325105
248	0x3def2279	0.11676497
249	0x3e9e6bbb	0.30941567
250	0xbac0fd2f	-0.0014723892
251	0xbee5027b	-0.44728455
252	0xbe63796c	-0.22214288
253	0xbb8377fd	-0.0040121065
254	0x3e9dfd43	0.30857286
255	0xbea05714	-0.31316435

phi.bias f4 [64]
0	0xbea58912	-0.3233114
1	0x38e7336f	0.000110245186
2	0x3eb46d68	0.3523972
3	0x3edd6140	0.43238258
4	0x3e28021f	0.16407059
5	0x3ee9f6c5	0.45696083
6	0x3ec17950	0.37787867
7	0x3ef8bf96	0.48583668
8	0xbd05b167	-0.032639887
9	0x3ecafd92	0.39646584
10	0x3e741b68	0.2383858
11	0xbc8c2560	-0.017107666
12	0x3f122611	0.57089335
13	0x3f152317	0.5825667
14	0xbe86394f	-0.26215598
15	0x3ec14563	0.3774825
16	0x3ebecc1c	0.37265098
17	0x3ef2d410	0.47427416
18	0xbed763a4	-0.42068207
19	0x3e52ff03	0.20605092
20	0x3e83d461	0.2574797
21	0xbdf30b71	-0.11867417
22	0x3ee493b6	0.44643945
23	0x3e8dd44c	0.27701032
24	0x3e8ae933	0.27131042
25	0x3ec61054	0.38684332
26	0x3ebc8b77	0.36825153
27	0x3e1ba8c3	0.15201096
28	0x3e734d33	0.23759918
29	0x3f1e42f0	0.6182089
30	0xbdde2599	-0.10847015
31	0xbe8c0e94	-0.27354872
32	0x3ea0dbfb	0.31417832
33	0xbe294636	-0.1653069
34	0x3f13b56b	0.57698697
35	0x3e314793	0.1731246
36	0x3ea6d054	0.32580817
37	0xbe89ef04	-0.26940167
38	0x3d6edf08	0.058318168
39	0x3ce5cc5f	0.028051553
40	0x3ebc0899	0.3672531
41	0x3e693a86	0.22776231
42	0xbdeb886e	-0.11500631
43	0xbe38cfc7	-0.18048011
44	0x3e9b6e89	0.3035777
45	0x3e675768	0.22591937
46	0x3eb6a8aa	0.35675555
47	0x3c11f495	0.008908411
48	0x3e9f4cbb	0.31113228
49	0xbe013816	-0.12619051
50	0x3da97e65	0.08276061
51	0x3e45970b	0.192959
52	0x3eb6c4bf	0.3569698
53	0x3eca4a96	0.3951003
54	0xbe763627	-0.24044095
55	0x3ef1d054	0.47229254
56	0x3edf7ae6	0.43648452
57	0xbe841779	-0.25799158
58	0x3e1bd17a	0.15216628
59	0xbea014c9	-0.31265858
60	0x3eba3b4c	0.36373365
61	0xbd238e76	-0.039930783
62	0x3e141fb3	0.14465217
63	0x3e82eddf	0.25572106

g.weight f4 [12, 64]
0	0xbe02dc6e	-0.127794
1	0x3d55e8c7	0.052223947
2	0xbdbc86d7	-0.09205406
3	0xbcb3ba2c	-0.02193936
4	0xbdb149d4	-0.0865666
5	0xbd24109b	-0.0400549
6	0xbe465b66	-0.19370803
7	0xbd7a2e79	-0.061079476
8	0xbd926cda	-0.07149668
9	0x3c54016b	0.012939791
10	0xbe038f54	-0.12847644
11	0x3d954926	0.072893426
12	0x3d13f1a2	0.03611911
13	0xbd8247aa	-0.06361325
14	0xbc02cb06	-0.007982975
15	0xbe31cb4a	-0.17362705
16	0xbdd86d05	-0.10567669
17	0x3eadc5b0	0.33939886
18	0x3c8e50bb	0.01737248
19	0x3d0c1cc7	0.03420713
20	0xbd468110	-0.048462927
21	0x3d9f4df9	0.07778544
22	0x3bce1dbc	0.0062901657
23	0x3ebfa81d	0.37432948
24	0x3e13271f	0.14370392
25	0xbe5d4359	-0.21607722
26	0xbd53de7c	-0.05172585
27	0x3e0f22b4	0.13978082
28	0xbd1d99dd	-0.038476814
29	0x3d5091ba	0.050920226
30	0xbdd73289	-0.10507686
31	0x3b3a4e6e	0.0028428095
32	0xbe880a7a	-0.26570493
33	0x3d1a564c	0.037679955
34	0xbed9baec	-0.42525423
35	0x3e10b6cb	0.1413223
36	0x3d1c734f	0.038195904
37	0xbf887c8a	-1.0663006
38	0x3cb9c9ef	0.022679297
39	0x3d1534c4	0.036427274
40	0xbb82a58d	-0.0039870203
41	0x3cd0d194	0.02549056
42	0x3cb32ccf	0.021871952
43	0xbdf15a8f	-0.11784851
44	0xbd6bcde0	-0.057569385
45	0x3c0c2d54	0.008555729
46	0x3dc24f0d	0.09487734
47	0xbb98e3a3	-0.0046658083
48	0xbe1a3068	-0.15057528
49	0xbd2cf240	-0.042223215
50	0x3c0ba406	0.008522993
51	0xbc940a51	-0.018071325
52	0x3e5e9d2c	0.21739644
53	0x3db235ed	0.08701692
54	0xbd823ef5	-0.06359664
55	0xbda6ae0f	-0.08138668
56	0x3dfe3d46	0.12414031
57	0xbd4778b3	-0.048699092
58	0xbd8688ea	-0.06569083
59	0xbf385473	-0.7200386
60	0xbbbddb42	-0.00579396
61	0xbc79718e	-0.015224827
62	0x3da64516	0.08118646
63	0x3ea39e37	0.31956646
64	0xbe11a518	-0.14223135
65	0x3daccc2f	0.084373824
66	0xbe528df5	-0.20561965
67	0x3e5e1869	0.21688999
68	0x3e649287	0.22321521
69	0x3ea9eda2	0.33189112
70	0xbce981bf	-0.02850425
71	0x3e00fb56	0.12595877
72	0xbdebb461	-0.11509014
73	0x3e81c026	0.2534191
74	0x3e54fcb7	0.20799528
75	0xbd99fc3b	-0.07518812
76	0x3d832a81	0.06404591
77	0x3e4b3847	0.19845687
78	0x3db0ec45	0.08638815
79	0xbdc6c6ea	-0.097059086
80	0xbe5e874e	-0.21731302
81	0x3c7d9406	0.015477186
82	0xbe033d6c	-0.128164
83	0x3e6b2bd4	0.22965938
84	0x3e35af40	0.17742634
85	0x3e213420	0.1574254
86	0xbdedc37f	-0.116095535
87	0xbdf8017c	-0.12109658
88	0x3e2b45f4	0.16725904
89	0xbe24c20c	-0.16089648
90	0xbd5b748c	-0.053577945
91	0x3cac34f6	0.021021347
92	0x3cfc300a	0.030784626
93	0x3e06ec85	0.13176163
94	0xbd959d45	-0.073053874
95	0xbd548a75	-0.051889855
96	0x3db52883	0.088456176
97	0x3d96f13e	0.07370232
98	0x3bbf9429	0.0058465195
99	0x3db37419	0.08762378
100	0xbe50e796	-0.20400843
101	0x3ea00e32	0.3126083
102	0xbe5f93e0	-0.21833754
103	0x3d51f9ed	0.05126374
104	0xbe7ee170	-0.24890685
105	0xbe6dc9fd	-0.23221584
106	0x3e47575d	0.1946692
107	0xbe2da0f3	-0.16955929
108	0xbd5bce34	-0.053663447
109	0xbe1c6d75	-0.1527613
110	0xbe1f84ac	-0.15577954
111	0xbcc7f696	-0.024409574
112	0x3d167d9e	0.03674089
113	0x3dae81fb	0.085208856
114	0x3d0eada7	0.034833577
115	0x3dd09c69	0.10186083
116	0x3cad017e	0.021118876
117	0x3e7afedf	0.24511288
118	0xbda97ada	-0.08275385
119	0xbea092a0	-0.31361866
120	0x3e5873ba	0.21137896
121	0x3e592d1e	0.21208617
122	0x3d9c1e70	0.07622993
123	0x3ed2c66a	0.41167003
124	0x3c89b79a	0.01681118
125	0x3dcc944f	0.09989225
126	0x3dffe99c	0.12495729
127	0x3dc52b80	0.096274376
128	0xbdcba273	-0.09943094
129	0xbda0297e	-0.07820414
130	0xbdf0fd5a	-0.11767073
131	0x3e2f131f	0.17097138
132	0x3e80abf9	0.25131205
133	0x3eb2e6c1	0.34941676
134	0x3db2fe8a	0.08739956
135	0x3dc33f2d	0.09533534
136	0xbe5344b1	-0.20631672
137	0x3e8637d1	0.2621446
138	0x3e79a00b	0.24377458
139	0xbe353bd0	-0.17698598
140	0x3d095bc2	0.033534773
141	0x3e6f2481	0.23353769
142	0x3cf552bf	0.029946683
143	0xbe1b6a67	-0.15177308
144	0xbdea0f89	-0.11428744
145	0xbc52b909	-0.012861499
146	0xbda8c4bc	-0.08240649
147	0x3e5d2b84	0.21598631
148	0x3e1a406d	0.15063639
149	0x3e305711	0.17220713
150	0xbdbe6d75	-0.09298221
151	0xbe1d3870	-0.1535356
152	0x3e6364be	0.22206399
153	0xbe482353	-0.19544725
154	0xbe43497a	-0.19070998
155	0xbbd8956e	-0.0066096103
156	0x3e1ce7f5	0.1532286
157	0x3d0de01f	0.034637567
158	0xbd9e0ec2	-0.077176586
159	0xbd0621a3	-0.032746922
160	0x3d67e740	0.05661702
161	0x3e1010d8	0.14068925
162	0xbc9b739b	-0.018976023
163	0x3d717148	0.058945924
164	0xbe5428a6	-0.20718631
165	0x3f321a6d	0.6957157
166	0xbe7421ef	-0.2384107
167	0x3df01bd8	0.11724061
168	0xbe33a9ad	-0.17545195
169	0xbe13d631	-0.14437176
170	0x3e8dbf98	0.27685237
171	0xbe1e21c2	-0.15442565
172	0xbddeea78	-0.10884565
173	0xbe077a98	-0.1323036
174	0xbe163d0e	-0.14671728
175	0xbcfab3a2	-0.030603234
176	0xbe7bd724	-0.24593788
177	0xbc1cd752	-0.009572821
178	0x3d11cfea	0.035598673
179	0x3dc7118c	0.09720144
180	0x3d0fd7c4	0.03511788
181	0x3e5a1569	0.2129723
182	0xbd336c06	-0.04380419
183	0xbe7b29b1	-0.24527623
184	0x3e120811	0.1426089
185	0x3df8df0a	0.12151916
186	0x3daabf71	0.08337296
187	0x3eda7be0	0.42672634
188	0x3e0bc5c9	0.13649668
189	0xbd442c6f	-0.047893938
190	0x3e8258d0	0.25458384
191	0x3e015304	0.12629324
192	0xbc13b3e8	-0.009015061
193	0xbd0b494a	-0.03400544
194	0xbe0478b5	-0.12936671
195	0x3e451805	0.19247444
196	0x3e558f15	0.20855363
197	0x3e8ff997	0.2812011
198	0x3c5dd4c0	0.013539493
199	0x3ddcb5da	0.10776873
200	0xbe7b25d2	-0.24526146
201	0x3e84dd3c	0.25950038
202	0x3df15845	0.11784414
203	0xbdaade33	-0.083431624
204	0x3d413503	0.047169697
205	0x3e29ecdb	0.1659426
206	0x3d3f3c65	0.046688456
207	0xbdb3e730	-0.0878433
208	0xbe3e31f4	-0.18573743
209	0x3d001d7d	0.031278122
210	0xbe1189b1	-0.14212681
211	0x3e6fcb0a	0.23417297
212	0x3d95b6ef	0.073102824
213	0x3e547307	0.20747004
214	0xbddbe28f	-0.10736572
215	0xbe115955	-0.14194234
216	0x3e4469f2	0.1918104
217	0xbe4cc498	-0.1999687
218	0xbe16fe6a	-0.14745489
219	0xbc3584b4	-0.011079002
220	0x3d991d60	0.07476306
221	0x3bf61392	0.007509657
222	0xbdd53bee	-0.10411821
223	0xbd2dafda	-0.042404033
224	0x3dd19057	0.10232609
225	0x3e07f31e	0.13276336
226	0xbcedce7e	-0.029029127
227	0x3dabc4a6	0.08387117
228	0xbe5575b7	-0.20845686
229	0x3f1ae864	0.6051085
230	0xbbfe4873	-0.0077601015
231	0x3dec7216	0.11545198
232	0xbe0c9f3d	-0.1373262
233	0xbd47200f	-0.048614558
234	0x3e62925e	0.22126147
235	0xbe358561	-0.17726661
236	0xbdd95997	-0.10612791
237	0xbddab3e2	-0.10678841
238	0xbe01c492	-0.12672642
239	0xbcbedee1	-0.023299636
240	0xbe33348f	-0.17500518
241	0x3d42b224	0.04753317
242	0x3df20f25	0.11819295
243	0x3df25e96	0.11834447
244	0x3dc09672	0.09403695
245	0x3e79af97	0.24383388
246	0xbda485c1	-0.08033324
247	0xbe8e540f	-0.27798507
248	0x3e33b4a5	0.17549379
249	0x3dce6176	0.10077183
250	0x3cf424fa	0.029802788
251	0x3eff8f43	0.49913988
252	0x3e04474d	0.12917824
253	0xbc97bd20	-0.018522799
254	0x3dfb4cf6	0.122705385
255	0x3d2122ad	0.03933971

g.bias f4 [12]
0	0x3d295af4	0.041346505
1	0x3d50cb6a	0.05097524
2	0x3d4a582a	0.049400486
3	0x3dbfeb20	0.093710184
4	0x3e226efc	0.1586265
5	0x3dab248f	0.083565824
6	0x3d76fe6b	0.060301226
7	0x3d8a0b66	0.06740455
8	0x3e38e3f9	0.18055715
9	0x3e472148	0.1944629
10	0x3e786acd	0.24259491
11	0x3e471546	0.19441709
