model/ddn/5m_vs_6m/14_rnn_net_params.pkl (torch, 126663 bytes, 10 tensors)

fc_obs.weight f4 [64, 72]
-0.1062143 -0.10237023 -0.15573545 -0.17463161 0.06780853 -0.065140955 -0.041920073 -0.16987108
-0.18728732 -0.21869828 0.03282533 0.02826841 0.67264026 -0.04068945 -0.1420813 0.0574126
0.17141004 0.36693773 0.16679315 -0.041781556 0.1529647 0.06800745 0.82392997 -0.11742964
0.039834384 -0.051765103 0.0018730505 0.07108854 -0.023517111 -0.057608727 0.1320878 0.011158989
0.12750983 0.21576612 -0.031892546 0.56304485 1.1521941 0.2132184 0.26485533 -0.13427515
0.6090858 1.2569442 0.017181354 0.14923123 -0.10100378 0.62221044 0.8689865 0.63586205
0.07427263 -0.13362207 0.12943678 0.68887776 0.471785 0.18110444 -0.050702326 -0.06016347
0.058979996 0.0057938425 -0.015391338 0.08054588 -0.16403234 -0.35411534 -0.25856 0.13196565
-0.16191071 -0.024385743 0.13958766 -0.23120628 0.022198228 -0.06061762 0.13068384 -0.059879713
0.09073523 -0.030449035 0.062707104 -0.010277807 0.0011270823 -0.13352604 0.046230067 0.30294222
0.18514544 0.19690523 0.1554715 0.11830993 0.11056508 -0.07442992 0.016006328 -0.12876543
0.010281767 0.20125291 0.64682937 -0.122919664 -0.055725552 0.090804234 0.20035079 0.050673988
0.25836545 0.057333846 0.09425577 0.1650621 -0.22180292 0.1570097 0.010303009 0.19403526
-0.18925263 -0.016980728 -0.31686527 0.09117557 0.17353308 -0.0141422525 -0.027860282 -0.2986844
-0.16236846 -0.38031578 -0.11926409 -0.05120126 -0.21347317 -0.24515846 -0.47738993 -0.16677266
0.09431682 -0.17052147 -0.03585643 -0.54715943 0.2936236 0.091801696 -0.2497704 -0.13819204
0.07624732 -0.31905228 0.040493075 0.16314743 0.21635634 0.28611466 0.3143473 0.15455772
-0.047734264 0.09266312 0.22413896 -0.026483282 0.06334399 0.041909922 -0.15597707 0.064783365
-0.23127325 -0.26131788 -0.068464555 -0.0714128 -0.23976398 0.19502154 0.27278587 -0.14693683
-0.16405427 -0.19210474 -0.11493643 0.21696226 -0.17581362 0.06138828 -0.40416053 -0.41610077
-0.16500038 -0.32274175 -0.07762928 -0.24619614 0.10642287 0.08461738 -0.20850159 0.01236108
-0.033130866 0.030038916 0.087489 -0.16003612 0.10040204 0.022423914 0.17965493 0.03955551
-0.7205494 -0.09814454 -0.09387192 0.027364936 0.19587405 0.080272496 0.28431317 0.008204924
0.32802913 0.069691464 0.1440266 0.18648623 -0.0130713405 0.3844567 -0.30318025 0.21798971
0.2240761 0.014667947 0.08339347 -0.35891253 0.29591867 0.29611763 0.20472339 -0.09558102
0.09830444 0.1697896 0.29181612 -0.36837223 0.08684647 -0.61809987 0.08666096 0.24142838
0.030708574 0.17374308 0.37871787 -0.06310938 -0.2049436 -0.33726704 -0.108451344 -0.34883878
-0.23359175 -0.04356272 -0.063740686 -0.05932799 -0.12916239 0.12004277 0.15296668 -0.28079805
-0.056687552 -0.121738344 0.16562657 0.21512571 -0.28127864 -0.22582386 -0.0638406 -0.13649234
0.106836215 -0.07911193 0.4731997 -0.0855193 -0.036807433 0.12309481 0.33839735 0.013683718
-0.04951004 -0.11235218 -0.020549385 -0.5008827 -0.40085572 -0.050768804 0.007837504 0.10670643
0.37637556 0.054073222 0.118327 -0.04924747 0.34892336 -0.2035942 0.17696084 -0.038782578
00000000: e286 d9bd 7ca7 d1bd 1d79 1fbe a1d2 32be
00000010: 33df 8a3d 9f68 85bd 62b4 2bbd aff2 2dbe
00000020: 3fc8 3fbe 71f2 5fbe da73 063d 2793 e73c
00000030: 2732 2c3f fba9 26bd c37d 11be 7929 6b3d
00000040: 1d86 2f3e 43df bb3e d3cb 2a3e 2323 2bbd
00000050: c7a2 1c3e 7d47 8b3d 13ed 523f f37e f0bd
00000060: 6129 233d a507 54bd 2581 f53a de96 913d
00000070: f5a6 c0bc 21f7 6bbd 0642 073e 31d4 363c
00000080: f091 023e cbf1 5c3e c2a1 02bd b523 103f
00000090: 197b 933f ed55 5a3e 1e9b 873e 6d7f 09be
000000a0: 0ced 1b3f 8ce3 a03f e9bf 8c3c 12d0 183e
000000b0: 12db cebd 2f49 1f3f e675 5e3f dbc7 223f
000000c0: 401c 983d 39d4 08be 138b 043e 4b5a 303f
000000d0: ce8d f13e 7173 393e 3ead 4fbd f96d 76bd
000000e0: 0295 713d 46da bd3b f32b 7cbc 3df5 a43d
000000f0: 18f8 27be 9b4e b5be fa61 84be 0122 073e
00000100: eccb 25be 9cc4 c7bc 11f0 0e3e 57c1 6cbe
00000110: 0fd9 b53c 2e4a 78bd fcd1 053e 6e44 75bd
00000120: 64d3 b93d 4170 f9bc 956c 803d 3f64 28bc
00000130: 9bba 933a 0dbb 08be bd5b 3d3d 3e1b 9b3e
00000140: c496 3d3e 86a1 493e ec33 1f3e 7a4c f23d
00000150: f26f e23d b76e 98bd b41f 833c 16db 03be
00000160: db74 283c 3e15 4e3e 9c96 253f 4ebd fbbd
00000170: 7a40 64bd 92f7 b93d c228 4d3e 878f 4f3d
00000180: 7a48 843e e5d6 6a3d 2b09 c13d 0a06 293e
00000190: 4e20 63be 27c7 203e f4cd 283c 2eb1 463e
000001a0: 71cb 41be 2b1b 8bbc 2a3c a2be 42ba ba3d
000001b0: a8b2 313e e8b4 67bc 3f3b e4bc 29ed 98be
000001c0: eb43 26be c0b8 c2be bb40 f4bd 6ab8 51bd
000001d0: b698 5abe d20a 7bbe 746c f4be 74c6 2abe
000001e0: 2d29 c13d 2e9d 2ebe 31de 12bd a412 0cbf
000001f0: d555 963e 8702 bc3d d0c3 7fbe 3782 0dbe
00000200: 8e27 9c3d d25a a3be 11dc 253d 1f10 273e
00000210: 848c 5d3e 9f7d 923e 21f2 a03e 6144 1e3e
00000220: 0185 43bd 29c6 bd3d af84 653e 78f3 d8bc
00000230: 7eba 813d bda9 2b3d 74b8 1fbe 24ad 843d
00000240: e5d2 6cbe 75cb 85be 2537 8cbd e040 92bd
00000250: b084 75be bab3 473e 97aa 8b3e 9c76 16be
00000260: d8fd 27be 1bb7 44be ca63 ebbd 5b2b 5e3e
00000270: 7c08 34be 4772 7b3d 21ee cebe 290b d5be
00000280: dcf5 28be 683e a5be 1afc 9ebd d71a 7cbe
00000290: 3cf4 d93d e04b ad3d 7181 55be 2186 4a3c
000002a0: 3bb4 07bd 2c14 f63c 6f2d b33d 82e0 23be
000002b0: 969f cd3d 5bb2 b73c 76f7 373e f504 223d
000002c0: ed75 38bf 0100 c9bd ec3f c0bd 6e2c e03c
000002d0: 3593 483e e865 a43d 7f91 913e f26d 063c
000002e0: 6ff3 a73e 66ba 8e3d b67b 133e 3ff6 3e3e
000002f0: 2d29 56bc 82d7 c43e 713a 9bbe b238 5f3e
00000300: 3574 653e d451 703c 32ca aa3d 62c3 b7be
00000310: a782 973e bb9c 973e 02a3 513e fbbf c3bd
00000320: d753 c93d 53dd 2d3e ec68 953e 499b bcbe
00000330: 90dc b13d cb3b 1ebf 4d7b b13d 0039 773e
00000340: 8c90 fb3c b5e9 313e 4fe7 c13e 7e3f 81bd
00000350: bcdc 51be 44ae acbe bd1b debd ff9a b2be
00000360: ad32 6fbe d36e 32bd 7a8a 82bd e801 73bd
00000370: 2543 04be fcd8 f53d 4ca3 1c3e c3c4 8fbe
00000380: 3531 68bd f451 f9bd 039a 293e ea49 5c3e
00000390: c103 90be 5f3e 67be dcbe 82bd a6c4 0bbe
000003a0: f2cc da3d 7005 a2bd 3b47 f23e be24 afbd
000003b0: 64c3 16bd 2219 fc3d 6b42 ad3e ac31 603c
000003c0: 0acb 4abd e618 e6bd 2f57 a8bc d939 00bf
000003d0: f63c cdbe f3f2 4fbd e068 003c e788 da3d
000003e0: 4cb4 c03e e27b 5d3d 6d55 f23d b7b7 49bd
000003f0: 15a6 b23e ff7a 50be 3935 353e 7bda 1ebd

fc_obs.bias f4 [64]
-0.15545505 0.026022367 -0.07423772 -0.069359094 0.107796244 0.13578837 0.053096566 0.13144603
-0.09707756 0.15776968 -0.008889179 -0.0966522 -0.007488989 0.13023847 -0.068880595 0.17916629
0.08924433 0.029639002 -0.08528313 0.032495905 0.026344284 -0.0538045 -0.27616364 0.035071958
-0.15767182 -0.09105136 -0.036134504 -0.022418216 -0.012908522 -0.045835737 -0.009861977 0.2915029
0.0018331676 0.02280275 0.07766971 0.08708924 0.056293536 -0.06522892 -0.117792234 -0.054667737
0.022054438 0.086027764 -0.19021331 -0.026624005 0.11900157 -0.006892509 0.03785162 -0.16406229
-0.06966056 0.099621646 0.17014529 0.05496158 -0.06487509 -0.012837299 0.118491836 0.017476479
0.21683584 0.13861655 -0.08122556 -0.19376853 -0.08248319 0.10022057 0.087759666 0.13786858
00000000: 9c2f 1fbe dc2c d53c f209 98bd 240c 8ebd
00000010: 47c4 dc3d 1b0c 0b3e c97b 593d ca99 063e
00000020: 9ad0 c6bd 608e 213e eba3 11bc 97f1 c5bd
00000030: 3166 f5bb 3c5d 053e 4511 8dbd 5e77 373e
00000040: bbc5 b63d 7ecd f23c eca8 aebd 6d1a 053d
00000050: f8cf d73c 1b62 5cbd 5265 8dbe 9da7 0f3d
00000060: b974 21be 2379 babd c601 14bd 68a6 b7bc
00000070: 447e 53bc 41be 3bbd 2194 21bc de3f 953e
00000080: e646 f03a d5cc ba3c 4c11 9f3d d85b b23d
00000090: 0d94 663d bd96 85bd 0e3d f1bd 47eb 5fbd
000000a0: 82ab b43c 532f b03d 47c7 42be 961a dabc
000000b0: 18b7 f33d 8eda e1bb 4d0a 1b3d f2ff 27be
000000c0: 32aa 8ebd 6f06 cc3d 913a 2e3e 651f 613d
000000d0: 3bdd 84bd 8953 52bc d9ab f23d d52a 8f3c
000000e0: 370a 5e3e 7ff1 0d3e 9659 a6bd 426b 46be
000000f0: f2ec a8bd 7140 cd3d 57bb b33d 6c2d 0d3e

rnn.weight_ih f4 [192, 64]
0.38738793 0.3539466 -0.041116044 0.04135291 -0.24431974 0.16543809 0.31681615 -0.13691382
-0.0122921765 0.0815067 -0.38336524 0.49854898 -0.55209666 0.08572681 -0.022421682 0.4037746
0.09199468 -0.06403651 0.04740474 0.052604526 -0.14941888 0.5043684 0.005724866 0.27858913
0.025064621 0.17835161 0.22918276 -0.052389193 -0.0047521107 -0.17492048 0.10362528 -0.03841176
-0.1698107 -0.32929718 0.35326985 -0.018560993 0.25484213 -0.05814612 0.15109673 -0.047438856
-0.25872833 0.1082231 0.01395483 0.119411014 0.26297683 -0.49592313 -0.41273907 0.07567403
-0.79886955 -0.01743117 0.46363437 -0.13030161 -0.08625652 0.32215378 -0.19519491 0.20352744
0.33228126 0.17568815 -0.65280706 -0.13637818 -0.41749856 -0.012451745 0.047631 -1.0462314
-0.068150885 -1.1920106 -0.090540335 -0.5671855 0.20705669 0.47564974 -0.2635046 -0.1310037
0.103003874 -0.7936203 -1.4024898 -0.53844696 -0.0081034 -0.22909917 0.2771232 0.0060061826
-0.01877308 -0.38593677 0.7017346 0.312772 -0.012704475 -0.23584248 -0.20133823 -0.65938354
-0.036760744 0.17969579 0.37907866 -0.19118424 -0.03377354 -1.3852208 0.17209677 -0.54710877
-0.19186121 0.27879426 0.29089946 0.10000132 -0.021037575 0.004251553 -0.0185466 0.10831635
-0.1445985 0.3203728 -0.12386693 -0.2451389 -0.007982153 -0.48319516 -1.0631074 -0.0418962
-1.2129409 -0.16075164 0.3430772 -0.6535443 0.07140595 0.29622167 -0.18572402 0.44082686
0.15670055 -1.3129497 -0.13490504 -0.07884068 -0.05608101 -0.39889297 -0.07872648 -0.3749798
0.38421458 -0.3435324 0.15705752 -0.026491564 0.5099034 0.539085 -0.077661276 0.21550575
-0.075366504 0.08055583 -0.087116346 -0.13810764 0.10147536 -0.018660633 0.82150304 -0.32301915
0.08127267 -0.19050285 -0.23124269 -0.020709129 0.08720108 0.24019682 -0.017661415 0.34421918
0.13517843 0.26478082 0.106020495 -0.5476751 0.1821939 -0.03663044 -0.05147295 -0.31519347
-0.09246849 0.28385457 -0.5036999 0.22123061 -0.6413681 -0.10085541 0.23257221 -0.1098432
-0.08598191 -0.23122396 0.24429381 0.273901 -0.12316364 0.08465357 0.39510927 0.18943903
0.9934234 0.256492 -0.40453047 -0.053847995 -0.16333123 0.43080053 -0.2346256 0.23128533
-0.23622224 -0.5670076 -0.04983958 0.090953365 0.11395305 0.010009872 0.32980788 -0.17970449
0.5060567 0.054356407 0.070938185 -0.062597215 -0.78033566 -0.5322096 0.34257025 0.41672
-0.029874273 0.43044844 -0.013363008 -0.43347478 0.10689337 -0.12316705 -0.414961 -0.67711407
-0.45070413 0.24716778 -0.22910216 -0.9094946 0.28599194 -0.20917611 0.22978775 0.29832202
-0.021138236 -0.12702446 -0.07875171 -0.33426172 0.0813103 0.07760091 -0.16286655 0.35875595
-0.04161612 0.13671663 -0.094556294 -0.19652991 -0.38722405 -0.24702498 -0.2546629 -0.042927455
-0.17206627 -0.41602877 -0.085049026 -0.045973312 -0.6073524 0.2229456 0.6067749 -0.12987526
0.26206985 -0.0020254715 0.5831898 0.22059405 -0.46750388 -0.24800456 0.2672455 -0.4300749
0.42777956 -0.06403797 -0.07271224 -0.08399554 -0.1933759 0.27164918 -0.21924989 0.7919253
00000000: b657 c63e 7d38 b53e 4c69 28bd ab61 293d
00000010: f42e 7abe 9a68 293e ba35 a23e 2333 0cbe
00000020: 2065 49bc fcec a63d 7348 c4be d041 ff3e
00000030: 3556 0dbf 8a91 af3d adad b7bc 8bbb ce3e
00000040: b567 bc3d 9325 83bd 792b 423d d877 573d
00000050: 4301 19be 4a1e 013f a897 bb3b 3ca3 8e3e
00000060: 5254 cd3c cea1 363e e3ae 6a3e 0d96 56bd
00000070: 98b7 9bbb 5b1e 33be 7e39 d43d a655 1dbd
00000080: dbe2 2dbe a499 a8be c9df b43e 390d 98bc
00000090: ab7a 823e a02a 6ebd 1ab9 1a3e 3f4f 42bd
000000a0: 0a78 84be 13a4 dd3d cda2 643c c38d f43d
000000b0: e6a4 863e a3e9 fdbe 8952 d3be fcfa 9a3d
000000c0: b782 4cbf d0cb 8ebc 7c61 ed3e c96d 05be
000000d0: 42a7 b0bd 57f1 a43e 2de1 47be 7f69 503e
000000e0: c520 aa3e 98e7 333e 5d1e 27bf b9a6 0bbe
000000f0: 5fc2 d5be 6702 4cbc b918 433d e9ea 85bf
00000100: b192 8bbd ce93 98bf 366d b9bd 1233 11bf
00000110: ab06 543e 5d88 f33e 13ea 86be d525 06be
00000120: b2f3 d23d b32a 4bbf c984 b3bf a9d7 09bf
00000130: 1fc4 04bc f998 6abe 18e3 8d3e 83cf c43b
00000140: 01ca 99bc 8199 c5be e1a4 333f a723 a03e
00000150: 6e26 50bc b180 71be 9c2b 4ebe 5ccd 28bf
00000160: 6f92 16bd 2c02 383e 9916 c23e cdc5 43be
00000170: 2056 0abd ea4e b1bf 233a 303e 520f 0cbf
00000180: 4477 44be 1fbe 8e3e c6f0 943e 7ecd cc3d
00000190: fe56 acbc 9d50 8b3b 0aef 97bc f6d4 dd3d
000001a0: a111 14be e707 a43e f2ad fdbd b105 7bbe
000001b0: 94c7 02bc 5b65 f7be e713 88bf 5a9b 2bbd
000001c0: a641 9bbf 149c 24be d1a7 af3e ae4e 27bf
000001d0: 483d 923d 5eaa 973e 702e 3ebe 0fb4 e13e
000001e0: 1c76 203e bc0e a8bf 8c24 0abe 3977 a1bd
000001f0: 33b5 65bd b33b ccbe 593b a1bd 5afd bfbe
00000200: c6b7 c43e 7be3 afbe b0d3 203e d604 d9bc
00000210: 0789 023f 7901 0a3f e00c 9fbd 8aad 5c3e
00000220: c159 9abd 74fa a43d 0e6a b2bd 176c 0dbe
00000230: 50d2 cf3d 2fde 98bc 064e 523f c462 a5be
00000240: 4972 a63d 2e13 43be e2ca 6cbe 31a6 a9bc
00000250: 7b96 b23d 28f6 753e acae 90bc 7f3d b03e
00000260: 376c 0a3e 5a91 873e 4621 d93d 6f34 0cbf
00000270: 0a91 3a3e cd09 16bd 4dd5 52bd 0a61 a1be
00000280: 1f60 bdbd 6355 913e 7af2 00bf 478a 623e
00000290: b330 24bf 488d cebd 6927 6e3e 79f5 e0bd
000002a0: 4917 b0bd f9c5 6cbe 2828 7a3e c03c 8c3e
000002b0: 383d fcbd da5e ad3d c34b ca3e 4efc 413e
000002c0: ff50 7e3f eb52 833e 9e1e cfbe b78f 5cbd
000002d0: 4d40 27be e391 dc3e b141 70be 10d6 6c3e
000002e0: 3ee4 71be 6927 11bf 9624 4cbd c245 ba3d
000002f0: 3760 e93d 7200 243c 94dc a83e 7404 38be
00000300: ef8c 013f d3a4 5e3d 0a48 913d f832 80bd
00000310: 14c4 47bf e33e 08bf 5e65 af3e 535c d53e
00000320: e4ba f4bc bd63 dc3e 85f0 5abc 68f0 ddbe
00000330: e9ea da3d 023f fcbd c575 d4be 5957 2dbf
00000340: b1c2 e6be 8d19 7d3e c299 6abe a3d4 68bf
00000350: 896d 923e 4332 56be 7b4d 6b3e aabd 983e
00000360: 182a adbc b312 02be 9448 a1bd 5a24 abbe
00000370: 0486 a63d 3aed 9e3d 7dc6 26be dcae b73e
00000380: aa75 2abd 72ff 0b3e bba6 c1bd 233f 49be
00000390: 3b42 c6be 1ef4 7cbe 2d63 82be b3d4 2fbd
000003a0: 2432 30be b901 d5be 2f2e aebd 834e 3cbd
000003b0: 727b 1bbf da4b 643e 9a55 1b3f 05fe 04be
000003c0: 052e 863e c6bd 04bb ed4b 153f 68e3 613e
000003d0: ab5c efbe e8f4 7dbe 67d4 883e c732 dcbe
000003e0: ec05 db3e 5726 83bd 28ea 94bd db05 acbd
000003f0: 5504 46be 9a15 8b3e 0b83 60be 9ebb 4a3f

rnn.weight_hh f4 [192, 64]
0.25306863 -0.49409783 0.14421631 -0.0842025 -0.14016044 0.07977737 0.06397929 -0.16167516
0.25482953 -0.059650548 0.2131765 0.09260035 -0.07835861 0.25965554 -0.038744345 -0.39372173
-0.045463983 -0.35073483 -0.11082865 0.0401185 0.19834264 0.10141806 0.31869033 0.06733938
-0.0019388831 -0.39011928 -0.17152992 0.15181832 0.28400803 0.03208309 0.37857106 0.10669135
0.025825642 0.16538168 0.100878455 0.5456583 -0.119500384 0.21357676 0.114029564 -0.19722305
-0.023037722 0.4420905 -0.06211014 0.38278863 0.16606951 -0.38266954 -0.16465552 0.16823687
-0.5147927 -0.12651715 -0.123512216 -0.30045578 0.13228583 0.08058436 -0.11434901 -0.44411808
0.15672934 -0.018198235 -0.18716316 0.27985936 -0.20165214 -0.047537472 -0.12046028 0.0845499
-0.1517785 -0.55932945 0.0065154065 -0.03912508 0.04389453 -0.20377536 -0.2016595 0.025601557
-0.45379192 -0.22456503 0.023820488 -0.29537517 -0.2516011 0.06793206 -0.09709338 -0.36495993
0.15990974 -0.31988886 -0.20993929 0.053026874 -0.006141572 0.50425506 -0.13299005 -0.044453293
0.27126536 -0.052240033 0.24974044 0.36117947 0.45502537 0.26918572 -0.09683052 -0.030948067
-0.11458751 0.09198415 0.54202724 0.011594315 -0.09695603 -0.15492997 -0.24649663 0.12955506
-0.07457123 0.1193759 0.23125248 -0.18961932 -0.17598467 -0.5516686 0.0770224 0.17631672
-0.31195945 -0.025103869 0.5498768 0.12537827 -0.047600843 0.10880176 -0.22052026 0.14200231
0.12180365 0.02508239 -0.16425622 -0.010945179 0.03824901 -0.19427654 0.77170724 -0.12228482
0.33216563 -0.08832544 -0.3088188 0.2942654 0.3069092 -0.19118182 0.10077736 0.17882226
-0.3509546 0.23230237 0.4650943 -0.22106276 0.14040305 0.21881561 -0.1700039 0.08153425
-0.28620574 -0.31177452 0.19955976 0.1397276 -0.7062911 0.11631932 -0.40913767 -0.09017668
0.27147314 -0.06457301 -0.10459051 -0.09464228 -0.12411412 -0.26965782 -0.25007108 0.04569146
0.28692424 -0.1933118 0.1653347 0.2493367 -0.6401626 0.56162226 0.20029436 0.29563758
-0.28870055 0.07103232 0.113925576 0.23419741 -0.20317721 0.055178367 -0.23184167 -0.066837125
-0.11263 0.804111 0.1787188 0.17814144 0.55316055 0.24213225 0.014643359 -0.3410037
0.095442526 0.36861956 -0.17112611 -0.117877096 -0.22584027 0.09381874 0.9317356 0.15652625
-0.02505831 0.13837023 0.1528877 0.07076461 -0.67676544 0.11263968 -0.36875975 0.0993052
0.33842367 -0.1711335 0.04345793 0.2620598 0.51149887 -0.41891018 0.15607281 -0.042549442
0.4107099 0.15386754 -0.11646491 0.24190767 -0.5368192 -0.06366375 0.25170735 0.052668825
-0.27937093 -0.35538664 -0.06928459 0.033464342 -0.26779172 0.08365006 -0.015390491 0.56907356
0.15054986 -0.18631999 -0.19575165 -0.2810413 0.20155205 -0.33331802 0.05425938 0.023685299
0.16208778 0.20248109 -0.11689884 0.5469298 -0.03663922 0.18583311 0.12875399 0.2836464
-0.33330515 -0.8047192 -0.94887173 0.16658668 0.19410129 0.12811339 0.051868405 -0.21455692
-0.1258724 -0.20190044 0.25704026 0.53540266 -0.4997449 0.33030048 0.30760434 0.0030450153
00000000: 3692 813e 64fa fcbe 71ad 133e 5c72 acbd
00000010: 3886 0fbe 5162 a33d 9307 833d 2c8e 25be
00000020: 0479 823e 2254 74bd f14a 5a3e 41a5 bd3d
00000030: 7b7a a0bd 92f1 843e 64b2 1ebd e595 c9be
00000040: 7138 3abd 8493 b3be 22fa e2bd 4c53 243d
00000050: 551a 4b3e 46b4 cf3d 612b a33e 3be9 893d
00000060: 1f22 feba b7bd c7be 8aa5 2fbe 4376 1b3e
00000070: 8069 913e 8f69 033d 11d4 c13e ff80 da3d
00000080: 4c90 d33c d159 293e 5d99 ce3d 43b0 0b3f
00000090: 9ebc f4bd deb3 5a3e 5588 e93d d7f4 49be
000000a0: 9bb9 bcbc b059 e23e 3467 7ebd dffc c33e
000000b0: 200e 2a3e 43ed c3be 759b 28be 4946 2c3e
000000c0: 74c9 03bf b68d 01be f9f3 fcbd 57d5 99be
000000d0: f075 073e 6a09 a53d d02f eabd 7263 e3be
000000e0: a87d 203e 7714 95bc b3a7 3fbe ba49 8f3e
000000f0: e67d 4ebe a7b6 42bd e1b3 f6bd 7f28 ad3d
00000100: d36b 1bbe 3730 0fbf 317f d53b 9f41 20bd
00000110: c0ca 333d 7daa 50be d47f 4ebe 5bba d13c
00000120: 6a57 e8be 60f4 65be 2f23 c33c 6a3b 97be
00000130: dcd1 80be f71f 8b3d e5d8 c6bd 07dc babe
00000140: 61bf 233e 79c8 a3be 53fa 56be b532 593d
00000150: 3d3f c9bb dc16 013f 8b2e 08be a814 36bd
00000160: 4be3 8a3e a5f9 55bd f5bb 7f3e 84ec b83e
00000170: 16f9 e83e b6d2 893e 144f c6bd cd86 fdbc
00000180: dbac eabd 3062 bc3d 4cc2 0a3f 15f6 3d3c
00000190: e290 c6bd f6a5 1ebe 9d69 7cbe 15aa 043e
000001a0: cdb8 98bd 5a7b f43d 73cd 6c3e 912b 42be
000001b0: 5335 34be 273a 0dbf ecbd 9d3d 5f8c 343e
000001c0: 26b9 9fbe a1a6 cdbc bac4 0c3f 2963 003e
000001d0: 1af9 42bd 75d3 de3d 10d0 61be 0e69 113e
000001e0: 3174 f93d 9679 cd3c c832 28be 6853 33bc
000001f0: feaa 1c3d 6ef0 46be 9b8e 453f 7770 fabd
00000200: 9d11 aa3e f8e3 b4bd 7f1d 9ebe f4a9 963e
00000210: 3423 9d3e 2bc5 43be 5c64 ce3d 2f1d 373e
00000220: 52b0 b3be ace0 6d3e d720 ee3e 475e 62be
00000230: d1c5 0f3e 3311 603e 8115 2ebe 6efb a63d
00000240: 8f89 92be e9a0 9fbe 6559 4c3e c114 0f3e
00000250: 7ecf 34bf d338 ee3d 7e7a d1be 8dae b8bd
00000260: 87fe 8a3e db3e 84bd 8d33 d6bd d0d3 c1bd
00000270: 8b2f febd 9710 8abe 5109 80be f826 3b3d
00000280: bce7 923e 87f3 45be 804d 293e 1f52 7f3e
00000290: b2e1 23bf 7ac6 0f3f f719 4d3e cf5d 973e
000002a0: 8fd0 93be 6579 913d d051 e93d 72d1 6f3e
000002b0: b00d 50be b602 623d e767 6dbe e7e1 88bd
000002c0: 8faa e6bd 38da 4d3f 1002 373e b66a 363e
000002d0: ee9b 0d3f 84f1 773e b3ea 6f3c 0998 aebe
000002e0: 5f77 c33d b4bb bc3e af3b 2fbe 8c69 f1bd
000002f0: ac42 67be 0a24 c03d 3986 6e3f 6b48 203e
00000300: 1647 cdbc edb0 0d3e 988e 1c3e 09ed 903d
00000310: 8040 2dbf a2af e63d 14ce bcbe 8660 cb3d
00000320: de45 ad3e 9f3d 2fbe f100 323d b42c 863e
00000330: 97f1 023f 657b d6be 8dd1 1f3e 5348 2ebd
00000340: 9148 d23e 748f 1d3e 2885 eebd a5b6 773e
00000350: fc6c 09bf 2462 82bd c9df 803e 44bb 573d
00000360: b509 8fbe 3df5 b5be 14e5 8dbd e811 093d
00000370: ff1b 89be b950 ab3d 6628 7cbc ceae 113f
00000380: be29 1a3e abca 3ebe 1f73 48be a5e4 8fbe
00000390: a963 4e3e a9a8 aabe 153f 5e3d ac07 c23c
000003a0: 57fa 253e 3457 4f3e a968 efbd 9703 0c3f
000003b0: 0213 16bd 094b 3e3e 16d8 033e 1a3a 913e
000003c0: f9a6 aabe 1402 4ebf 42e9 72bf b395 2a3e
000003d0: 7dc2 463e 2830 033e f773 543d cfb4 5bbe
000003e0: b2e4 00be fdbe 4ebe c89a 833e 2610 093f
000003f0: 90de ffbe 251d a93e 517e 9d3e e18e 473b

rnn.bias_ih f4 [192]
0.20247644 -0.1411987 -0.26956463 -0.041591913 -0.03673259 -0.12182488 0.0039196177 -0.09778054
-0.112584054 -0.054257635 -0.08660674 -0.04412652 0.09684877 0.011593454 -0.118793756 -0.07643809
-0.06278216 -0.067287154 0.19184418 -0.017057743 0.06492287 0.16249529 0.08056108 -0.05699428
-0.13906749 -0.118896954 0.118204795 0.076207735 0.10104653 0.059516646 -0.019188575 -0.08102959
-0.067458265 0.08308647 -0.14402728 0.0073852856 -0.065950975 -0.110077895 0.034430753 0.080598004
-0.013159591 0.028533876 -0.09337806 -0.017639037 0.22782 0.18908963 -0.13495588 0.045617174
-0.053853553 -0.036782302 -0.08949594 0.21076633 0.027689286 -0.08819294 0.057002317 -0.04846622
-0.16357552 -0.07354008 -0.022045085 0.082156606 -0.13651234 0.30886838 -0.037177194 -0.10403921
0.12564038 0.015659187 -0.011086487 -0.2562581 -0.024486905 -0.21284272 -0.21872298 -0.21473093
0.010863849 0.05784019 -0.036882732 0.05501254 -0.19343333 -0.31673405 0.34658727 -0.10410062
-0.05110373 -0.07160918 -0.017227376 -0.1718629 -0.13577051 -0.027798172 -0.34303045 -0.087436534
-0.025086239 -0.12802166 -0.2789259 -0.22256842 -0.023541512 -0.24940255 -0.00082498085 -0.14623617
-0.039438635 -0.36015216 0.22079913 -0.06949915 -0.19105175 -0.26402035 0.032464556 -0.051432047
-0.042858105 -0.21331923 -0.035318527 -0.28897756 -0.117896326 -0.196699 -0.19967845 0.09471207
-0.18454874 0.008698166 -0.0063666273 -0.011378002 -0.27579653 -0.13639839 -0.2151673 -0.17755559
-0.21683295 -0.035208263 -0.08914276 0.1301059 -0.06531853 -0.11580303 -0.1808325 -0.1742207
0.06689331 -0.083173 -0.2410725 0.27307817 0.13138032 0.19174825 -5.962435e-06 0.27623287
-0.08359779 0.048333254 0.10577394 -0.13492 -0.14991999 -0.1398124 0.025498144 0.119075395
0.0051877205 0.16940749 -0.100263014 0.1555383 -0.0061814226 -0.010223511 -0.105551325 -0.4391815
0.095528334 -0.008939153 -0.08565209 -0.058764625 -0.12984365 0.18881331 -0.22647166 -0.2045582
0.20794392 0.07627442 -0.07628496 0.1030768 0.015679453 0.17592299 -0.14563353 0.107152365
-0.0698758 -0.10615011 -0.02829541 -0.06455212 0.117418095 -0.0021165707 -0.37290585 -0.015640356
0.22923331 0.022558674 -0.06151662 0.11454845 0.15886961 0.11050896 -0.20051007 -0.10775827
0.057913654 0.0008594455 -0.0742304 -0.15076166 0.13612726 -0.12561469 -0.034464113 0.10359306
00000000: fc55 4f3e 6496 10be 6004 8abe 485c 2abd
00000010: ea74 16bd 537f f9bd 2370 803b 2a41 c8bd
00000020: 7892 e6bd 413d 5ebd e05e b1bd 03be 34bd
00000030: a658 c63d 78f2 3d3c 244a f3bd 938b 9cbd
00000040: ef93 80bd d9cd 89bd cd72 443e aebc 8bbc
00000050: 48f6 843d 2a65 263e 35fd a43d d672 69bd
00000060: b567 0ebe 3f80 f3bd 5b15 f23d cd12 9c3d
00000070: 7cf1 ce3d bac7 733d 5c31 9dbc d7f2 a5bd
00000080: 8f27 8abd 3d29 aa3d e37b 13be 4400 f23b
00000090: 4e11 87bd 8570 e1bd 4307 0d3d 9110 a53d
000000a0: 539b 57bc e0bf e93c ff3c bfbd be7f 90bc
000000b0: a549 693e b6a0 413e e031 0abe 13d9 3a3d
000000c0: 8b95 5cbd 0aa9 16bd a649 b7bd 21d3 573e
000000d0: a4d4 e23c 809e b4bd 437b 693d 8484 46bd
000000e0: 5780 27be 2e9c 96bd e597 b4bc b941 a83d
000000f0: e4c9 0bbe ff23 9e3e 1d47 18bd 8212 d5bd
00000100: dfa7 003e b247 803c 19a4 35bc 4334 83be
00000110: c398 c8bc 71f3 59be ebf8 5fbe 6de2 5bbe
00000120: 49fe 313c d6e9 6c3d 5912 17bd d454 613d
00000130: 6313 46be f72a a2be e373 b13e b532 d5bd
00000140: 2552 51bd d5a7 92bd 6d20 8dbc d4fc 2fbe
00000150: 6d07 0bbe feb8 e3bc b0a1 afbe ed11 b3bd
00000160: a881 cdbc 1c18 03be 60cf 8ebe fae8 63be
00000170: 21da c0bc 6263 7fbe 8743 58ba efbe 15be
00000180: 688a 21bd dd65 b8be 2b19 623e 9255 8ebd
00000190: 12a3 43be ad2d 87be 8ef9 043d 69aa 52bd
000001a0: fb8b 2fbd 5b70 5abe 29aa 10bd def4 93be
000001b0: a173 f1bd 766b 49be 8278 4cbe 67f8 c13d
000001c0: 58fa 3cbe c182 0e3c 249f d0bb cd6a 3abc
000001d0: 3435 8dbe 05ac 0bbe d154 5cbe 22d1 35be
000001e0: 7509 5ebe 8a36 10bd 7b90 b6bd 7b3a 053e
000001f0: b9c5 85bd 242a edbd 282c 39be e966 32be
00000200: 5cff 883d 9b56 aabd b6db 76be e7d0 8b3e
00000210: 9088 063e a759 443e ed10 c8b6 656e 8d3e
00000220: 5135 abbd 17f9 453d 02a0 d83d 7828 0abe
00000230: a084 19be fb2a 0fbe 7ce1 d03c cddd f33d
00000240: c1fd a93b 2879 2d3e b256 cdbd 6f45 1f3e
00000250: 888d cabb 8380 27bc 4b2b d8bd 66dc e0be
00000260: 5ca4 c33d 8675 12bc 5d6a afbd 2db3 70bd
00000270: bcf5 04be 4758 413e 30e8 67be b477 51be
00000280: 40ef 543e c335 9c3d 4a3b 9cbd ee19 d33d
00000290: 3272 803c 2825 343e f520 15be b372 db3d
000002a0: 0b1b 8fbd 3b65 d9bd c7cb e7bc e733 84bd
000002b0: e678 f03d 2ab6 0abb 84ed bebe 3420 80bc
000002c0: 23bc 6a3e f8cc b83c daf8 7bbd 6198 ea3d
000002d0: b7ae 223e 8652 e23d 8352 4dbe 5eb0 dcbd
000002e0: de36 6d3d 694c 613a 1c06 98bd 4461 1abe
000002f0: f264 0b3e 23a1 00be 3e2a 0dbd 9928 d43d

rnn.bias_hh f4 [192]
0.12511578 -0.15644048 -0.10426924 0.0065316157 0.0114771 -0.20986289 0.059476305 -0.04779317
-0.17403339 -0.20327857 -0.0794751 0.040891413 0.061098155 0.085068434 0.05024574 0.06126135
0.014800661 0.056546953 0.114924945 -0.026057912 0.1695627 -0.019591529 0.15250443 -0.11961671
-0.18432559 -0.19380061 -0.0009817338 0.007260705 0.043164983 0.012019347 -0.008354492 -0.07886767
-0.114363335 0.20766795 -0.12567422 -0.050354637 0.07243519 -0.04706523 0.17685507 0.029567152
-0.10947922 -0.09293629 -0.078516304 0.18685593 0.03186797 0.0899013 -0.17662948 0.09481612
-0.13744067 0.13574609 -0.045832865 0.18447556 0.07919875 -0.047897562 0.080182716 0.049700387
-0.025051823 0.10449256 0.117070764 0.026666725 -0.0878831 0.13101067 0.0427843 -0.21170418
0.08511022 -0.21138169 0.05086797 -0.3220791 -0.20169185 -0.2701058 -0.22603863 -0.016505364
-0.033777393 -0.07488238 -0.06875269 -0.044779122 -0.02833478 -0.12888616 0.41823995 -0.18705624
0.061620068 -0.10475808 -0.044446822 -0.18626904 -0.077341855 -0.10299942 -0.4182231 -0.07397557
0.03727703 -0.18571569 -0.11539517 -0.34008288 -0.08434674 -0.2364451 0.05438833 -0.15278007
-0.14228448 -0.27622092 0.15378064 0.06613345 -0.093815506 -0.22927496 -0.047380496 -0.16539678
-0.05925928 -0.24368328 -0.016874267 -0.19522771 -0.06448992 0.035319675 -0.40812403 0.06193781
-0.25583056 -0.101647146 -0.008975639 -0.021048713 -0.30986303 -0.16414486 -0.089396514 -0.25738546
-0.041669585 -0.12376653 -0.05151462 0.09092143 0.047064774 -0.068981424 0.03505251 -0.03452617
-0.28600195 0.045496326 0.01966804 0.050917104 0.13745643 0.068890825 0.08065543 -0.2215152
-0.039740887 -0.18413901 -0.18931423 -0.17878538 0.21530221 0.42685425 -0.03285808 0.19017026
0.08064726 -0.1311206 0.17924473 -0.0073636523 0.23850895 0.34405842 -0.15353727 0.225663
-0.036547154 -0.07612722 -0.45041952 0.009702534 0.068971604 0.0809778 0.384677 0.2101534
-0.19424546 -0.23572363 -0.068923384 0.08731351 -0.11538068 0.029888252 -0.047469903 -0.016293958
0.06956494 0.0050606146 0.18744731 0.09574662 -0.029634358 -0.29599276 0.5106063 -0.04112698
-0.050125457 0.010094586 0.13256371 -0.12293454 -0.067347646 -0.022772577 0.10213018 -0.012251972
-0.29888314 0.2083728 -0.026859453 -0.051067695 0.049844403 -0.06197 -0.14571095 -0.028673198
00000000: 5a1e 003e ef31 20be 1c8b d5bd 2a07 d63b
00000010: 720a 3c3c 4ce6 56be 6d9d 733d c5c2 43bd
00000020: cf35 32be 4228 50be d7c3 a2bd c17d 273d
00000030: 0f42 7a3d 5c38 ae3d 7ace 4d3d 2eed 7a3d
00000040: 797e 723c c79d 673d c55d eb3d 6777 d5bc
00000050: d8a1 2d3e 6a7e a0bc 1f2a 1c3e 9bf9 f4bd
00000060: d9bf 3cbe ab73 46be 85ad 80ba 35eb ed3b
00000070: c4cd 303d ccec 443c 47e1 08bc 5f85 a1bd
00000080: 5337 eabd e8a6 543e beb0 00be aa40 4ebd
00000090: e758 943d 78c7 40bd 7f19 353e d036 f23c
000000a0: a436 e0bd 6255 bebd 28cd a0bd 2957 3f3e
000000b0: fd87 023d 2c1e b83d 5cde 34be f42e c23d
000000c0: 3fbd 0cbe 0601 0b3e 3ebb 3bbd 29e7 3c3e
000000d0: f432 a23d 3c30 44bd d636 a43d a292 4b3d
000000e0: 7b39 cdbc 3200 d63d ccc2 ef3d 2d74 da3c
000000f0: 0efc b3bd a927 063e 973e 2f3d fbc8 58be
00000100: 444e ae3d 7174 58be ef5a 503d 8de7 a4be
00000110: 4f88 4ebe 4f4b 8abe ac76 67be 4236 87bc
00000120: 2a5a 0abd ef5b 99bd 36ce 8cbd 506a 37bd
00000130: 571e e8bc bcfa 03be 8c23 d63e ac8b 3fbe
00000140: 5365 7c3d 678b d6bd df0d 36bd 50bd 3ebe
00000150: 6865 9ebd 5cf1 d2bd 5721 d6be 8180 97bd
00000160: cdaf 183d 412c 3ebe 4e54 ecbd 581f aebe
00000170: fcbd acbd aa1e 72be 4cc6 5e3d 6172 1cbe
00000180: 06b3 11be d46c 8dbe ac78 1d3e f970 873d
00000190: 5822 c0bd 0ec7 6abe 0d12 42bd c65d 29be
000001a0: dcb9 72bd 1c88 79be e73b 8abc c6e9 47be
000001b0: 4b13 84bd 5dab 103d a2f5 d0be 80b2 7d3d
000001c0: 39fc 82be 612c d0bd 8f0e 13bc 5a6e acbc
000001d0: 5ea6 9ebe 9715 28be 8515 b7bd 07c8 83be
000001e0: baad 2abd 4e79 fdbd ff00 53bd 0435 ba3d
000001f0: fec6 403d 2246 8dbd 3993 0f3d 506b 0dbd
00000200: d96e 92be 5b5a 3a3d df1e a13c 748e 503d
00000210: 61c1 0c3e a216 8d3d ad2e a53d e1d4 62be
00000220: 57c7 22bd f08e 3cbe 97db 41be 8413 37be
00000230: 2f78 5c3e a48c da3e 3296 06bd febb 423e
00000240: 642a a53d 7b44 06be ee8b 373e cb4a f1bb
00000250: b13b 743e 6d28 b03e e038 1dbe 3414 673e
00000260: 78b2 15bd 97e8 9bbd 639d e6be 61f7 1e3c
00000270: fc40 8d3d b0d7 a53d 62f4 c43e 7432 573e
00000280: 48e8 46be 8961 71be b427 8dbd 6dd1 b23d
00000290: b54c ecbd 35d8 f43c cd6f 42bd e87a 85bc
000002a0: 1078 8e3d 83d3 a53b 30f2 3f3e ce16 c43d
000002b0: c1c3 f2bc 5d8c 97be 18b7 023f c474 28bd
000002c0: 5a50 4dbd c363 253c c8be 073e 1bc5 fbbd
000002d0: 90ed 89bd 8e8d babc a129 d13d 7fbc 48bc
000002e0: 3607 99be ae5f 553e 5b08 dcbc 5c2c 51bd
000002f0: a529 4c3d 41d4 7dbd 4035 15be 0ee4 eabc

phi.weight f4 [64, 8]
-0.21940772 -0.110321164 -0.22936401 0.24682455 0.09412871 0.0491757 0.17949925 -0.15890063
0.099150896 0.16513976 -0.03023541 0.004633667 0.050370738 -0.036521554 0.04119859 -0.029196272
0.027231753 -0.6326647 0.27191928 0.06602371 0.15966004 -0.09250216 -0.046607744 -0.08894172
0.22313198 0.26579642 -0.20604523 0.100184016 -0.12370858 0.07911592 -0.0680973 0.046543676
0.50797504 -0.26332116 0.15976273 -0.067511395 0.04720116 -0.046380296 0.009500094 -0.031072207
0.5452798 -0.053044837 0.006792857 0.0029417605 -0.0051372033 -0.00094383146 -0.0012278933 -0.0030635889
-0.0010169356 -0.12603964 0.03452345 -0.0412707 0.012652039 -0.027975077 0.0019924825 -0.013664528
0.029104758 0.5054373 0.3082837 0.1806343 0.016214294 -0.015758613 -0.06904916 -0.10090623
-0.0098497365 -0.36447856 0.16036633 0.23100117 0.146807 -0.008328481 -0.0552967 -0.02668629
0.55943465 -0.08643571 -0.0039168666 -0.033512376 -0.0040355995 -0.013067067 -0.00012325821 -0.009943854
0.2756436 -0.10430474 0.012856334 -0.025737584 0.0011892415 -0.010115474 0.0012820587 -0.007867953
0.28295043 -0.09128065 -0.03944433 -0.042740546 -0.039785665 -0.03473144 -0.029977253 -0.019703824
0.096759014 -0.07074777 0.00516338 -0.034236487 0.0005397164 -0.013949539 0.0018489669 -0.0051768515
0.18546642 0.034942284 -0.012976717 0.014434316 -0.028854663 -0.004354433 -0.013531522 -0.0003478412
0.094757855 0.16180775 0.29237747 -0.09989262 0.16929208 0.21577913 -0.05415559 -0.091317005
0.29410726 -0.0557296 0.008116359 -0.014200763 0.009559155 -0.007674378 0.007526781 -0.0050727534
0.4025975 -0.14365408 0.056159683 -0.026810404 0.019205349 0.0074776895 -0.0012308923 0.00076711696
-0.10132073 -0.0012480152 0.005475669 0.0052444343 0.0040506404 0.0005911738 -0.00511527 0.0007102443
-0.039747305 -0.120290354 0.082274586 0.22721086 0.565781 -0.17791961 0.19117945 -0.40065274
0.41577896 0.57368326 -0.21569256 -0.0015388584 0.059918214 -0.037289973 0.038741082 -0.03593354
-0.26169834 -0.29089758 -0.13102281 -0.09251178 0.0044913995 0.012443248 0.021662684 0.001840924
0.4368245 -0.0014000803 -0.0097571965 -0.0145307295 0.0002643156 0.0016404365 0.0063724886 0.005931893
-0.16091253 -0.5387009 0.24794616 -0.113407 0.16376631 -0.09702196 0.038578965 -0.081173874
0.55992883 -0.24511491 -0.010807636 -0.061931726 -0.01628879 -0.02823985 0.0027979743 -0.011244233
0.47385776 -0.13755228 -0.029571716 -0.052191466 0.008033364 -0.02695389 -0.0037904067 -0.014556215
0.22037882 -0.299254 0.06545147 -0.103975564 0.04079302 -0.05602787 0.020787891 -0.040010564
0.4164458 -0.11473686 0.027826004 -0.029111609 0.017026996 -0.022500176 0.0055460692 -0.0134219
-0.009147886 0.07047619 -0.012001515 0.02364611 0.0007524523 0.0026505024 0.0024254827 0.006362716
-0.39075163 0.04562046 -0.20973355 0.06205628 -0.04015514 -0.033981364 -0.074690446 -0.13878323
0.13145028 -0.16009565 -0.037832536 -0.044011187 -0.016796768 -0.025846688 -0.00433606 -0.012836946
0.27160344 -0.2799763 0.43102744 -0.12991992 0.26108688 0.13664538 0.044958252 -0.14181305
0.042946175 0.25821355 -0.0058454 -0.3618358 -0.09405286 -0.08519968 0.27516332 -0.38602093
00000000: 6bac 60be 10f0 e1bd 66de 6abe 93bf 7c3e
00000010: 8ec6 c03d 756c 493d a7ce 373e d9b6 22be
00000020: a00f cb3d 661a 293e 40b0 f7bc 04d6 973b
00000030: 8c51 4e3d a097 15bd dabf 283d 052d efbc
00000040: 2015 df3c 50f6 21bf 0139 8b3e 7037 873d
00000050: ec7d 233e c671 bdbd c3e7 3ebd 1427 b6bd
00000060: b67c 643e 7816 883e 85fd 52be 472d cd3d
00000070: ed5a fdbd 8707 a23d 9976 8bbd 95a4 3e3d
00000080: a70a 023f 08d2 86be d798 233e 6a43 8abd
00000090: 0156 413d 44f9 3dbd 48a6 1b3c 248b febc
000000a0: 7597 0b3f 8b45 59bd 9d96 de3b 8dca 403b
000000b0: fc55 a8bb 756b 77ba 43f1 a0ba 7ec6 48bb
000000c0: b24a 85ba 8910 01be 7668 0d3d 770b 29bd
000000d0: 7f4a 4f3c fd2b e5bc 4f94 023b 2fe1 5fbc
000000e0: 1a6d ee3c 5764 013f 5cd7 9d3e 33f8 383e
000000f0: d7d3 843c 3518 81bc a569 8dbd eda7 cebd
00000100: ca60 21bc ef9c babe 1237 243e 928b 6c3e
00000110: 9354 163e 2e74 08bc cb7e 62bd 359d dabc
00000120: 1c37 0f3f 3505 b1bd 0f59 80bb 4644 09bd
00000130: 103d 84bb 4017 56bc e03e 01b9 8ceb 22bc
00000140: 2821 8d3e b99d d5bd 60a3 523c a0d7 d2bc
00000150: 53e0 9b3a 60bb 25bc c00a a83a 96e8 00bc
00000160: e1de 903e 59f1 babd 6190 21bd b610 2fbd
00000170: 4bf6 22bd 8e42 0ebd db92 f5bc ea69 a1bc
00000180: 9729 c63d 35e4 90bd 9231 a93b 8f3b 0cbd
00000190: c17b 0d3a 9b8c 64bc 0959 f23a 94a2 a9bb
000001a0: e9ea 3d3e a41f 0f3d 4c9c 54bc e97d 6c3c
000001b0: 9d60 ecbc a2af 8ebb 51b3 5dbc 755e b6b9
000001c0: 6810 c23d eeb0 253e 80b2 953e 8194 ccbd
000001d0: e75a 2d3e 34f5 5c3e 40d2 5dbd 6904 bbbd
000001e0: 3a95 963e b944 64bd 7afa 043c 51aa 68bc
000001f0: 019e 1c3c 5979 fbbb 37a3 f63b 5739 a6bb
00000200: 4221 ce3e 0e1a 13be b207 663d 7ea1 dbbc
00000210: 8954 9d3c 6807 f53b e455 a1ba 5918 493a
00000220: 3e81 cfbd 7194 a3ba 3e6d b33b 81d9 ab3b
00000230: 3cbb 843b 01f9 1a3a ff9d a7bb b02f 3a3a
00000240: 12ce 22bd ca5a f6bd 947f a83d f7a9 683e
00000250: 06d7 103f 8f30 36be 8cc4 433e 5b22 cdbe
00000260: fbe0 d43e e8dc 123f 83de 5cbe 85b3 c9ba
00000270: cd6c 753d 5fbd 18bd f8ae 1e3d 0c2f 13bd
00000280: 53fd 85be 87f0 94be d82a 06be d176 bdbd
00000290: 972c 933b c4de 4b3c f175 b13c 294b f13a
000002a0: 76a7 df3e e682 b7ba a6dc 1fbc 4c12 6ebc
000002b0: d793 8a39 ea03 d73a 4fd0 d03b 5360 c23b
000002c0: 41c6 24be 4de8 09bf 99e5 7d3e ee41 e8bd
000002d0: 5bb2 273e 73b3 c6bd fa04 1e3d 7d3e a6bd
000002e0: 7f57 0f3f 67ff 7abe 8312 31bc 1fac 7dbd
000002f0: 1270 85bc 4257 e7bc 385e 373b bb39 38bc
00000300: 7c9d f23e 81da 0cbe 6240 f2bc b8c6 55bd
00000310: 5f9e 033c 68ce dcbc 7968 78bb 317d 6ebc
00000320: fcaa 613e d237 99be 6c0b 863d 24f1 d4bd
00000330: 9516 273d 7b7d 65bd 5e4b aa3c 1ee2 23bd
00000340: 6238 d53e 29fb eabd 5cf3 e33c 787b eebc
00000350: 337c 8b3c 4a52 b8bc cdbb b53b 87e7 5bbc
00000360: 04e1 15bc d255 903d 01a2 44bc 7db5 c13c
00000370: 3840 453a 0db4 2d3b d9f4 1e3b 557e d03b
00000380: 9910 c8be 85dc 3a3d 64c4 56be ba2e 7e3d
00000390: b779 24bd 0b30 0bbd 4ef7 98bd 311d 0ebe
000003a0: e79a 063e 1df0 23be 4af6 1abd 1345 34bd
000003b0: 6099 89bc 6fbc d3bc 8215 8ebb 0e52 52bc
000003c0: 9b0f 8b3e 0e59 8fbe a1af dc3e ba09 05be
000003d0: 2ead 853e c4ec 0b3e 2526 383d 7137 11be
000003e0: 54e8 2f3d 9134 843e c58a bfbb 8b42 b9be
000003f0: c99e c0bd 2b7d aebd 35e2 8c3e 89a4 c5be

phi.bias f4 [64]
-0.33793792 0.052460622 0.336235 0.45922428 0.1953501 0.43545616 0.37480494 0.5077953
0.0006874282 0.4144868 0.21295165 -0.031038001 0.5974166 0.6020902 -0.34307757 0.3766148
0.35039195 0.418851 -0.47624427 0.22571872 0.23670727 -0.19031337 0.41805908 0.2979869
0.2677265 0.3696286 0.40055975 0.14551756 0.17970067 0.6298624 -0.16893363 -0.34736687
0.2804358 -0.09548585 0.5649643 0.19795601 0.33976465 -0.3253065 0.08976508 -0.034241755
0.3852078 0.14387259 -0.11945287 -0.21375059 0.22673145 0.20695469 0.3651096 -0.058452144
0.2978229 -0.21688837 0.06756127 0.1772393 0.38664484 0.3997563 -0.2733683 0.49031332
0.43308175 -0.30163693 0.20083676 -0.33517814 0.43935296 -0.06965131 0.059387676 0.23909065
00000000: 3306 adbe f3e0 563d fe26 ac3e 721f eb3e
00000010: db09 483e 1cf4 de3e 6fe6 bf3e dffe 013f
00000020: 8734 343a 9d37 d43e ff0f 5a3e 6843 febc
00000030: 4bf0 183f 9522 1a3f dda7 afbe a8d3 c03e
00000040: 9366 b33e a373 d63e 4ad6 f3be cf22 673e
00000050: 6463 723e 82e1 42be d70b d63e bd91 983e
00000060: 7313 893e f63f bd3e 2b16 cd3e 8e02 153e
00000070: 7403 383e aa3e 213f f0fc 2cbe 12da b1be
00000080: 4895 8f3e 168e c3bd 80a1 103f fbb4 4a3e
00000090: a2f5 ad3e 938e a6be c1d6 b73d 1541 0cbd
000000a0: f539 c53e 5653 133e b5a3 f4bd 6fe1 5abe
000000b0: 4a2c 683e eeeb 533e a5ef ba3e 846b 6fbd
000000c0: 3e7c 983e fc17 5ebe 905d 8a3d 387e 353e
000000d0: 50f6 c53e dcac cc3e eef6 8bbe 590a fb3e
000000e0: e4bc dd3e 2870 9abe 27a8 4d3e 789c abbe
000000f0: dff2 e03e 59a5 8ebd 7e40 733d 2ed4 743e

g.weight f4 [12, 64]
0.012296389 0.06670744 -0.058300596 0.009129858 -0.023802683 0.004713954 -0.20618054 -0.083546236
0.025004186 -0.012287772 0.01669349 0.05958489 0.076691 -0.057764117 0.040326063 -0.17285924
-0.09648659 0.29143086 0.011554024 0.03533468 -0.11603294 0.047041286 0.005789935 0.44866005
0.09159503 -0.21494277 -0.009926727 0.16102888 0.13093789 0.07779886 -0.00089256704 0.01535216
-0.22653203 0.01329124 -0.24158305 0.06337999 -0.005346269 -0.6843852 0.034753717 0.13499507
-0.03251464 0.04406589 0.049264938 -0.108998016 -0.023106037 0.0016822494 0.09483422 0.0054123346
-0.12297709 -0.054516852 -0.041562155 0.009714341 0.11095205 0.06496056 -0.0067637623 -0.08655928
0.08798821 -0.04709505 -0.09747504 -0.70622367 -0.026765933 0.057217672 0.08503266 0.23657705
-0.038209412 -0.2387028 -0.21392137 0.25694054 0.26815817 0.2742192 -0.002226735 0.1141453
-0.1937951 0.2861572 0.22191592 -0.21936856 0.015733484 0.21074274 -0.10680496 -0.1815433
-0.17718197 0.027994413 -0.086838044 0.24317148 0.15015869 0.058523215 -0.08782841 -0.09796603
0.16871865 -0.13294542 -0.14164506 0.052379623 0.10107425 0.08925395 -0.025109375 -0.03268863
0.040450342 0.12644772 0.022382757 0.005754766 -0.2028982 -0.35817954 -0.16004172 0.09060508
-0.19170907 -0.22519866 0.12655728 -0.18531139 -0.0746776 -0.13138562 -0.17083234 0.07390608
0.018619744 0.021563696 0.11697984 0.11288455 0.0004012376 0.23840047 -0.11804191 -0.31651226
0.2003665 0.13677463 -0.09651595 0.9939135 0.08638938 0.114279315 0.10021991 0.19712462
-0.14133883 -0.09933752 -0.18396285 0.22511393 0.3035835 0.33263138 0.042390432 0.0538168
-0.11033735 0.31513062 0.2885814 -0.09650481 -0.008597157 0.13072109 -0.21007757 -0.16908088
-0.16779967 -0.010563338 -0.101221725 0.27219936 -0.050140515 -0.04088325 -0.09676685 -0.031417858
0.13477604 -0.09391068 -0.15988897 -0.0457714 0.10386615 -0.07284913 -0.046357065 -0.042238664
0.122362845 0.19744024 -0.044706587 0.1701936 -0.23333316 0.42678303 -0.2693688 0.018949853
-0.17398058 -0.3047321 0.061456047 -0.08914951 -0.093435585 -0.03126987 -0.11079445 0.020654127
-0.042888477 -0.045235727 0.06084671 0.14126721 -0.0016208657 0.25838408 -0.059194442 -0.2848107
0.2054621 0.12151811 -0.16310742 0.8666533 0.13513537 -0.04177359 0.18269444 0.047141343
0.111753665 -0.14580536 -0.16087312 0.2095267 0.21485172 0.23318082 -0.0012714854 0.010083617
-0.30132878 0.32813394 0.15814115 -0.2003956 0.012377443 0.21592 0.034643468 -0.11893127
-0.16688323 0.013430462 -0.13295281 0.23077941 -0.011470968 0.049853988 -0.12271519 -0.15261827
0.16472065 -0.19578207 -0.2398897 -0.013772532 0.2070591 -0.021031827 -0.028890144 -0.043543212
0.08737353 0.20424557 0.18379909 -0.018065428 -0.22081919 0.8472494 -0.041701406 0.04822257
-0.1440856 -0.072817266 0.210753 -0.23267235 -0.1608999 -0.08851301 -0.04014274 0.008742889
-0.26690143 -0.009708872 0.04529273 0.09882633 0.05847257 0.25307018 -0.12790503 -0.34751064
0.19734505 0.11370318 -0.04919083 0.5023279 0.14431357 -0.04898667 -0.031208871 0.1357429
00000000: cb76 493c e99d 883d 9bcc 6ebd 6695 153c
00000010: d8fd c2bc 8377 9a3b fe20 53be 4a1a abbd
00000020: 94d5 cc3c a752 49bc c9c0 883c 490f 743d
00000030: 2c10 9d3d 119a 6cbd f12c 253d 0302 31be
00000040: c39a c5bd 6d36 953e 174d 3d3c 19bb 103d
00000050: aea2 edbd 5dae 403d 7fb9 bd3b c5b6 e53e
00000060: 2d96 bb3d f519 5cbe b6a3 22bc c1e4 243e
00000070: 9514 063e 0255 9f3d 29fb 69ba a087 7b3c
00000080: 03f8 67be 80c3 593c 8c61 77be 5ecd 813d
00000090: c12f afbb de33 2fbf ea59 0e3d 263c 0a3e
000000a0: 122e 05bd 6f7e 343d 08ca 493d 5a3a dfbd
000000b0: df48 bdbc ec7e dc3a 7238 c23d f459 b13b
000000c0: 6adb fbbd 104d 5fbd 143d 2abd e628 1f3c
000000d0: d43a e33d 0b0a 853d 8da2 ddbb fe45 b1bd
000000e0: 2a33 b43d bde6 40bd fea0 c7bd 13cb 34bf
000000f0: 3b44 dbbc 145d 6a3d 9a25 ae3d 4141 723e
00000100: 7981 1cbd 826e 74be 340e 5bbe b68d 833e
00000110: 074c 893e 7566 8c3e 6aee 11bb 03c5 e93d
00000120: 3972 46be 3283 923e ed3d 633e 27a2 60be
00000130: 82e3 803c f2cc 573e 8fbc dabd 7de6 39be
00000140: 316f 35be 8a54 e53c 25d8 b1bd f201 793e
00000150: 33c3 193e 0ab6 6f3d 62df b3bd 6aa2 c8bd
00000160: 95c4 2c3e d822 08be 670b 11be 048c 563d
00000170: 0400 cf3d c6ca b63d 2db2 cdbc 83e4 05bd
00000180: 42af 253d 837b 013e 0b5c b73c 7a92 bc3b
00000190: 8cc4 4fbe 4f63 b7be fae1 23be 288f b93d
000001a0: 624f 44be 7a9a 66be 3b98 013e 45c2 3dbe
000001b0: 92f0 98bd f489 06be acee 2ebe 125c 973d
000001c0: 6f88 983c 59a6 b03c 2093 ef3d 0430 e73d
000001d0: 335d d239 411f 743e f5bf f1bd e50d a2be
000001e0: e02c 4d3e a60e 0c3e 28aa c5bd 1d71 7e3f
000001f0: eaec b03d 460b ea3d 1940 cd3d 09db 493e
00000200: 20bb 10be 7871 cbbd c260 3cbe 4484 663e
00000210: 4c6f 9b3e a94e aa3e 97a1 2d3d 016f 5c3d
00000220: 8cf8 e1bd cd58 a13e f1c0 933e 50a4 c5bd
00000230: 17db 0cbc c0db 053e 931e 57be 8a23 2dbe
00000240: add3 2bbe da11 2dbc 564d cfbd b75d 8b3e
00000250: 2460 4dbd 3275 27bd b32d c6bd 03b0 00bd
00000260: bb02 0a3e 3e54 c0bd efb9 23be cb7a 3bbd
00000270: c7b7 d43d ed31 95bd e8e0 3dbd 7302 2dbd
00000280: 5f99 fa3d c62d 4a3e 411e 37bd 3b47 2e3e
00000290: e3ee 6ebe 4e83 da3e b5ea 89be b93c 9b3c
000002a0: f727 32be d905 9cbe 56b9 7b3d 0594 b6bd
000002b0: 285b bfbd d614 00bd 33e8 e2bd d832 a93c
000002c0: d4ab 2fbd 1949 39bd 663a 793d 5aa8 103e
000002d0: 3a73 d4ba eb4a 843e df75 72bd b5d2 91be
000002e0: a864 523e 7dde f83d a205 27be fedc 5d3f
000002f0: ed60 0a3e c91a 2bbd 4014 3b3e 4817 413d
00000300: 1bdf e43d 004e 15be ecbb 24be 2b8e 563e
00000310: 1702 5c3e f4c6 6e3e f8a7 a6ba c135 253c
00000320: c447 9abe 2c01 a83e c1ef 213e 8134 4dbe
00000330: c2ca 4a3c 221a 5d3e 4fe6 0d3d 3d92 f3bd
00000340: 70e3 2abe 710b 5c3c c824 08be 7051 6c3e
00000350: baf0 3bbc b233 4c3d 1a52 fbbd f747 1cbe
00000360: 88ac 283e 187b 48be a5a5 75be 30a6 61bc
00000370: 4d07 543e f04a acbc 06ab ecbc 5e5a 32bd
00000380: e5f0 b23d c025 513e d435 3c3e f3fd 93bc
00000390: 6d1e 62be 56e5 583f 18cf 2abd 0885 453d
000003a0: 2d8b 13be 3821 95bd a2cf 573e a941 6ebe
000003b0: f2c2 24be 4f46 b5bd b76c 24bd 563e 0f3c
000003c0: 4ea7 88be f611 1fbc df84 393d 7565 ca3d
000003d0: ef80 6f3d 6a92 813e 89f9 02be eaec b1be
000003e0: d214 4a3e 36dd e83d 537c 49bd 9098 003f
000003f0: f0c6 133e 3fa6 48bd bfa9 ffbc 3000 0b3e

g.bias f4 [12]
0.07220236 0.06664149 0.05576152 0.07619497 0.15670286 0.13930355 0.15620083 0.06957288
0.19001204 0.19041817 0.23217924 0.20471154
00000000: d5de 933d 557b 883d 3166 643d 1c0c 9c3d
00000010: b776 203e 97a5 0e3e 1cf3 1f3e 3a7c 8e3d
00000020: 8492 423e fbfc 423e 65c0 6d3e e79f 513e
