model/ddn/5m_vs_6m/17_rnn_net_params.pkl (torch, 126663 bytes, 10 tensors)

fc_obs.weight f4 [64, 72]
-0.13268891 -0.12916815 -0.18220946 -0.2005846 -0.02532612 -0.031419452 -0.027063519 -0.099294655
-0.16049458 -0.029325346 0.08406543 0.08373738 0.7057098 0.03538854 -0.07257338 -0.04936516
0.03842069 0.4939219 0.099019326 -0.12462022 0.12774356 0.016667409 1.2841043 -0.20262979
0.07455453 -0.03943934 0.008230146 0.28099784 0.027700862 -0.096469276 0.06342762 -0.0680493
0.29850477 0.16909617 -0.055085134 0.6099743 0.88180524 0.30676654 0.372645 -0.21626852
0.6828241 1.1003485 0.08687618 0.1603494 -0.13601321 0.6780022 0.97753423 0.678065
0.118183814 -0.18317378 0.124280006 0.41392878 0.29476553 0.17328705 -0.093187466 -0.06016347
0.05861683 -0.26979163 -0.079807594 0.11081248 0.06397263 -0.21104422 -0.11496213 0.01522058
-0.14176722 -0.067057885 0.08174076 -0.16183677 -0.044782653 0.008066964 0.13786344 -0.026640376
0.14320159 0.023397915 0.11468658 0.036087062 -0.00069939817 -0.09198405 0.06862647 0.34359288
0.25269035 0.21993099 0.17444667 0.1316854 -0.042353053 -0.10295758 -0.10081705 -0.20967032
-0.051578846 0.14609212 0.67431116 -0.08530477 -0.04598612 0.09303694 0.05297309 0.10012998
0.3272903 -0.004020471 0.025468143 0.06869539 -0.27448025 0.09950892 -0.019247863 0.18283735
-0.2783641 -0.092563316 -0.31614494 0.09305872 0.08653712 0.043778405 0.016375924 -0.3072997
-0.07357375 -0.09946754 0.055142786 -0.018424124 -0.19149642 -0.22312172 -0.4641714 -0.15526314
0.049391445 -0.26184216 -0.11530313 -0.4859112 0.2449414 -0.0037126034 -0.19637732 -0.19815367
0.11973777 0.014912188 0.12293134 0.12788837 0.08184861 0.25400984 0.3387262 0.06909379
-0.014795716 0.18793751 0.31089544 0.11825788 0.017523756 0.03365973 -0.090950586 -0.033332422
-0.251718 -0.282682 -0.0896642 -0.09255429 -0.2425979 0.19985622 0.310423 -0.2024502
-0.17199437 -0.19392024 -0.10367555 0.24726504 -0.14064045 0.085721515 -0.47353196 -0.39987344
-0.12145994 -0.3079756 -0.0999915 -0.34488198 0.07351592 0.06423828 -0.3940027 0.015027474
0.008701948 0.026159093 0.09692408 -0.15230882 0.11330423 0.046927903 0.27396932 0.16395982
-0.7445673 -0.048642226 -0.12074119 -0.102801 0.19093077 0.030981923 0.240374 0.014362128
0.27868575 0.021706106 0.2446972 0.16818725 -0.021805204 0.27404857 0.034579583 0.24445623
0.23587105 0.008640749 0.08966027 -0.06598601 0.3244746 0.28277206 0.24947111 -0.09558102
0.074914336 0.22456136 0.27612558 -0.283389 0.049695723 -0.7049678 0.050648056 0.06551013
-0.17835341 0.29175255 0.45097095 0.008760607 -0.4214324 -0.3815591 -0.13985625 -0.2009209
-0.28263924 -0.09460315 -0.11478115 -0.11029529 -0.16620252 0.067941085 0.10817508 -0.35307556
-0.11351867 -0.115718015 0.18479806 0.21756507 -0.46805334 -0.2956953 0.0150917275 -0.16638404
0.10927762 0.059067737 0.4552519 -0.119439796 0.05290851 0.22824377 0.14675477 0.12866607
-0.0084155 -0.1844713 -0.09896936 -0.5012538 -0.4700453 0.014387211 0.027677309 0.13596117
0.30299327 0.040316552 0.084468216 -0.07487952 0.27437338 -0.098818965 0.17345735 -0.06451611
00000000: 9adf 07be a844 04be 1e95 3abe 0d66 4dbe
00000010: b978 cfbc afb1 00bd 50b4 ddbc ff5a cbbd
00000020: b158 24be b53b f0bc 7f2a ac3d 817e ab3d
00000030: 66a9 343f 93f3 103d 5aa1 94bd 1f33 4abd
00000040: 035f 1d3d 55e3 fc3e a5ca ca3d e338 ffbd
00000050: 35cf 023e 178a 883c 885d a43f 2f7e 4fbe
00000060: 0cb0 983d 258b 21bd bcd7 063c f3de 8f3e
00000070: ebec e23c af91 c5bd 57e6 813d 6e5d 8bbd
00000080: 9ed5 983e 8c27 2d3e f3a0 61bd 4727 1c3f
00000090: fdbd 613f 8110 9d3e 53cb be3e 7f75 5dbe
000000a0: 8fcd 2e3f 38d8 8c3f 23ec b13d a232 243e
000000b0: 0c47 0bbe 8d91 2d3f af3f 7a3f ab95 2d3f
000000c0: 5b0a f23d e891 3bbe 8486 fe3d 79ee d33e
000000d0: 82eb 963e 2972 313e 12d9 bebd f96d 76bd
000000e0: 3318 703d 2122 8abe 2a72 a3bd a7f1 e23d
000000f0: 1504 833d fa1b 58be 4471 ebbd bd5f 793c
00000100: 6d2b 11be a555 89bd b367 a73d 8ab8 25be
00000110: 046e 37bd 4d2b 043c 132c 0d3e eb3c dabc
00000120: 70a3 123e fcac bf3c cce0 ea3d 07d0 133d
00000130: d157 37ba 2262 bcbd 098c 8c3d 68eb af3e
00000140: a160 813e 9735 613e 26a2 323e 8ad8 063e
00000150: 657a 2dbd 6cdb d2bd 2b79 cebd d1b3 56be
00000160: 5744 53bd 2c99 153e a89f 2c3f 44b4 aebd
00000170: f15b 3cbd 278a be3d 50fa 583d f210 cd3d
00000180: 9892 a73e 28be 83bb 91a2 d03c 2bb0 8c3d
00000190: ad88 8cbe 55cb cb3d b2ad 9dbc b739 3b3e
000001a0: bd85 8ebe d691 bdbd c0dd a1be 9295 be3d
000001b0: 603a b13d fc50 333d cd26 863c 6356 9dbe
000001c0: d6ad 96bd a3b5 cbbd 67dd 613d 30ee 96bc
000001d0: a317 44be 057a 64be e0a7 edbe 4dfd 1ebe
000001e0: af4e 4a3d 2d10 86be 0c24 ecbd 5ac9 f8be
000001f0: ebd1 7a3e 264f 73bb 2317 49be cce8 4abe
00000200: 1339 f53d 4052 743c 6dc3 fb3d 2bf5 023e
00000210: 3ea0 a73d 940d 823e 856d ad3e 0c81 8d3d
00000220: bb69 72bc b172 403e b02d 9f3e 3031 f23d
00000230: fb8d 8f3c c9de 093d 4d44 babd 9487 08bd
00000240: 2fe1 80be b2bb 90be dda1 b7bd 1b8d bdbd
00000250: 956b 78be 1ca7 4c3e c3ef 9e3e 1b4f 4fbe
00000260: 4b1f 30be 0793 46be d953 d4bd 0c33 7d3e
00000270: 0d04 10be c38e af3d c872 f2be 36bc ccbe
00000280: fdbf f8bd faae 9dbe 58c8 ccbd 5f94 b0be
00000290: 848f 963d 5c8f 833d b9ba c9be cb35 763c
000002a0: 9e92 0e3c 984b d63c 2280 c63d d8f6 1bbe
000002b0: 0c0c e83d 7937 403d b545 8c3e 15e5 273e
000002c0: f69b 3ebf 123d 47bd 2847 f7bd 5589 d2bd
000002d0: 5b83 433e cdcd fd3c 9a24 763e 224f 6b3c
000002e0: e6af 8e3e 01d1 b13c e791 7a3e 4739 2c3e
000002f0: d4a0 b2bc 1850 8c3e 52a3 0d3d bc52 7a3e
00000300: 2e88 713e ee91 0d3c ce9f b73d ac23 87bd
00000310: 8921 a63e 80c7 903e 5b75 7f3e fbbf c3bd
00000320: b06c 993d 6af3 653e 5560 8d3e 5d18 91be
00000330: be8d 4b3d c578 34bf 5674 4f3d 2d2a 863d
00000340: 47a2 36be 9760 953e aae5 e63e a688 0f3c
00000350: fdc5 d7be b75b c3be 7a36 0fbe 35be 4dbe
00000360: 17b6 90be 4cbf c1bd 6112 ebbd 7fe2 e1bd
00000370: fe30 2abe b224 8b3d e58a dd3d 52c6 b4be
00000380: 7a7c e8bd 91fd ecbd b43b 3d3e 61c9 5e3e
00000390: b0a4 efbe 6065 97be 4b43 773c 9460 2abe
000003a0: f2cc df3d 03f1 713d c716 e93e da9c f4bd
000003b0: 98b6 583d bcb8 693e e246 163e 0ac1 033e
000003c0: 2ae1 09bc 0be6 3cbe 73b0 cabd 2b52 00bf
000003d0: c7a9 f0be 56b8 6b3c 86bb e23c 6839 0b3e
000003e0: ef21 9b3e f822 253d acfd ac3d 6f5a 99bd
000003f0: ab7a 8c3e 9961 cabd ce9e 313e 0621 84bd

fc_obs.bias f4 [64]
-0.18766141 0.07230421 -0.10389194 -0.12336978 0.1109226 0.1622985 0.051933277 0.11447674
-0.11658201 0.16516988 -0.010737891 -0.046868846 -0.010240962 0.12797154 -0.059305158 0.19197626
0.04814152 0.04199335 -0.10073759 0.0060619656 0.018662434 -0.058473393 -0.31578895 0.058464855
-0.19506544 -0.10617062 -0.06507507 -0.01793259 -0.008273467 -0.035240173 -0.025373688 0.2807532
0.0092771165 0.0037876684 0.083760574 0.08164309 0.069618106 -0.044703376 -0.10883746 -0.0707176
-0.0007487697 0.07911471 -0.21251304 -0.07140232 0.1039706 0.0064239604 0.04251162 -0.17136967
-0.08509011 0.09283686 0.18159026 0.042380918 -0.07460275 -0.0138435345 0.11627037 0.012918733
0.24568193 0.15073588 -0.13252251 -0.21821928 -0.12286079 0.072298996 0.08605277 0.14535184
00000000: 502a 40be 3b14 943d 4cc5 d4bd 4ca9 fcbd
00000010: 632b e33d 9431 263e fdb7 543d c872 ea3d
00000020: 8dc2 eebd 4b22 293e fbed 2fbc 8cf9 3fbd
00000030: b5c9 27bc f90a 033e f7e9 72bd 6d95 443e
00000040: 0b30 453d 3801 2c3d 824f cebd 74a3 c63b
00000050: f6e1 983c cc81 6fbd 17af a1be d878 6f3d
00000060: 3cbf 47be fb6f d9bd 1446 85bd 5ee7 92bc
00000070: 708d 07bc 0058 10bd 7bdc cfbc e2be 8f3e
00000080: 0cff 173c 883a 783b aa8a ab3d 7e34 a73d
00000090: f093 8e3d e31a 37bd 2de6 debd 64d4 90bd
000000a0: 1549 44ba e506 a23d 059d 59be 613b 92bd
000000b0: 8aee d43d 1680 d23b aa20 2e3d 887b 2fbe
000000c0: b943 aebd 4021 be3d ccf2 393e 9d97 2d3d
000000d0: 54c9 98bd fecf 62bc 291f ee3d 18a9 533c
000000e0: 0b94 7b3e 825a 1a3e fbb3 07be e074 5fbe
000000f0: 709e fbbd 7f11 943d 6f3c b03d 1dd7 143e

rnn.weight_ih f4 [192, 64]
0.44573948 0.082277216 0.054653622 -0.110567965 -0.4169128 -0.031163054 0.34356838 -0.22655508
0.10435654 0.072079785 -0.4036987 0.41275623 -0.54810494 0.099291705 -0.03270588 0.43385282
0.14140618 -0.13340631 0.12599379 -0.078981735 -0.014537029 0.33501562 0.09301904 0.24574247
-0.058685094 0.19909462 0.20920178 -0.07727197 -0.11461638 -0.25423664 0.0910867 0.07961481
-0.21265706 -0.33740753 0.39374092 -0.027744077 0.36386263 -0.10238439 0.15122922 -0.19895124
-0.27673462 0.10382183 0.090224616 -0.12564424 0.2589738 -0.56070113 -0.32790962 0.15066862
-0.57396597 -0.057330415 0.44119272 -0.16134305 -0.09417416 0.23654364 -0.3338092 0.21384025
0.3545738 0.106335446 -0.6828866 -0.16885749 -0.3787731 -0.011092102 -0.009925854 -1.115958
0.12909622 -1.2195477 -0.17701237 -0.44040394 0.12776467 0.629051 -0.39914224 -0.26334202
0.17397137 -0.8180709 -1.3995001 -0.73663664 0.095908366 -0.25884902 0.3501763 0.008028349
-0.022268178 -0.34039348 0.791579 0.15895122 0.031159766 0.00157459 -0.03786351 -0.7678229
-0.14742266 0.1101346 0.33530518 -0.17500587 0.030684797 -1.3087978 0.034864936 -0.5965451
-0.20413363 0.18565394 0.27983284 -0.008893179 0.07799985 0.007674285 -0.023144864 0.1763949
-0.13383386 0.32483128 -0.19681565 -0.1768652 0.02731107 -0.54756904 -1.1353235 0.167541
-1.0620857 -0.19370334 0.15688227 -0.7214056 0.103366435 0.3242861 -0.2745355 0.4103577
0.032810073 -1.2845817 0.044920143 0.016015768 0.078814276 -0.5234732 -0.20712923 -0.37430695
0.62538636 -0.3912368 0.20874076 0.0024160238 0.6387114 0.84660494 -0.038900085 0.15314206
-0.024325844 0.016663074 0.03840419 0.013693351 0.13364607 -0.02147765 0.74187356 -0.32290536
0.13682725 -0.117286645 -0.18772528 0.078126 0.18126401 0.9283679 0.06641245 0.4414252
0.1305437 0.31611887 -0.17546836 -0.7191406 0.3970014 -0.083873406 -0.088337906 -0.38706666
-0.08857849 0.3353977 -0.56503695 0.24266312 -0.57364225 -0.2845999 0.22222324 -0.13330792
0.03939304 -0.22422476 0.2586028 0.5278115 -0.05854388 0.11666349 0.49552917 0.09879331
1.344026 0.28357372 -0.3956611 -0.009620587 -0.2619704 0.41135937 -0.26800457 0.360798
-0.28642017 -0.59774864 0.19099799 0.26315498 0.3639151 0.047328696 0.35046193 -0.19141787
0.623581 0.08197139 0.054882433 -0.019052053 -0.9455521 -0.7278488 0.2760345 0.31899443
0.1455542 0.53639245 0.039196797 -0.53866154 0.040741958 -0.105369896 -0.4952625 -0.4237251
-0.5625191 0.28681928 -0.26198024 -0.77439034 0.28621435 -0.3418991 0.186464 0.47541344
0.08394146 -0.17185278 0.1089881 -0.39943743 0.30034918 0.07891708 -0.021437144 0.4241081
-0.0017842853 0.15729226 -0.26608208 -0.16886395 -0.28554958 -0.44327837 -0.26240683 -0.091777205
-0.029604826 -0.37131318 0.06816022 0.12033727 -0.6203441 0.22674018 0.4916057 -0.24793638
0.35262087 0.05874102 0.56896526 0.2614168 -0.27835718 -0.37217358 0.22471268 -0.45511422
0.5290757 -0.18840177 -0.033526205 0.05126651 -0.14333193 0.26170248 -0.15329373 0.5311751
00000000: f737 e43e f580 a83d 7adc 5f3d 7571 e2bd
00000010: 9875 d5be a949 ffbc 32e8 af3e 0efe 67be
00000020: e2b8 d53d 919e 933d 99b1 cebe c954 d33e
00000030: 9b50 0cbf 7359 cb3d 9af6 05bd f521 de3e
00000040: c8cc 103e aa9b 08be 8404 013e 2dc1 a1bd
00000050: b82c 6ebc 2b87 ab3e c480 be3d eaa3 7b3e
00000060: c85f 70bd 76df 4b3e fe38 563e c440 9ebd
00000070: febb eabd 4e2b 82be aa8b ba3d 170d a33d
00000080: c6c2 59be aec0 acbe 6998 c93e 8c47 e3bc
00000090: 344c ba3e e8ae d1bd d5db 1a3e e0b9 4bbe
000000a0: 29b0 8dbe 8aa0 d43d afc7 b83d e2a8 00be
000000b0: 3798 843e 1c8a 0fbf c5e3 a7be e048 1a3e
000000c0: 6fef 12bf 4cd3 6abd 03e4 e13e 1d37 25be
000000d0: 62de c0bd 7f38 723e 0ae9 aabe f0f8 5a3e
000000e0: b28a b53e 66c6 d93d a8d1 2ebf fae8 2cbe
000000f0: 8cee c1be a6bb 35bc 0da0 22bc b6d7 8ebf
00000100: cd31 043e 241a 9cbf bb42 35be a07c e1be
00000110: bed4 023e 7d09 213f 5f5c ccbe c4d4 86be
00000120: 8d25 323e 186d 51bf d222 b3bf 3894 3cbf
00000130: 9b6b c43d dc87 84be 4f4a b33e 5689 033c
00000140: c16b b6bc 0e48 aebe eca4 4a3f 1cc4 223e
00000150: c442 ff3c 7962 ce3a c516 1bbd 0b90 44bf
00000160: f7f5 16be 408e e13d 1fad ab3e bd34 33be
00000170: af5e fb3c b086 a7bf 89ce 0e3d 2eb7 18bf
00000180: 6808 51be 111c 3e3e 4046 8f3e b2b4 11bc
00000190: 63be 9f3d 9278 fb3b 4c9a bdbc dda0 343e
000001a0: be0b 09be 4950 a63e 0b8a 49be 271c 35be
000001b0: 77bb df3c 7c2d 0cbf 4852 91bf de8f 2b3e
000001c0: 6df2 87bf 2b5a 46be bfa5 203e 0aae 38bf
000001d0: c8b1 d33d d408 a63e eb8f 8cbe 681a d23e
000001e0: db63 063d 2c6d a4bf 2ffe 373d 8033 833c
000001f0: 6169 a13d 5702 06bf af19 54be 29a5 bfbe
00000200: 5219 203f 3150 c8be 23c0 553e 2756 1e3b
00000210: 9782 233f 1abb 583f b255 1fbd 46d1 1c3e
00000220: fe46 c7bc 0081 883c b64d 1d3d 145a 603c
00000230: 84da 083e e6f1 afbc 6deb 3d3f da53 a5be
00000240: 711c 0c3e fb33 f0bd 0e3b 40be 8600 a03d
00000250: 469d 393e 85a9 6d3f 4003 883d 7c02 e23e
00000260: 3fad 053e 55da a13e faad 33be 9919 38bf
00000270: c443 cb3e d2c5 abbd 81ea b4bd 9a2d c6be
00000280: a468 b5bd 3fb9 ab3e 43a6 10bf ae7c 783e
00000290: 38da 12bf 14b7 91be 7d8e 633e df81 08be
000002a0: 995a 213d 2d9b 65be 9667 843e a81e 073f
000002b0: b5cb 6fbd 45ed ee3d 00b6 fd3e 2654 ca3d
000002c0: 0b09 ac3f 9330 913e 1794 cabe ab9f 1dbc
000002d0: fc20 86be b29d d23e e537 89be 84ba b83e
000002e0: aaa5 92be 0e06 19bf fa94 433e 40bc 863e
000002f0: 1453 ba3e bcdb 413d bf6f b33e 0c03 44be
00000300: 01a3 1f3f 9ee0 a73d 67cc 603d 0d13 9cbc
00000310: b40f 72bf 4d54 3abf 6554 8d3e 3d53 a33e
00000320: 290c 153e 0451 093f d28c 203d b9e5 09bf
00000330: 0ae1 263d 2ccc d7bd 0c93 fdbe 7ff2 d8be
00000340: 4001 10bf fad9 923e 4622 86be 723e 46bf
00000350: b08a 923e 660d afbe 6bf0 3e3e 6469 f33e
00000360: 80e9 ab3d 2dfa 2fbe 2735 df3d 1083 ccbe
00000370: 5ec7 993e 479f a13d f39c afbc b224 d93e
00000380: aede e9ba 3911 213e e93b 88be acea 2cbe
00000390: 8e33 92be 62f5 e2be 305a 86be b0f5 bbbd
000003a0: d285 f2bc c31c bebe 9697 8b3d 6373 f63d
000003b0: dfce 1ebf 942e 683e beb3 fb3e 09e3 7dbe
000003c0: b98a b43e 6c9a 703d b5a7 113f 6cd8 853e
000003d0: d584 8ebe 898d bebe 151b 663e bb04 e9be
000003e0: 8171 073f 65ec 40be c652 09bd d5fc 513d
000003f0: 9bc5 12be defd 853e 08f9 1cbe 17fb 073f

rnn.weight_hh f4 [192, 64]
0.31233975 -0.54795593 0.13436528 -0.028163169 -0.1898456 0.08585906 -0.08715893 -0.13075309
0.21710928 -0.09196461 0.08831627 0.15442233 -0.1257931 0.18910074 0.018683815 -0.41727117
0.117470056 -0.19940355 -0.15765351 0.15262567 0.17465892 0.04309725 0.31183055 0.061137687
0.01858538 -0.40124568 -0.19018091 0.084934674 0.15395029 0.04444492 0.45567355 0.09460431
0.084318146 0.15465422 0.16729629 0.4546213 -0.13946073 0.20522457 -0.11010667 -0.28821647
0.029336872 0.44529042 -0.122315705 0.42828584 0.12746415 -0.35772836 -0.19875644 0.38925406
-0.49940073 -0.19610205 0.021918105 -0.22306678 0.16217743 0.24773131 -0.24504916 -0.46898144
0.13368428 -0.08005588 -0.19179994 0.3004419 -0.33572584 -0.21494861 -0.11884577 0.18025917
-0.20505737 -0.62054104 -0.0028357205 -0.030420626 0.044129714 -0.2015833 -0.25836855 0.030254208
-0.47806823 -0.21604443 -0.04423547 -0.16188559 -0.30074337 0.21246016 -0.050142832 -0.26577476
0.26832327 -0.3334249 -0.11167382 0.07419988 -0.04144163 0.37266758 -0.17434785 -0.044552166
0.15759107 -0.021202631 0.29430673 0.28930986 0.69286346 0.2251669 -0.19752075 -0.060879268
-0.20133251 0.1909639 0.4101614 -0.14165494 -0.13126986 -0.09825809 -0.29130206 0.08555843
-0.10067659 0.1861232 0.23851165 -0.2682242 -0.13293038 -0.49917957 0.13785596 0.25989747
-0.20837414 -0.095225625 0.47469234 0.1579679 0.0672111 0.08482461 -0.17311816 0.07310652
0.25508004 -0.013886393 -0.25738943 0.0035062088 0.17203094 -0.18926097 0.9324508 -0.0596637
0.45237675 -0.0732761 -0.3780087 0.30226734 0.27566203 -0.19430456 0.08940779 0.08539537
-0.3842097 0.25466233 0.5021667 -0.178493 0.1540329 0.23483585 -0.13206431 0.11423278
-0.25587285 -0.3560963 0.18669073 0.16827232 -0.8137261 0.08462053 -0.34323698 -0.076438434
0.20530428 -0.1264671 -0.13610722 -0.106142424 -0.14552149 -0.34022838 -0.1590746 0.090250075
0.2373006 -0.27232334 0.0009529458 0.26853904 -0.59960103 0.6078617 0.23846447 0.18807374
-0.2719232 0.2377838 0.12402619 0.27050132 -0.15909114 0.016043968 -0.26053038 0.03386254
-0.22185495 0.5997561 0.16620189 0.13877511 0.6116341 0.26443467 0.0023693081 -0.27780744
0.05152138 0.2404715 -0.052607127 -0.20622131 -0.2503317 0.17812136 0.9218556 0.19145511
0.02872804 0.16346675 0.18425031 0.1128355 -0.31775773 0.117366485 -0.3051462 -0.024125231
0.19825658 -0.3262985 0.123017184 0.13357872 0.48818457 -0.40430287 0.21682036 0.016046837
0.42502728 0.34533733 -0.19170041 0.44066396 -0.66146696 -0.09001795 0.3120678 0.242016
-0.33479023 -0.36446732 -0.08270171 0.08101929 -0.35922432 0.052123476 0.053967793 0.6090964
0.06410925 -0.29282418 -0.4132023 -0.51744896 -0.032531902 -0.0037773938 0.17448026 0.33748075
0.08018132 0.04050664 -0.1321191 0.6344306 -0.0022375425 0.16985352 0.22990644 0.27753276
0.07555444 -0.8449467 -0.9848182 0.21353687 0.2105022 0.08352874 -0.027428284 -0.25915632
-0.017582834 -0.20613985 0.3471678 0.5788082 -0.6101198 0.6980838 0.49634156 -0.039977565
00000000: ffea 9f3e d746 0cbf 0d97 093e 72b6 e6bc
00000010: e366 42be e0d6 af3d 6280 b2bd 23e4 05be
00000020: e551 5e3e f157 bcbd 29df b43d e320 1e3e
00000030: e8cf 00be a0a3 413e cd0e 993c 91a4 d5be
00000040: 2494 f03d 7230 4cbe ec6f 21be e749 1c3e
00000050: cad9 323e be86 303d 41a8 9f3e 836b 7a3d
00000060: 5e40 983c 1370 cdbe c9be 42be 3bf2 ad3d
00000070: 25a5 1d3e e00b 363d 0b4e e93e e8bf c13d
00000080: feae ac3d ad5d 1e3e b84f 2b3e 1fc4 e83e
00000090: cbce 0ebe 6426 523e 9b7f e1bd 1c91 93be
000000a0: e153 f03c 1bfd e33e a880 fabd 4848 db3e
000000b0: f685 023e 2c28 b7be cf86 4bbe 4f4c c73e
000000c0: 74b1 ffbe face 48be 998d b33c 9e6b 64be
000000d0: d711 263e 47ad 7d3e 2bee 7abe 561e f0be
000000e0: 88e4 083e 56f4 a3bd 3467 44be 85d3 993e
000000f0: 42e4 abbe 7d1b 5cbe 6965 f3bd dc95 383e
00000100: 8ffa 51be c7db 1ebf 7fd7 39bb ad34 f9bc
00000110: 5cc1 343d da6b 4ebe e248 84be acd7 f73c
00000120: 5cc5 f4be c03a 5dbe 4130 35bd 56c5 25be
00000130: 09fb 99be 288f 593e 9262 4dbd a113 88be
00000140: ab61 893e abb6 aabe 3eb5 e4bd 1bf6 973d
00000150: b3be 29bd 49ce be3e 3e88 32be 557c 36bd
00000160: 8e5f 213e 24b1 adbc 5faf 963e 6c20 943e
00000170: 805f 313f 2792 663e e142 4abe 8a5c 79bd
00000180: 1c2a 4ebe 0a8c 433e ad00 d23e fe0d 11be
00000190: 9b6b 06be 8a3b c9bd 8b25 95be 4239 af3d
000001a0: 872f cebd 1597 3e3e 663c 743e af54 89be
000001b0: e71e 08be 7794 ffbe 1d2a 0d3e 4811 853e
000001c0: 0860 55be a705 c3bd e00a f33e 56c2 213e
000001d0: f9a5 893d 86b8 ad3d e345 31be dfb8 953d
000001e0: da99 823e c183 63bc 8cc8 83be 6cc8 653b
000001f0: e128 303e a1cd 41be 18b5 6e3f ed61 74bd
00000200: ed9d e73e c811 96bd 5b8a c1be c9c2 9a3e
00000210: 9323 8d3e c6f7 46be 6e1b b73d c5e3 ae3d
00000220: 22b7 c4be 1a63 823e ff8d 003f dec6 36be
00000230: cdba 1d3e cf78 703e de3b 07be e0f2 e93d
00000240: c401 83be 4152 b6be db2b 3f3e 944f 2c3e
00000250: 5b50 50bf 874d ad3d c2bc afbe c18b 9cbd
00000260: 493b 523e 9780 01be b15f 0bbe 3361 d9bd
00000270: 9603 15be 6a32 aebe 74e4 22be 08d5 b83d
00000280: eefe 723e f76d 8bbe 1ccf 793a f37d 893e
00000290: 747f 19bf d39c 1b3f 0830 743e 6796 403e
000002a0: 8539 8bbe 997d 733e 7101 fe3d 267f 8a3e
000002b0: cae8 22be a46e 833c 3d64 85be 72b3 0a3d
000002c0: f22d 63be 9e89 193f d430 2a3e 101b 0e3e
000002d0: 0d94 1c3f fb63 873e 6546 1b3b c73c 8ebe
000002e0: 1508 533d 293e 763e 927a 57bd ae2b 53be
000002f0: 7a2b 80be 7265 363e bbfe 6b3f cf0c 443e
00000300: 1157 eb3c d463 273e 1dac 3c3e 4c16 e73d
00000310: 24b1 a2be d75d f03d 1f3c 9cbe 47a2 c5bc
00000320: c603 4b3e 9910 a7be 6ff0 fb3d dcc8 083e
00000330: 54f3 f93e c900 cfbe 2806 5e3e a874 833c
00000340: 2d9d d93e 0ed0 b03e 1d4d 44be b59e e13e
00000350: e655 29bf 555b b8bd 5ac7 9f3e 0bd3 773e
00000360: a069 abbe 769b babe 845f a9bd 71ed a53d
00000370: 40ec b7be 6d7f 553d 550d 5d3d beed 1b3f
00000380: b64b 833d 0ded 95be 408f d3be 8977 04bf
00000390: 2c40 05bd 278e 77bb f4aa 323e 47ca ac3e
000003a0: 1b36 a43d 4aea 253d 3b4a 07be 0b6a 223f
000003b0: bca3 12bb 15ee 2d3e 986c 6b3e c618 8e3e
000003c0: 49bc 9a3d 6d4e 58bf 0c1d 7cbf 69a9 5a3e
000003d0: e48d 573e 1e11 ab3d 48b1 e0bc 23b0 84be
000003e0: e009 90bc 5316 53be fabf b13e c62c 143f
000003f0: d030 1cbf 9fb5 323f 7b20 fe3e 84bf 23bd

rnn.bias_ih f4 [192]
0.18003365 -0.13471253 -0.27540866 -0.0328348 -0.08023758 -0.14165956 -0.007699127 -0.11047291
-0.15479013 -0.061267123 -0.07142868 -0.078315705 0.0831348 0.015908346 -0.1142067 -0.06880148
-0.03226344 -0.057015162 0.13097116 -0.01506473 0.06921968 0.1699629 0.081082165 -0.049091846
-0.14978598 -0.12196739 0.111945614 0.053506907 0.063476205 0.05295722 -0.03575054 -0.06940272
-0.085729085 0.0525917 -0.15727724 0.032271758 -0.018818911 -0.14356418 -0.015037679 0.08404985
-0.006264042 0.059570413 -0.15068941 -0.03373667 0.23863098 0.1963894 -0.16245908 0.08559513
-0.069115095 -0.032036733 -0.09673582 0.176384 0.039937317 -0.10674252 0.058132194 -0.048897177
-0.16136101 -0.049683943 -0.021167463 0.050162006 -0.105210625 0.23929477 0.007206114 -0.098031625
0.09677169 -0.039489746 0.00836394 -0.2492719 -0.05512977 -0.21492672 -0.30760518 -0.23557478
0.030669706 0.038883917 -0.068661824 0.03620006 -0.23268925 -0.30554682 0.29455727 -0.095607966
-0.03320471 0.004532801 -0.04122677 -0.16165286 -0.13424239 -0.04871975 -0.3557233 -0.068534695
-0.023461679 -0.139352 -0.26434198 -0.17512052 -0.01611487 -0.21489541 0.043822404 -0.1338402
-0.019026205 -0.42651138 0.22119795 -0.056046113 -0.19051315 -0.25038877 -0.008150899 -0.027582621
-0.019997966 -0.18893692 -0.119815834 -0.26155865 -0.06541528 -0.19619101 -0.19731635 0.17179184
-0.13878737 -0.062797606 -0.015715078 -0.026315961 -0.24394305 -0.16088945 -0.21421297 -0.1554675
-0.25772858 0.0034812686 -0.05976465 0.15715832 -0.06454959 -0.16011333 -0.20218992 -0.08082945
0.059505895 -0.08845694 -0.24622537 0.27167448 0.13208371 0.22298835 0.020970006 0.2912056
-0.08037587 0.07217609 0.06887076 -0.13232496 -0.12770003 -0.1562828 0.011770807 0.11243844
0.03416892 0.18013188 -0.12650989 0.15191565 -0.048639487 -0.017334532 -0.122002244 -0.43372253
0.109460056 -0.013797757 -0.09398913 -0.075059555 -0.12389202 0.20881337 -0.2422635 -0.18365996
0.21105954 0.10659414 -0.076176226 0.106714316 -0.0070111067 0.16711295 -0.15925112 0.10879135
-0.08498782 -0.13333088 -0.045391552 -0.053346105 0.08170343 0.0036744527 -0.40179393 0.0037361295
0.2508739 0.030806618 -0.06693526 0.13740654 0.15191945 0.14308171 -0.17432387 -0.13450605
0.055248298 0.0035532387 -0.103543654 -0.18521805 0.1528054 -0.14734687 -0.016751664 0.1103707
00000000: be5a 383e 15f2 09be 5d02 8dbe c97d 06bd
00000010: 9a53 a4bd 340f 11be f548 fcbb 9f3f e2bd
00000020: 4e81 1ebe 3cf3 7abd 3349 92bd fc63 a0bd
00000030: 9442 aa3d 3852 823c 34e5 e9bd cae7 8cbd
00000040: ab26 04bd bb88 69bd 4e1d 063e 0fd2 76bc
00000050: 0cc3 8d3d c10a 2e3e 680e a63d 8814 49bd
00000060: 7f61 19be 0aca f9bd be43 e53d 0f2a 5b3d
00000070: d0ff 813d abe9 583d 296f 12bd 0323 8ebd
00000080: bb92 afbd 656a 573d 490d 21be 642f 043d
00000090: 1e2a 9abc 7d02 13be 9960 76bc 5422 ac3d
000000a0: 9842 cdbb 1b00 743d 534e 1abe 762f 0abd
000000b0: ae5b 743e 4e1a 493e ac5b 26be 804c af3d
000000c0: 378c 8dbd f338 03bd 6e1d c6bd 029e 343e
000000d0: 5095 233d d39b dabd 061c 6e3d 6848 48bd
000000e0: d23b 25be 6481 4bbd 6367 adbc ad76 4d3d
000000f0: ab78 d7bd b009 753e 4421 ec3b cec4 c8bd
00000100: 3c30 c63d 00c0 21bd e808 093c 2241 7fbe
00000110: c1cf 61bd c015 5cbe 6d7e 9dbe 843a 71be
00000120: 093f fb3c be44 1f3d 929e 8cbd 8446 143d
00000130: 1746 6ebe a270 9cbe 36d0 963e 1cce c3bd
00000140: a901 08bd e487 943b 67dd 28bd 5488 25be
00000150: d676 09be 5c8e 47bd 5d21 b6be eb5b 8cbd
00000160: b532 c0bc 4ab2 0ebe d557 87be cb52 33be
00000170: 5503 84bc 8b0d 5cbe 1f7f 333d 680d 09be
00000180: d8dc 9bbc b35f dabe b781 623e 9c90 65bd
00000190: e115 43be f532 80be 598b 05bc f3f4 e1bc
000001a0: c6d2 a3bc ae78 41be 0162 f5bd 04eb 85be
000001b0: 72f8 85bd 4ce6 48be 4c0d 4abe 33ea 2f3e
000001c0: 471e 0ebe 089c 80bd e8bc 80bc 9294 d7bc
000001d0: 35cc 79be 34c0 24be a55a 5bbe df32 1fbe
000001e0: 00f5 83be ff25 643b c7cb 74bd 1cee 203e
000001f0: 9332 84bd c0f4 23be e00a 4fbe e989 a5bd
00000200: 74bc 733d ea28 b5bd 8122 7cbe eb18 8b3e
00000210: f440 073e 0f57 643e 4ac9 ab3c e718 953e
00000220: 1b9c a4bd 0fd1 933d 1d0c 8d3d 3280 07be
00000230: ccc3 02be 9908 20be 58da 403c 2046 e63d
00000240: b6f4 0b3d 7e74 383e cf8b 01be c78f 1b3e
00000250: 333a 47bd 2601 8ebc 50dc f9bd e110 debe
00000260: 982c e03d fd0f 62bc 5f7d c0bd d3b8 99bd
00000270: 19bb fdbd 2cd3 553e ec13 78be 5b11 3cbe
00000280: fe1f 583e 074e da3d 4802 9cbd 098d da3d
00000290: 6dbd e5bb a81f 2b3e ba12 23be 00ce de3d
000002a0: 180e aebd e487 08be 7eec 39bd 7281 5abd
000002b0: 2154 a73d 16cf 703b efb7 cdbe dad9 743b
000002c0: 8b72 803e 295e fc3c 5b15 89bd 4db4 0c3e
000002d0: c690 1b3e 0384 123e f581 32be f4bb 09be
000002e0: 0a4c 623d 74dd 683b b20e d4bd cda9 3dbe
000002f0: 0579 1c3e 19e2 16be c93a 89bc 090a e23d

rnn.bias_hh f4 [192]
0.1026728 -0.14995457 -0.11011351 0.015288599 -0.032027908 -0.22969784 0.047857724 -0.060485534
-0.21623874 -0.21028845 -0.06429748 0.006702142 0.047384225 0.0893836 0.05483273 0.06889818
0.045319505 0.0668191 0.05405237 -0.024065081 0.17385985 -0.012123965 0.15302625 -0.111713834
-0.19504409 -0.19687122 -0.007240805 -0.015439875 0.0055948137 0.005460142 -0.024916282 -0.06724088
-0.13263413 0.17717189 -0.13892426 -0.025467953 0.119567 -0.080551505 0.12738657 0.033018947
-0.102584094 -0.06189933 -0.13582765 0.1707587 0.042678524 0.09720008 -0.20413268 0.1347942
-0.1527032 0.14049177 -0.053072765 0.15009324 0.091446675 -0.0664475 0.081312776 0.04926948
-0.022837136 0.12834859 0.117948726 -0.005328145 -0.056581136 0.06143708 0.08716754 -0.20569696
0.056242064 -0.26653048 0.070318624 -0.31509358 -0.23233508 -0.27219084 -0.31492054 -0.03735034
-0.013971523 -0.09383813 -0.10053205 -0.06359166 -0.06759017 -0.11769724 0.36620992 -0.17856258
0.07951916 -0.028616335 -0.0684464 -0.17605901 -0.07581425 -0.12392097 -0.43091595 -0.055073578
0.038901478 -0.19704638 -0.10081049 -0.2926376 -0.07692076 -0.20193754 0.09903524 -0.14038384
-0.121871784 -0.34258014 0.15418032 0.07958693 -0.093277305 -0.21564329 -0.087995894 -0.14154781
-0.036399227 -0.21930099 -0.10137178 -0.16780782 -0.012008873 0.035827257 -0.40576223 0.13901733
-0.21006902 -0.17314301 -0.018324126 -0.035986606 -0.2780095 -0.18863598 -0.088442415 -0.23529765
-0.08256571 -0.085076906 -0.02213638 0.11797331 0.047833357 -0.11329225 0.013695722 0.058864605
-0.31291035 0.09754234 0.012820732 0.03938728 0.11672285 0.04201878 0.14568505 -0.29950622
-0.045630258 -0.18553461 -0.2053988 -0.15295842 0.20922935 0.5525011 -0.045625214 0.18485235
0.10744424 -0.13526958 0.23760673 -0.03708573 0.32477495 0.31651944 -0.17085506 0.30309302
-0.05860622 -0.07683192 -0.42072788 -0.05815954 0.060352463 0.08531099 0.36499357 0.25838655
-0.211136 -0.2696361 -0.102363475 0.06356893 -0.122873515 0.008888755 -0.05261392 -0.040670704
0.10805281 0.0037184046 0.17824626 0.17271377 -0.03700147 -0.33160138 0.58531964 -0.031845078
-0.07898654 -0.0130459 0.14873481 -0.13357247 -0.060031366 -0.01256681 0.17450695 0.021075474
-0.28368783 0.14293206 0.028570507 -0.09451564 0.055526104 -0.01299375 -0.17288466 -0.041913923
00000000: 1e46 d23d b18d 19be 3183 e1bd 087d 7a3c
00000010: b22f 03bd e935 6bbe 7606 443d aebf 77bd
00000020: b06d 5dbe db55 57be 66ae 83bd a49d db3b
00000030: f615 423d c00e b73d 4998 603d 7d1a 8d3d
00000040: f2a0 393d 74d8 883d 0566 5d3d 2224 c5bc
00000050: 5108 323e 98a3 46bc eab2 1c3e 39ca e4bd
00000060: a3b9 47be 9c98 49be 4644 edbb 88f7 7cbc
00000070: b354 b73b feea b23b 3b1d ccbc 96b5 89bd
00000080: 3ed1 07be 8c6c 353e 2942 0ebe 2ba2 d0bc
00000090: 8bdf f43d 30f8 a4bd a071 023e e03e 073d
000000a0: 9c17 d2bd 278a 7dbd 6716 0bbe 5edb 2e3e
000000b0: adcf 2e3d d610 c73d 2808 51be 7e07 0a3e
000000c0: 3a5e 1cbe 13dd 0f3e d462 59bd 0bb2 193e
000000d0: 6548 bb3d a015 88bd 5087 a63d cbce 493d
000000e0: f214 bbbc d06d 033e 1a8f f13d b897 aebb
000000f0: 9fc1 67bd 73a5 7b3d e584 b23d 39a2 52be
00000100: 145e 663d af76 88be 3603 903d f253 a1be
00000110: 3fe9 6dbe 995c 8bbe 443d a1be acfc 18bd
00000120: d1e8 64bc 352e c0bd bfe3 cdbd 583c 82bd
00000130: b76c 8abd 400b f1bd de7f bb3e 1cd9 36be
00000140: f1da a23d ce6c eabc a02d 8cbd d048 34be
00000150: 8044 9bbd 47ca fdbd 04a1 dcbe d594 61bd
00000160: 2857 1f3d 87c6 49be bb75 cebd 98d4 95be
00000170: a288 9dbd b7c8 4ebe fdd2 ca3d c8c0 0fbe
00000180: ea97 f9bd aa66 afbe 72e1 1d3e 79fe a23d
00000190: 2c08 bfbd 98d1 5cbe 3137 b4bd e9f1 10be
000001a0: 5b17 15bd 7090 60be 029c cfbd d0d5 2bbe
000001b0: ddc0 44bc 9abf 123d 11c0 cfbe 8f5a 0e3e
000001c0: 551c 57be 674c 31be 7a1c 96bc b166 13bd
000001d0: 4357 8ebe ca29 41be 4c21 b5bd def1 70be
000001e0: 3618 a9bd cd3c aebd 5b57 b5bc fe9b f13d
000001f0: e9ec 433d c405 e8bd 0664 603c 031c 713d
00000200: c935 a0be 47c4 c73d 0c0e 523c 8e54 213d
00000210: 640c ef3d e21b 2c3d 762e 153e e158 99be
00000220: cbe6 3abd c9fc 3dbe 1054 52be 22a1 1cbe
00000230: 3840 563e b670 0d3f 81e1 3abd ef49 3d3e
00000240: ba0b dc3d 1c84 0abe 2e4f 733e 35e7 17bd
00000250: e748 a63e d60e a23e a1f4 2ebe 022f 9b3e
00000260: 130d 70bd 0e5a 9dbd a569 d7be b338 6ebd
00000270: 2534 773d 87b7 ae3d 70e0 ba3e 3e4b 843e
00000280: 0934 58be be0d 8abe f1a3 d1bd 6d30 823d
00000290: 1ca5 fbbd 24a2 113c b281 57bd 5396 26bd
000002a0: cb4a dd3d 7ab0 733b 3086 363e e1db 303e
000002b0: da8e 17bd a8c7 a9be 82d7 153f fc6f 02bd
000002c0: b2c3 a1bd 78be 55bc f04d 183e 39c7 08be
000002d0: 73e3 75bd 05e5 4dbc f3b1 323e 79a6 ac3c
000002e0: 883f 91be c85c 123e b20c ea3c 6a91 c1bd
000002f0: 576f 633d bde3 54bc ad08 31be efad 2bbd

phi.weight f4 [64, 8]
-0.18669868 -0.14605223 -0.2459997 0.267233 0.067680694 0.08471514 0.15996964 -0.14727408
0.12418362 -0.011759712 -0.013858219 0.0046952562 -0.0062376596 0.0011913129 -0.0035278827 0.009568642
0.025271453 -0.6076614 0.29557773 0.025338545 0.14874604 -0.10256658 -0.035881992 -0.08326023
0.23320015 0.25158048 -0.17264047 0.093110725 -0.11160547 0.07678156 -0.06786282 0.051508266
0.5096974 -0.17455877 0.073606975 -0.040223457 0.02403389 -0.033217117 0.005746931 -0.02040868
0.53158325 0.017979266 0.026853573 0.00047967013 0.006932758 -0.009973956 -0.0010397221 -0.01899645
0.02917339 -0.1829451 0.0335181 -0.059331365 0.0029805978 -0.035912424 -0.0046139914 -0.029082496
0.06524118 0.39494583 0.21711677 0.13906479 0.0342598 -0.0019901237 -0.034718107 -0.063499056
-0.007169743 -0.3742246 0.091162816 0.21124417 0.20193432 0.06905342 -0.018679976 -0.051794954
0.5644607 -0.14588542 -0.012792236 -0.061338518 0.004942735 -0.025043435 0.007018205 -0.025024712
0.2497431 -0.03484491 0.0023118302 -0.017159676 0.009921151 -0.004221767 0.0020831095 -0.003413386
0.29376557 -0.13412859 0.0056675337 -0.054937325 -0.023069108 -0.045064937 -0.02810908 -0.036482316
0.102264084 -0.12014495 0.0005466043 -0.029990494 -0.00046648632 -0.012220358 -2.747691e-05 -0.006615689
0.1986482 0.028253766 -0.026693843 0.0023358753 -0.021276882 -0.0057399473 -0.011207627 -0.00836252
0.098676674 0.1635209 0.2874099 -0.116235025 0.1370253 0.16913173 -0.050397165 -0.04762327
0.2804322 -0.09429188 0.021477012 -0.031165896 0.019206205 -0.019664092 0.007636913 -0.009109461
0.40501973 -0.11884459 0.054018203 -0.012292071 0.021883365 -0.007940877 0.005257079 0.0029615986
-0.10982921 -0.0044517606 0.010457659 0.0062671984 0.0034498505 0.001956664 0.001066229 0.0028542215
-0.0563092 -0.10449249 0.06888984 0.23613998 0.5641123 -0.1876646 0.2188655 -0.45715615
0.40285072 0.5106132 -0.17944795 0.015428924 0.041884936 -0.03461903 0.038484413 -0.03666867
-0.27923292 -0.27459785 -0.109477066 -0.115261756 0.009445139 -0.0013062072 0.03242104 0.003799367
0.44360355 -0.049993213 -0.03460307 -0.012479758 -0.017501684 0.0021072011 -0.010398076 0.0073489696
-0.16727985 -0.51210666 0.21948266 -0.100095764 0.17524849 -0.05576205 0.032145604 -0.055298258
0.57154053 -0.32718718 0.018982468 -0.08372265 0.006190359 -0.036847286 0.0010558717 -0.022562053
0.5220641 -0.11284724 -0.045614686 -0.034423042 -0.0078004543 -0.0117986 -0.0029495053 -0.0076531908
0.25483203 -0.27525523 0.007140863 -0.09434496 0.0145968115 -0.047583703 0.014235184 -0.024710363
0.4413626 -0.13698801 0.01722865 -0.028775372 0.0074728695 -0.012958143 0.002505396 -0.0058486764
0.030290158 -0.0184628 -0.013044903 -0.016128663 -0.007171188 -0.009761351 -0.010190385 -0.0009355696
-0.41310588 0.013676918 -0.19340633 0.08254479 -0.038113583 -0.03166997 -0.11006474 -0.17822075
0.14019535 -0.16312839 -0.030467229 -0.04327037 -0.013478589 -0.025931597 -0.0034296252 -0.013178232
0.21206559 -0.25345963 0.40603915 -0.17883503 0.26355916 0.080562495 0.060370643 -0.23407382
0.03427751 0.27286875 -0.020164082 -0.33106226 -0.03523518 -0.20697354 0.23649974 -0.41764224
00000000: f02d 3fbe b78e 15be 58e7 7bbe c4d2 883e
00000010: 2d9c 8a3d 227f ad3d 15cf 233e 04cf 16be
00000020: fb53 fe3d cfab 40bc 950d 63bc aada 993b
00000030: 4865 ccbb d425 9c3a 0d34 67bb cbc5 1c3c
00000040: 1406 cf3c b38f 1bbf f755 973e c892 cf3c
00000050: e250 183e 6d0e d2bd fff8 12bd 5784 aabd
00000060: 05cc 6e3e 28cf 803e aac8 30be d6b0 be3d
00000070: 6991 e4bd a73f 9d3d aafb 8abd 55fa 523d
00000080: 877b 023f 89bf 32be 41bf 963d 5ac1 24bd
00000090: b8e2 c43c ac0e 08bd c050 bc3b 1b30 a7bc
000000a0: d715 083f 4149 933c 06fc db3c 3c7c fb39
000000b0: 302c e33b ce69 23bc 4947 88ba 719e 9bbc
000000c0: 08fd ee3c f655 3bbe 464a 093d 7205 73bd
000000d0: 2256 433b e818 13bd f730 97bb 6a3e eebc
000000e0: 2b9d 853d 5736 ca3e dc53 5e3e 0067 0e3e
000000f0: 0154 0c3d bc6c 02bb 9334 0ebd cb0b 82bd
00000100: 2af0 eabb 5e9a bfbe 92b3 ba3d 6450 583e
00000110: dfc7 4e3e e16b 8d3d c006 99bc f226 54bd
00000120: 7f80 103f fd62 15be 8796 51bc 193e 7bbd
00000130: abf6 a13b e427 cdbc f8f8 e53b a000 cdbc
00000140: a8bc 7f3e 89b9 0ebd 1382 173b 7392 8cbc
00000150: 538c 223c c056 8abb c784 083b 1db3 5fbb
00000160: 7168 963e 0159 09be b8b6 b93b f605 61bd
00000170: 6dfb bcbc 0396 38bd 0345 e6bc 7b6e 15bd
00000180: d56f d13d 8e0e f6bd fe49 0f3a a0ae f5bc
00000190: bc92 f4b9 e537 48bc 377e e6b7 6cc8 d8bb
000001a0: 6f6a 4b3e 7174 e73c 0cad dabc 7c15 193b
000001b0: db4c aebc 2b16 bcbb 32a0 37bc f302 09bc
000001c0: ff16 ca3d 0672 273e 6427 933e a10c eebd
000001d0: 5c50 0c3e de30 2d3e 426d 4ebd 9e10 43bd
000001e0: cf94 8f3e 1a1c c1bd 8ff0 af3c 9f4f ffbc
000001f0: 5556 9d3c 9716 a1bc 123f fa3b d93f 15bc
00000200: bf5e cf3e cb64 f3bd 3142 5d3d af64 49bc
00000210: be44 b33c 741a 02bc 9343 ac3b 6117 423b
00000220: 23ee e0bd 13e0 91bb 9a56 2b3c 125d cd3b
00000230: e316 623b 603b 003b b5c0 8b3a e40d 3b3b
00000240: 7aa4 66bd 2900 d6bd 1e16 8d3d aece 713e
00000250: aa69 103f 262b 40be 471e 603e 5f10 eabe
00000260: 7342 ce3e 8cb7 023f 34c1 37be 99c9 7c3c
00000270: 8a8f 2b3d afcc 0dbd d5a1 1d3d e331 16bd
00000280: 9ef7 8ebe 1798 8cbe 8335 e0bd 5b0e ecbd
00000290: c9bf 1a3c 0a35 abba edcb 043d cdfe 783b
000002a0: 0120 e33e afc5 4cbd f3bb 0dbd e677 4cbc
000002b0: b15f 8fbc f818 0a3b b15c 2abc a0cf f03b
000002c0: 694b 2bbe 6c19 03bf 10c0 603e 02ff ccbd
000002d0: 5774 333e bf66 64bd 1cab 033d 6d80 62bd
000002e0: 7b50 123f 1485 a7be 1f81 9b3c c876 abbd
000002f0: 7fd8 ca3b 2eed 16bd 2d65 8a3a 0ed4 b8bc
00000300: fea5 053f 741c e7bd 77d6 3abd 2dff 0cbd
00000310: f49a ffbb ea4e 41bc 7d4c 41bb 9ec7 fabb
00000320: 5879 823e 41ee 8cbe e7fd e93b ee37 c1bd
00000330: 7727 6f3c 21e7 42bd b03a 693c 636d cabc
00000340: 47fa e13e 9646 0cbe 1923 8d3c 54ba ebbc
00000350: f9de f43b 644e 54bc 9231 243b 41a6 bfbb
00000360: 1123 f83c 4c3f 97bc 4aba 55bc 4220 84bc
00000370: 49fc eabb 13ee 1fbc 93f5 26bc 0341 75ba
00000380: 9d82 d3be 2715 603c 4f0c 46be 3e0d a93d
00000390: fd1c 1cbd 5fb8 01bd 9f69 e1bd 807f 36be
000003a0: 5f8f 0f3e 210b 27be 6996 f9bc 463c 31bd
000003b0: 4dd5 5cbc 806e d4bc 90c3 60bb 83e9 57bc
000003c0: b927 593e 76c5 81be 5de4 cf3e 8820 37be
000003d0: 3af1 863e f3fd a43d 3547 773d 0cb1 6fbe
000003e0: 9366 0c3d 74b5 8b3e 252f a5bc fe80 a9be
000003f0: c452 10bd dff0 53be fd2c 723e 34d5 d5be

phi.bias f4 [64]
-0.30522925 0.077492744 0.33427453 0.4692907 0.1970716 0.4217591 0.40499535 0.5439315
0.0033674864 0.41951182 0.18704966 -0.020222297 0.6029192 0.6152711 -0.33915883 0.36293992
0.3528146 0.41033977 -0.49280733 0.2127938 0.21917216 -0.18353413 0.41169184 0.30959874
0.31593356 0.4040824 0.4254764 0.18495592 0.15734784 0.6386112 -0.22847098 -0.3560363
0.28537297 -0.09980444 0.60268337 0.21573298 0.28403702 -0.34913623 0.1311264 -0.052804597
0.38417533 0.13678083 -0.13839057 -0.21211474 0.17389159 0.22318928 0.37622097 -0.024603711
0.33745652 -0.21688837 0.06345376 0.16696517 0.42369187 0.36603856 -0.2733683 0.4567092
0.42698303 -0.31465948 0.18418995 -0.3457361 0.47469416 -0.06965131 0.010879767 0.19079179
00000000: 0247 9cbe 84b4 9e3d 0826 ab3e df46 f03e
00000010: 23cd 493e cff0 d73e 8d5b cf3e 183f 0b3f
00000020: 0cb1 5c3b 41ca d63e f289 3f3e 3ba9 a5bc
00000030: ea58 1a3f 6882 1d3f 3aa6 adbe 43d3 b93e
00000040: 1ea4 b43e 0e18 d23e 3e51 fcbe 9ee6 593e
00000050: ab6e 603e 5ff0 3bbe 46c9 d23e ba83 9e3e
00000060: 0bc2 a13e e3e3 ce3e 0bd8 d93e 1665 3d3e
00000070: cb1f 213e 067c 233f 4cf4 69be 644a b6be
00000080: 681c 923e 4566 ccbd 7549 1a3f 1be9 5c3e
00000090: 4d6d 913e fcc1 b2be 0046 063e a249 58bd
000000a0: a1b2 c43e 4610 0c3e 42b6 0dbe 9b34 59be
000000b0: a310 323e bb8b 643e 09a0 c03e b98d c9bc
000000c0: 1ac7 ac3e fc17 5ebe 0cf4 813d ebf8 2a3e
000000d0: 24ee d83e 6869 bb3e eef6 8bbe cad5 e93e
000000e0: 859d da3e 0c1b a1be 4a9c 3c3e 5204 b1be
000000f0: 1d0b f33e 59a5 8ebd 0d41 323c ec5e 433e

g.weight f4 [12, 64]
0.04504906 0.036006514 -0.008940908 -0.013061737 -0.008260677 0.015589399 -0.225706 -0.0746607
0.00059852697 -0.024643341 -0.09689494 0.08551223 0.06891191 -0.04512779 0.122044295 -0.15553829
-0.0843556 0.23504534 0.042392347 0.046359245 -0.12749586 0.0103594605 -0.019105216 0.49468884
0.11084656 -0.21133871 0.004527054 0.11023565 0.17692627 0.08391098 -0.026721057 -0.017606717
-0.16434011 0.02999294 -0.14170547 0.01843564 -0.04143746 -0.44931534 0.10367232 0.23647615
-0.030851742 0.036749493 0.015857855 -0.13173822 -0.022157563 0.021601437 0.092030995 0.003356215
-0.062303443 -0.054516852 -0.058107708 0.0066511566 0.074154824 0.051063787 -0.0067637623 -0.09577171
0.087369055 0.012065274 -0.17103164 -0.73972994 -0.03431358 0.057217672 0.07271619 0.28895468
0.091027796 -0.15154707 -0.1711009 0.29481176 0.25344837 0.22280493 -0.07248877 0.08617408
-0.029093362 0.29964197 0.14302967 -0.04795719 0.013938864 0.17863612 0.061646517 -0.18714234
-0.20825991 -0.042277634 -0.10511716 0.2270763 -0.012700615 0.19343536 -0.06307067 -0.08241838
0.342159 -0.24328086 -0.11714914 0.09250975 0.12307178 0.095354766 -0.040870473 -0.03258041
0.11539204 0.17395595 0.12200493 0.17876793 -0.14030185 0.21455163 -0.2373625 0.09888022
-0.20519723 -0.27463022 0.14679265 -0.121206716 -0.07391698 -0.103964455 -0.13907841 0.059169326
0.060022075 0.021563696 0.028344799 0.077153735 -0.012482605 0.20977208 -0.11804191 -0.294133
0.19673178 0.09987064 -0.10179398 0.2104025 0.10631571 0.114279315 0.12597822 0.20136952
0.04831329 -0.0231102 -0.17199421 0.22494316 0.31021026 0.2420006 0.019738453 0.0482985
-0.22570693 0.32519254 0.30387485 -0.083299145 0.021923287 0.19921404 -0.059074853 -0.09070076
-0.026609324 -0.10437132 -0.056094564 0.24229601 -0.0034779166 0.18756163 -0.033066176 -0.058015883
0.25031796 -0.23528604 -0.19798283 -0.05232235 0.02700252 -0.008283829 -0.0012759446 -0.05962848
0.16941583 0.20567453 -0.2108889 0.1073201 -0.20081232 0.70066726 -0.34784177 0.0019456919
-0.16887015 -0.33073428 0.17471668 -0.1427728 -0.1658769 -0.15670903 -0.14612652 0.03528614
-0.07403417 -0.045235727 0.1966993 0.03071852 -0.0858684 0.19800773 -0.059194442 -0.34368348
0.2140852 0.0599202 -0.17946619 0.7288605 0.11031931 -0.04177359 0.15071794 0.07032846
0.08272269 -0.11224288 -0.19443311 0.25357586 0.25081983 0.2577113 0.014525412 0.002660811
-0.17668574 0.32996747 0.04093934 -0.040366013 0.029755548 0.24006237 -0.063547194 -0.11258201
-0.18445466 -0.040678583 -0.16038963 0.25015944 0.033159934 0.17027564 -0.13138403 -0.043505512
0.22428112 -0.2889111 -0.17592822 -0.0016676501 0.15504389 0.061571285 -0.010094972 -0.05009202
0.17237987 0.18581544 0.16358458 -0.04045499 -0.17062 0.29032734 -0.13853088 0.05313524
-0.14792381 -0.115154594 0.13984036 -0.14706178 -0.115946814 -0.088040166 -0.03189374 0.012419641
-0.14117719 -0.009708872 0.056794275 0.14668714 0.091253944 0.22080673 -0.12790503 -0.30060935
0.2045454 0.11872537 -0.018522559 0.0897852 0.08721834 -0.04898667 0.15970865 0.09580029
00000000: 5d85 383d 917b 133d e37c 12bc e500 56bc
00000010: ca57 07bc ae6a 7f3c 791f 67be b6e7 98bd
00000020: 77e6 1c3a d5e0 c9bc db70 c6bd 0921 af3d
00000030: b021 8d3d ebd7 38bd 5cf2 f93d 6e45 1fbe
00000040: a1c2 acbd baaf 703e 99a3 2d3d 31e3 3d3d
00000050: 468e 02be baba 293c 8b82 9cbc db47 fd3e
00000060: 8503 e33d 2d69 58be ae57 943b 3ac3 e13d
00000070: 292c 353e 85d9 ab3d 1ee6 dabc f63b 90bc
00000080: c648 28be c1b3 f53c 3d1b 11be 5706 973c
00000090: 53ba 29bd a90c e6be 2752 d43d ce26 723e
000000a0: cbbc fcbc a386 163d 55e8 813c 62e6 06be
000000b0: c783 b5bc 7ff5 b03c bf7a bc3d f2f3 5b3b
000000c0: e531 7fbd 104d 5fbd 5902 6ebd f2f1 d93b
000000d0: 7cde 973d 4328 513d 8da2 ddbb f523 c4bd
000000e0: 8cee b23d 6dad 453c eb22 2fbe f15e 3dbf
000000f0: 658c 0cbd 145d 6a3d 3aec 943d def1 933e
00000100: c86c ba3d 282f 1bbe 1335 2fbe 91f1 963e
00000110: fcc3 813e fa26 643e fe74 94bd 097c b03d
00000120: 3455 eebc ac6a 993e 5f76 123e c26e 44bd
00000130: d55f 643c 63ec 363e 0f81 7c3d 3ea2 3fbe
00000140: 1642 55be 502b 2dbd aa47 d7bd b186 683e
00000150: 3e16 50bc eb13 463e 322b 81bd f8ca a8bd
00000160: 772f af3e 9e1e 79be e3eb efbd c075 bd3d
00000170: 0f0d fc3d 5c49 c33d cc67 27bd 0973 05bd
00000180: a952 ec3d 8221 323e b9dd f93d f10e 373e
00000190: 4aab 0fbe 6cb3 5b3e 280f 73be b681 ca3d
000001a0: 391f 52be 559c 8cbe d050 163e 3a3b f8bd
000001b0: c961 97bd 51eb d4bd 926a 0ebe 895b 723d
000001c0: b5d9 753d 59a6 b03c 5a33 e83c c702 9e3d
000001d0: d783 4cbc 7ece 563e f5bf f1bd 9a98 96be
000001e0: 0e74 493e fa88 cc3d 5d79 d0bd c173 573e
000001f0: 0dbc d93d 460b ea3d 6f00 013e d033 4e3e
00000200: 28e4 453d 9a51 bdbc 401f 30be 8057 663e
00000210: e1d3 9e3e 01cf 773e 89b2 a13c a6d4 453d
00000220: b81f 67be a37f a63e 7c95 9b3e be98 aabd
00000230: 7798 b33c c4fe 4b3e 79f8 71bd 52c1 b9bd
00000240: ccfb d9bc a1c0 d5bd 6ac3 65bd 721c 783e
00000250: c2ed 63bb 2810 403e 6670 07bd 10a2 6dbd
00000260: ad29 803e d3ee 70be 03bc 4abe f64f 56bd
00000270: 6434 dd3c e6b8 07bc 993d a7ba fe3c 74bd
00000280: 587b 2d3e 589c 523e 43f3 57be a4ca db3d
00000290: bfa1 4dbe ee5e 333f 5118 b2be 9606 ff3a
000002a0: 4cec 2cbe 0156 a9be eee8 323e 0833 12be
000002b0: a2db 29be 5578 20be 31a2 15be 3388 103d
000002c0: 3a9f 97bd 1949 39bd 8b6b 493e 68a5 fb3c
000002d0: c6db afbd 8ac2 4a3e df75 72bd 48f7 afbe
000002e0: 2739 5b3e e26e 753d fcc5 37be 9a96 3a3f
000002f0: 17ef e13d c91a 2bbd ce55 1a3e 5e08 903d
00000300: 846a a93d 98df e5bd 7919 47be b2d4 813e
00000310: 756b 803e bcf2 833e fefb 6d3c 0061 2e3b
00000320: 1bed 34be 7ff1 a83e 02b0 273d d556 25bd
00000330: e8c1 f33c e9d2 753e 0825 82bd 6691 e6bd
00000340: afe1 3cbe 969e 26bd 2e3d 24be e614 803e
00000350: b6d2 073d bd5c 2e3e 8989 06be d632 32bd
00000360: f3a9 653e 28ec 93be 8726 34be 0d95 daba
00000370: d3c3 1e3e 2c32 7c3d 6265 25bc 4a2d 4dbd
00000380: 5984 303e 6746 3e3e b782 273e 22b4 25bd
00000390: 02b7 2ebe c9a5 943e 0adb 0dbe 56a4 593d
000003a0: 5779 17be 2cd6 ebbd 5032 0f3e 5d97 16be
000003b0: 8675 edbd 674e b4bd 03a3 02bd c07b 4b3c
000003c0: c190 10be f611 1fbc 1da1 683d 2735 163e
000003d0: 59e3 ba3d 291b 623e 89f9 02be 78e9 99be
000003e0: 5974 513e 4926 f33d 9fbc 97bc 4ee1 b73d
000003f0: 879f b23d 3fa6 48bd aa8a 233e f132 c43d

g.bias f4 [12]
0.081532896 0.079527825 0.027792027 0.08409124 0.15298449 0.10596203 0.2064723 0.09745662
0.20936978 0.18036774 0.22270584 0.20214295
00000000: b8fa a63d 7cdf a23d 1bac e33c 0738 ac3d
00000010: f7a7 1c3e 9f02 d93d 7a6d 533e 5697 c73d
00000020: 0865 563e 52b2 383e 000d 643e 90fe 4e3e
