model/ddn/5m_vs_6m/3_rnn_net_params.pkl (torch, 126663 bytes, 10 tensors)

fc_obs.weight f4 [64, 72]
00000000: d1f7 e3bc 0735 a8bc e2db 9ebd 0cf3 cbbd
00000010: 1293 f6bd fab6 bebb 6518 1e3d 5737 853d
00000020: ebd2 92bd ba4a 15be 1a71 2a3b 22f1 f53c
00000030: 680d 9f3e 3d94 fc3a 369b 033d 43ab 7abd
00000040: 956b 9a3d 5e06 fd3e a29e bc3d 0563 043c
00000050: 759b aebd 3502 dabd ac79 563d 9ac2 84bd
00000060: a7d3 88bc bced e6bc 4b41 953d a47a e83d
00000070: f1db 2f3d 4705 44bd 9506 b8bb 5460 6dbd
00000080: c2df d9be 8c8e 683e 3250 bf3c b302 3d3e
00000090: 52bb 1a3f 51bf 5f3e 719e 553d 5558 9abd
000000a0: 94ae d5bd e4fd e03e 86eb 4dbd 2bb5 963d
000000b0: 510b 193c 8172 823e d29f 263f 4444 d03e
000000c0: bb3c ff3d 7423 0d3c 88fa b93c a552 5d3e
000000d0: 7dd2 893e f5fa fc3d 8e80 b63d 2bb7 80bc
000000e0: e03a 253d 6439 543e b403 25be 4c7b bebc
000000f0: beb9 b9bd d7e8 b2be c636 9cbd e633 7b3e
00000100: fd8d eabd 3eed b1be 6f8e b83d 3636 ffba
00000110: 04bd a8bd e028 aebd 816c 01bd 15d5 f4bd
00000120: 20d7 a93d d411 69bd 05a4 573d 0a3c 19bd
00000130: cc09 cd3d df07 a5bc 366d 053d 55f4 94bb
00000140: 1ff8 f33c 6844 183d 73bc 3f3c 3fb4 72bd
00000150: 909b 68bd 8363 e9bd 33b9 2cbd 6058 883d
00000160: d9fa 303c 7740 edbd f331 2a3e 4183 f23d
00000170: f287 163d 19c8 683d c905 913d 1c78 24bc
00000180: 3c54 933d e13c ff3d a092 d23d 8a20 ad3d
00000190: 7f3f c0bd 3120 d03c 8191 553d f741 ce3d
000001a0: fdaa 1ebd 6c4d d43d 39c6 53bd a812 623d
000001b0: 76e4 2cbe 2321 c33d 5ea6 61bd e556 96bd
000001c0: c24f 3abd b61d 59be 205f 00be 44c2 fdbd
000001d0: 59bc 97bc 7c07 15be f5e4 06bf bd99 6b3d
000001e0: c4dc ae3d 7ed5 e13b 638b 80bd b001 c8be
000001f0: c1fd 3d3d 67dc 28be 3951 d4be 1992 8dbc
00000200: c4a7 963d 85b8 223d dda5 183e 31cc 853d
00000210: 2ba2 0a3e 9332 613e 14e6 113e 00e6 3e3e
00000220: eb98 463d 082b 6b3e 82f2 c83c 4913 26bd
00000230: 93d5 d0bd 60d8 a6bc 3182 94bc 770c d53d
00000240: 4c05 9ebd 3b4e ddbd a960 a93d fca3 a13d
00000250: 1604 a3bd a0b6 993d f846 633c e66e ae3b
00000260: 80cb 30bd b19b e9bd 5b5b 06be 3285 873d
00000270: ba35 f1bd 27a5 023e fa34 c3bd a757 ebbd
00000280: 07e5 ff3c 6c19 083e c0e9 113e b197 b1bd
00000290: 7ef7 6d3d 859f 81bd 7102 55be 0c39 aa3d
000002a0: 03e0 fdbd bf2b 89bd 5c36 f1bd 1348 d53b
000002b0: 21ef a53d d301 23bd f4d0 713d 482e 1fbe
000002c0: a722 8cbe cbc2 02be fed7 ca3c 2e8f 27bd
000002d0: 8bde 493e 965b b03d 8e23 023d 5edd 873d
000002e0: 8a6c 7abc 13b6 f1bd cf91 3abd d147 0f3d
000002f0: 8a7f 6a3b 398c 663d 91cb 893d baaf 583d
00000300: fc76 d43d f7cb 333c c2dc c53c 7297 2dbd
00000310: 5ebb 243e 6765 463e 2c50 f33d fbbf c3bd
00000320: c0ba fc3c a66a 7ebd 64e3 6b3d 6afe d4bd
00000330: b2f4 28be 78f6 1c3e a17e 423e 670c 3b3e
00000340: 2d00 e33d 6693 713e 0cb3 a83e 72ca 87bd
00000350: fc2f 17be b694 96bd abf0 19be c403 0bbe
00000360: 4f8f bcbd 11d9 c93d ac67 a03d b329 ab3d
00000370: 2a1f 24be c0e3 453d 4fd1 5dbc ea1c 47bd
00000380: a4f3 b3bc 9e3b 893d 4489 f6bc 8cdd 263d
00000390: bf12 e33d ea8b 8f3c 6a71 743d 209e 7abd
000003a0: dd3c df3c eb0a 803e 585b d53d 228a edbc
000003b0: 1c99 93bd 56c9 cbbc 3194 5d3c 0e8f 123d
000003c0: 1b6f 2fbc 3305 2ebd 71a7 413d 7c79 ae3d
000003d0: 4a60 81bd 5ee7 7a3d 501c 93bd be2d 5abd
000003e0: 4781 903c d49d 8b3c 340b fc3d dae1 773d
000003f0: 70a6 8d3e 11e7 0f3e b929 99bb d8ae a7bd
-0.027828129 -0.020533098 -0.07756783 -0.09958467 -0.1203977 -0.0058201523 0.038597483 0.06504696
-0.07169136 -0.14579287 0.0026007355 0.030022208 0.31064916 0.0019270253 0.032130443 -0.061198484
0.07540051 0.4941892 0.09209944 0.008080249 -0.08525745 -0.10644952 0.05236213 -0.0648243
-0.016702486 -0.028189532 0.07287844 0.11351517 0.04293436 -0.047856595 -0.005616019 -0.057953194
-0.42553526 0.22710627 0.02335367 0.18458061 0.6044208 0.21850325 0.052153055 -0.07536379
-0.10433689 0.43943703 -0.05027344 0.07358774 0.009341077 0.25477985 0.65087616 0.40677083
0.12462755 0.00861441 0.02270247 0.21613558 0.26918402 0.12352554 0.089112386 -0.015712341
0.04033935 0.20725018 -0.16114694 -0.023252152 -0.09068631 -0.34943268 -0.07627635 0.24531516
-0.11452863 -0.34751314 0.09011542 -0.0019471112 -0.08239177 -0.0850389 -0.031597618 -0.11954705
0.08292985 -0.056901768 0.052646656 -0.037410773 0.10011634 -0.020145355 0.032574855 -0.004545728
0.0297814 0.037174612 0.011702645 -0.059253927 -0.05678898 -0.113959335 -0.042168807 0.06657481
0.010801994 -0.11584561 0.16620617 0.11841441 0.03675074 0.056831453 0.070811816 -0.010038402
0.07193801 0.124627836 0.10281873 0.08453472 -0.09387111 0.025405975 0.052140716 0.100711755
-0.038737286 0.103663296 -0.05170271 0.055193573 -0.16884026 0.09527805 -0.0550903 -0.073407926
-0.04548622 -0.2120274 -0.12536287 -0.12390569 -0.018522428 -0.14553636 -0.5269311 0.057519663
0.085382015 0.0068919053 -0.06276586 -0.39063787 0.046384577 -0.16490327 -0.41468218 -0.017281579
0.073562175 0.039726753 0.14907022 0.06533087 0.13538425 0.21991949 0.14247924 0.18642426
0.048485678 0.22965634 0.0245297 -0.040545736 -0.10196986 -0.020366848 -0.018128486 0.10402768
-0.07715854 -0.10805937 0.082703896 0.07892606 -0.07959764 0.07505536 0.013871901 0.0053232787
-0.043162823 -0.11406649 -0.13120787 0.06617202 -0.11777826 0.12758313 -0.09531589 -0.11491328
0.031237138 0.13290948 0.14249325 -0.08671511 0.058097355 -0.06329254 -0.20801713 0.08311662
-0.123962425 -0.06697797 -0.11777946 0.006508836 0.08102251 -0.03979666 0.059037164 -0.15544999
-0.27370188 -0.1276962 0.024761196 -0.04090803 0.197138 0.08611219 0.03177219 0.06634019
-0.015284667 -0.11802306 -0.04554921 0.0349806 0.0035781586 0.05628607 0.0672828 0.05290196
0.10374257 0.010973922 0.024153117 -0.042380758 0.160871 0.1937462 0.11880526 -0.09558102
0.030850768 -0.062113427 0.057589903 -0.10400088 -0.16499594 0.15328395 0.18993618 0.1826645
0.11084018 0.23591384 0.32949102 -0.0663041 -0.14764398 -0.07352583 -0.15033214 -0.13575655
-0.092070214 0.09855855 0.07832274 0.08357563 -0.16027513 0.048312902 -0.013538673 -0.04861156
-0.021966763 0.06700824 -0.03009475 0.040738627 0.1108756 0.01752277 0.059678473 -0.061185956
0.027250702 0.2500833 0.10417813 -0.02899653 -0.07206938 -0.024876278 0.013524101 0.03578096
-0.010707642 -0.042485427 0.047278825 0.08519265 -0.06317194 0.061255805 -0.071831346 -0.05326628
0.01763977 0.017043032 0.12306824 0.060518123 0.27666044 0.14052989 -0.004674163 -0.08187646

fc_obs.bias f4 [64]
00000000: a034 6abd ac92 e53c 336c 533d 4a76 943d
00000010: c627 713d 2ccd ac3d 7632 a93b 18b2 413d
00000020: 1999 28bc edaa e93d c97f febc 7578 3cbd
00000030: 4fb2 53bd 7bd6 c43d 89ce bfbd 41f1 fb3d
00000040: daf6 ab3d 55ef 123d 9571 2bbd 5234 e23d
00000050: 9e54 843c 7f3a 803d 4dfc febd 4a1a ee3d
00000060: 4849 c3bd e100 f9bc a8b0 db3b 3a59 15bd
00000070: 7c32 143d fe0e 98bd cbc6 803c 1bc7 2d3e
00000080: c195 91bb 99e3 ad3d 311f 363c 0648 b73d
00000090: 6f2b cdbc ae9a 343d 12ab 123c 8276 82bd
000000a0: 6cd6 a83d 0af1 e03d e8df b9bd 556b 0b3d
000000b0: e360 103e 453e 7dbd 2612 fd3c 70e6 18ba
000000c0: 1e0e 58bd 8a92 e13d 3faf 813d eaf8 b53c
000000d0: a1cc b6bd 70e3 d339 8cd0 9a3d 22ec 763d
000000e0: b4c1 b33d 23b1 cb3d 4200 da3b aaab c7bd
000000f0: 9ead 04bd fc61 c43d edec fb3d e302 783d
-0.057179093 0.02802404 0.05161686 0.07249124 0.05887582 0.08437571 0.005163486 0.047288984
-0.010290408 0.11409555 -0.031066792 -0.046013314 -0.05168372 0.096112214 -0.09365565 0.12301875
0.083966926 0.035872776 -0.041856367 0.110451356 0.01615363 0.06261157 -0.12450466 0.11626108
-0.09535462 -0.030395927 0.0067044087 -0.036462046 0.03618096 -0.074247345 0.015719792 0.16970484
-0.004442901 0.084906764 0.011115835 0.08949284 -0.025045125 0.044092827 0.008951919 -0.0637026
0.08244023 0.109834746 -0.0907591 0.034037907 0.1409946 -0.061826963 0.030892443 -0.00058326777
-0.05274784 0.11014278 0.06332254 0.022213418 -0.089257486 0.0004041451 0.075593084 0.060283788
0.0877718 0.099458955 0.0066528628 -0.09749539 -0.032392137 0.095890015 0.123010494 0.060549628

rnn.weight_ih f4 [192, 64]
00000000: f607 e23e dcdd 653c d5a8 183e 05bc 1d3e
00000010: 74cf fc3b f361 a53e 9dfe 083e bbf6 9d3d
00000020: 1ffc 703d fa28 a23d b39f 36be 2ddf 0e3e
00000030: 4e34 a6be 133f 09bd a473 0bbe 17c6 5d3e
00000040: ec2e cc3d e1df 833c 19de 253e 0ba9 173e
00000050: b109 2e3c 3562 043e f318 f63d ca38 10be
00000060: 7664 c73b d3f6 293d 735d 60be cbe1 aabd
00000070: 62c3 f33d 42dd 85bd 41ee c73d f66e 27be
00000080: bedf 4fbe a7c0 7ebd 47ef cb3d 6b2f c23d
00000090: ce05 9e3b 4eb9 e23c d137 273c a8f1 d8bd
000000a0: 07cf a73c e814 073d eb9b 3e3e 0512 8f3e
000000b0: c2f8 fd3d 08a3 9dbd fb86 22bd 1e44 13bc
000000c0: e2cb 9abe a0ff 8f3e 54f3 62bd 599a 0bbd
000000d0: 3318 50be 17d3 11bd c52b ecbc d4d9 813c
000000e0: f5e8 ddbd ec6a b23c 7f2d 38be 0cc6 1ebd
000000f0: ee70 6bbd 4c5c be3e db89 623e 88bf 80be
00000100: 71d1 303e f564 5bbf 4e0a d6bc b66d 2abe
00000110: 1d34 183d 0a07 a7ba adf8 45bd a0f3 b0bc
00000120: 2674 9a3d 256e 50bf 0ad1 61bf eb76 ed3e
00000130: 4c81 cb3d ae1c 993c 46cf 543d 182a 28bc
00000140: 0f14 6c3d 51e4 10be 2500 863e 4783 0d3e
00000150: 9f87 edbc 3dba b8bd e419 6dbd a299 af3c
00000160: 6a95 163d ac00 4ebb f75a 1b3d 4f4f 73be
00000170: ffbb 98bb 979b 24bf 6630 38bd 0357 e7be
00000180: 9050 f0bd c436 d83d 9912 ef3d 5c30 13be
00000190: 3768 d7bd bde1 16be 2df1 e53d 6eb6 02be
000001a0: d536 293e ce03 8c3e 55e1 debc 9158 05be
000001b0: 4a91 56be 4ffb 41bf 9de1 41bf de4c 243d
000001c0: 236e 3fbf deed 6fbe 9865 2c3f 6382 95be
000001d0: 8be9 fb3c 4a4e aebc 0fb3 26be f19f e43d
000001e0: c2ce d63e 68a7 75bf 467c f1bd ea18 923c
000001f0: 870a c13d ea0a cabe eefc f8bd ceaa 9abe
00000200: c0e5 803e 428e 96be f37b 7d3e eae5 8f3d
00000210: 0881 1d3e 9f38 15be 7849 ab3d 77f8 a83d
00000220: f342 143d 5be4 bbbd 7a57 04bd f19e 91bc
00000230: a901 e83d dc4e 033e 0c68 b83d ee0c 97be
00000240: ad8f 863e f600 4ebd 7414 93be 2d89 54bd
00000250: 06ee 1a3e 0e92 51bd 3687 883c df82 163e
00000260: bd04 153e 5341 083e 06ef fbbd 4877 d6be
00000270: 4b11 1e3e aa31 69bd 73ff b4bc 1e73 dabe
00000280: 4268 f13d eaeb 5c3e 82a1 d5bd 709a 523c
00000290: c631 d1be 4dbf a53d 4298 b03e 255e 503d
000002a0: cf34 f5bd b6c4 0dbe 0b21 0b3e a922 823e
000002b0: 25fd 8abe fe92 03be 4d48 b23d a121 bf3d
000002c0: 0125 193e 8d70 793e e6d5 0bbe 6b90 ae3d
000002d0: e205 b13c e19c ed3d 9991 e4bc d27a d5bd
000002e0: ec06 1cbe 5db9 c9be 3d6e 8b3e 2749 8a3d
000002f0: 3a23 b13c f5f4 fbbd 4d25 723e dd24 6cbe
00000300: af38 933e 454e 523e 5e8b bb3d 2cca 03be
00000310: 9258 cbbe d29a f63e 237a 2e3d 9b77 eabb
00000320: 6f1f 85be 15de b2bd 553a cf3d 6f27 57be
00000330: c6bd 3bbd d753 e4b9 dda9 4fbe e188 cfbe
00000340: d356 0fbd b349 d83d 7095 abbe 9d0e 81be
00000350: e4b4 2ebe 164c b13e 0b68 233c 4765 36be
00000360: 7bdb 80bc d1fa cd3c 6254 c5be ad24 2abe
00000370: 6fe5 26be 1d90 b63d bd2d 2bbe 7600 8c3e
00000380: 2248 15be 946a f53d 556f 04bd 5e8b a5bc
00000390: 2aa6 aabd 83a0 09be 9cbf 53be 0b56 73be
000003a0: c012 e13d 694c 87be 4f7f 0bbe 4a99 93bd
000003b0: de92 32be c6e8 843e c826 483d 8bb0 ee3c
000003c0: 9d24 893e 0820 983d f153 f23e 7a49 fd3d
000003d0: 1ee3 a7be 1c3f 4c3e 64c1 403e 121a 95be
000003e0: a96f bebe f06b 1e3e e09d 30bc 186e e83c
000003f0: d8f4 d3bd b4ef fbbd e5e0 e6bd 3936 e53e
0.441467 0.014029946 0.14908154 0.15403755 0.00771516 0.32301292 0.13378377 0.07713076
0.05883419 0.07917972 -0.17834358 0.13952322 -0.3246178 -0.033507418 -0.13618332 0.21657597
0.09969887 0.016097965 0.16198005 0.14810579 0.010622428 0.12928088 0.120164774 -0.14084163
0.006084974 0.041495156 -0.21910648 -0.08343848 0.11902501 -0.06536342 0.0976224 -0.16350922
-0.20300195 -0.062195446 0.09957748 0.094817005 0.0048224693 0.02767625 0.010206179 -0.10592967
0.02048446 0.032978922 0.18614165 0.27943435 0.124009624 -0.07697111 -0.03967951 -0.008988408
-0.30233675 0.28124714 -0.055407837 -0.034082744 -0.20321731 -0.0356017 -0.028829465 0.015850939
-0.10835449 0.0217795 -0.17986105 -0.03876309 -0.057480745 0.37179792 0.221229 -0.25146127
0.17267396 -0.85700923 -0.02612796 -0.16643414 0.037159074 -0.0012743187 -0.04833286 -0.021600544
0.07541685 -0.8141807 -0.88209593 0.4637979 0.09936771 0.018690433 0.051955484 -0.010263942
0.057636317 -0.14149596 0.26171985 0.1381961 -0.028995333 -0.09019897 -0.05788602 0.021435563
0.036763586 -0.0031433506 0.037928548 -0.23760723 -0.0046610828 -0.6429991 -0.04496803 -0.45183572
-0.11734116 0.10557321 0.11673469 -0.14373916 -0.10517924 -0.1473455 0.11227641 -0.12764904
0.16524823 0.27346653 -0.027207056 -0.13022067 -0.20953861 -0.7577409 -0.75734884 0.04011237
-0.7477743 -0.23430583 0.6734252 -0.2920104 0.03075101 -0.021277566 -0.16279243 0.11163319
0.4195462 -0.95958567 -0.117912814 0.017834146 0.09425836 -0.39461452 -0.121576175 -0.3020844
0.25175285 -0.2940541 0.24754314 0.070262745 0.15381253 -0.1457238 0.083636224 0.08250516
0.03619666 -0.09174415 -0.032309987 -0.017775984 0.11328442 0.12823051 0.0900422 -0.29502052
0.2628149 -0.050293885 -0.28726542 -0.051888634 0.15129861 -0.05116468 0.016666036 0.14698361
0.14552589 0.13306169 -0.123014495 -0.4188788 0.15436284 -0.05693213 -0.022094464 -0.42665952
0.11787464 0.21574369 -0.10431196 0.012854204 -0.40858287 0.08093128 0.34491163 0.050871033
-0.11972963 -0.1384457 0.13586824 0.2541707 -0.2714626 -0.12849042 0.087051965 0.09332586
0.14955522 0.24359341 -0.13655815 0.08523639 0.02160925 0.11602188 -0.027901458 -0.10423817
-0.15237015 -0.39399233 0.27232543 0.06752234 0.021623243 -0.12302581 0.23647042 -0.23060937
0.28754184 0.2053767 0.091574416 -0.12870091 -0.3971601 0.48164994 0.042596947 -0.0071553714
-0.26000544 -0.08733765 0.10118548 -0.21011136 -0.04583528 -0.00043550014 -0.20279641 -0.40534118
-0.03499491 0.10560932 -0.3351245 -0.25206462 -0.17061192 0.3462836 0.009973536 -0.17812072
-0.015729656 0.025144013 -0.3854094 -0.16615553 -0.1629846 0.08914206 -0.16716667 0.27344102
-0.14578298 0.11983219 -0.032332737 -0.020208057 -0.083324745 -0.13440137 -0.20678562 -0.23763292
0.109899044 -0.26425484 -0.13622783 -0.07206972 -0.17438838 0.25958842 0.04886511 0.029136917
0.26785746 0.074279845 0.47329667 0.1236753 -0.32790464 0.1994595 0.18823773 -0.29121453
-0.37194565 0.15470862 -0.010779828 0.02837281 -0.103494346 -0.12301579 -0.11273364 0.4476793

rnn.weight_hh f4 [192, 64]
00000000: 40ac 9c3e c22e 62be 2d80 953d ed93 ea3c
00000010: dca4 603d 6559 403c 516e 20be ab01 c9ba
00000020: b197 423c c72a 243b 6537 063c 2d7c a2bb
00000030: 20b7 a53d 7a11 783e cf5a 7d3e dcc7 9ebe
00000040: b62d 7fbd 2ae5 153c e53f ae3c 04ac 403e
00000050: 886d a43d 42b4 753d 899d 333d e91d b23d
00000060: 3f0c 88bd 8440 5dbe 5355 f5bd 5c33 493b
00000070: 7df5 8a3e e084 c73d 19be ae3d f3f3 e1bc
00000080: 76d1 723d 5814 6a3e 8ce6 0fbd 6024 9c3d
00000090: 4b8f 05be a8b8 28bd 5a8f 133d f850 e3bd
000000a0: e27e 4bbb 9b55 11bd 22f2 53bd 3cb2 1d3e
000000b0: 0f4e 333d c411 07be 24de 8abe 4c17 563e
000000c0: 4141 93bd e8ad 3d3d 1674 903d 0007 afbd
000000d0: f28e 1c3e b04c 1a3d 0cfd 0dbd 3664 10be
000000e0: 7638 453c 058e c23d 4c3d efbd 7a9a 4a3e
000000f0: 0708 f6bd 6dd3 cfbc ded6 e0bd 7de4 223e
00000100: 43d7 2f3e b6d5 e4bd 9f7a f43c 0612 bbbb
00000110: f2ae 50bb d43a d6be 7bed d5bd 6b07 113c
00000120: 5327 43be 60f8 20be 1d6e 1e3e 86ee 92be
00000130: 9d78 9fbe f153 403e efd2 15be 626c 5dbe
00000140: 7a47 443e 06aa 91be dc40 143e df32 f4bc
00000150: f78c aebd 978e b63e 9d1a a73a d61a 3b3e
00000160: 1167 76bc 2201 623e 1c1f 4a3e b98e 713d
00000170: e0ba 863e 2229 073e 1931 bc3d baa7 b83c
00000180: 3c11 f93a 6fff 7b3e 17db 803e a9bb 263e
00000190: 8b6c dd3c 42d8 f43b 003c a5bd 6a90 863d
000001a0: 6932 95bd 1bc9 4e3e 9f13 163e ddb6 09bc
000001b0: 8c2e 073e 799e 2dbf 4733 a6bb 7a14 a3bc
000001c0: 1d63 233e 3f50 a23d 6097 893e 0547 6a3d
000001d0: 5eb2 153d 9d6f 94bc ee37 4bbe fd7f dc3d
000001e0: 7515 a33d 34f5 afbb 0a31 393d 7a46 eabd
000001f0: 5980 873e ac2f b1be 9299 5d3e 94f7 00be
00000200: 6310 523e 8076 8dbd db60 36be bb95 273e
00000210: 52cc b83d eacf efbd 024b 7e3e de5b 833d
00000220: 14af afbe 867e 193e 0f43 683e a294 b9bd
00000230: cbd2 7e3d 99ef 8a3d 2cc7 a7bb 2d1d 303e
00000240: 6999 d33b 71c3 afbc 50bb 553e 4951 173d
00000250: 176e 85bd 04c1 593d 41b6 69be 8c8c a6bd
00000260: ae2c 503e f12a 2ebd 208f 82bd 861f 1abe
00000270: dd11 29be 85d2 92be d23a d13d 7b4a 42be
00000280: c683 7c3e fe2b cb3c c727 c63d 3e20 b13e
00000290: 7bee 9dbe f3b5 9b3e 4d7f acbd 5c9c ce3d
000002a0: c586 53be 9641 f4bb 0634 0cbd 0f3e e5bc
000002b0: e35f 6cbd 487c f03d faf6 1bbe f761 54bd
000002c0: 5552 bcbd be9d 193f 514d 013e e907 3f3e
000002d0: ddd4 063d ddd1 673e f1a7 bd3c 470c a9be
000002e0: 455e b43b 11e9 2e3e c5cc 6f3c 9993 eebd
000002f0: 0450 5bbd 27a2 1dbe de62 1d3e 2bf3 dbbc
00000300: 5af9 053d 9ef0 babc f5ff a73d 0146 a3bd
00000310: 8c6a 03be a615 323e d2de 883c fcf0 10bd
00000320: 1927 2f3e 7fde 13be 3605 e53d bbbb 523e
00000330: 6327 f93e 8f87 8abe be9b dc3d d77d 813d
00000340: 68c1 5dbd 6cdb e43d 86cd c03c 3b3a 8cbd
00000350: 0d8b 1fbe 97ac b1be 0b52 a73d 5134 123d
00000360: e684 08be 8834 92be 0b1f 40be 0941 08bd
00000370: 0a62 66be 2ea3 aeba 3fc5 d43c 4c0c 6ebd
00000380: abdc 833d 3d74 18be b683 28be d0e6 80bd
00000390: 0b97 543d e46a 07bd bc8a b0bd bbc2 04be
000003a0: 1e29 06be 0cfd 373e 8c2a abbd d627 e1bd
000003b0: 8363 363d 43c0 9d3e 34bf c13d 178d 8c3d
000003c0: ba7b d5bd 9693 17bd 0e5b efbe e743 3ebd
000003d0: a69f c83d 499b 3abc 924d cd3d bb1a 5c3c
000003e0: ac0a a5bd bafe 70bd 14be 943c 7235 183e
000003f0: 5794 15be 5714 3b3e 1454 fc3d 7157 063d
0.30600166 -0.22088149 0.07299838 0.02863499 0.054844722 0.011740063 -0.15667082 -0.001533558
0.011876986 0.0025049911 0.008191918 -0.0049586506 0.08091569 0.24225417 0.24741672 -0.31011856
-0.062299453 0.009148875 0.021270702 0.18815619 0.08028704 0.05998636 0.04385141 0.08697111
-0.06642961 -0.21606642 -0.11979165 0.0030700779 0.27140418 0.09742141 0.08532352 -0.027582144
0.05928179 0.22859323 -0.035131976 0.076241255 -0.13042943 -0.041191727 0.036025383 -0.11099428
-0.003105097 -0.03548203 -0.051744588 0.15400022 0.043775614 -0.13190371 -0.27122605 0.20907325
-0.071901806 0.046308428 0.07053392 -0.08546257 0.15288904 0.03767079 -0.034665152 -0.14100727
0.012037387 0.09499744 -0.11681613 0.1978549 -0.1201325 -0.02536937 -0.10978483 0.15907474
0.1717196 -0.111735746 0.029843627 -0.0057089357 -0.0031842557 -0.41841757 -0.104456864 0.008851866
-0.1905797 -0.15719748 0.15471692 -0.28697604 -0.31146708 0.18782021 -0.14631246 -0.21623376
0.19167891 -0.2845003 0.14477867 -0.029809413 -0.08522981 0.35655662 0.001274902 0.18271956
-0.015039221 0.22070745 0.1973843 0.058974 0.2631445 0.13199285 0.09189052 0.022540916
0.0019002329 0.24609159 0.25167152 0.16282524 0.027029296 0.007472069 -0.08068085 0.065705135
-0.072850056 0.20193903 0.14655922 -0.008405414 0.1320135 -0.67819935 -0.0050720307 -0.019907225
0.15955777 0.07925462 0.26873302 0.057196636 0.036547057 -0.018119628 -0.19845554 0.10766599
0.07963077 -0.0053698067 0.045212783 -0.114392236 0.2646511 -0.34606683 0.21640614 -0.12594444
0.20514064 -0.06907368 -0.17810385 0.16365711 0.09023346 -0.11709578 0.248333 0.06414007
-0.34313262 0.14989671 0.22681831 -0.090615526 0.062212747 0.06783981 -0.0051201787 0.1719863
0.006457497 -0.021455498 0.20872235 0.036942754 -0.065151386 0.05316259 -0.2282343 -0.08132276
0.20329544 -0.04252142 -0.06374955 -0.15051088 -0.1651072 -0.2867624 0.10216297 -0.18973725
0.24659643 0.02480125 0.09675556 0.3459491 -0.3084601 0.30412254 -0.08422718 0.10088417
-0.20656879 -0.0074541075 -0.0342293 -0.027983693 -0.057708632 0.11742455 -0.15230933 -0.05185124
-0.09195391 0.6000632 0.1262715 0.18655361 0.032917846 0.2263865 0.02315137 -0.3301718
0.005504402 0.17081095 0.014636223 -0.11649246 -0.053543106 -0.15393887 0.15369746 -0.02684935
0.032708503 -0.022819813 0.08203117 -0.079723366 -0.12833613 0.1739107 0.016707812 -0.03538607
0.17104758 -0.14440344 0.111826345 0.20579426 0.48662862 -0.27056548 0.10771893 0.0632283
-0.054139525 0.11174664 0.023535501 -0.06847044 -0.15580387 -0.34701988 0.08169945 0.035694424
-0.13331947 -0.28555703 -0.18761842 -0.033265147 -0.22498336 -0.0013323778 0.02597296 -0.058117196
0.064385734 -0.14888091 -0.16456494 -0.06294024 0.05190186 -0.033060923 -0.086202115 -0.12964909
-0.13101622 0.17967623 -0.083577245 -0.10993926 0.044528496 0.30810747 0.09460297 0.06862848
-0.104239896 -0.037005983 -0.46749157 -0.046451475 0.097960755 -0.011389562 0.10024561 0.013434107
-0.08058676 -0.058836676 0.018157043 0.14864138 -0.14607368 0.18269478 0.12320724 0.032798234

rnn.bias_ih f4 [192]
00000000: fac0 593e de76 20be 2c14 1ebe b09e 07bc
00000010: b250 173d b207 d2bc 6d84 ae3c 6487 98bd
00000020: 6082 6ebc 42cb 613d 17f9 dbbd efba 81bd
00000030: 7b93 a23d 7050 2d3c c846 9ebd 321e 2fbe
00000040: 1af9 54bd 60f1 a5bd 333d 173e 56ba 073d
00000050: 2c53 04be cc51 063e c664 3b3c ea41 86ba
00000060: 8b31 88bd dce0 47bc 80fc 083e b00d 9c3a
00000070: d12b a43c 54d0 9f3d 6c6a 90bd 6dd2 99bc
00000080: d913 5a3c aed3 0ebd 3965 71bd a405 9d3a
00000090: 6b06 74bc 0645 d23d 58d4 41bc a2ba b83d
000000a0: 9cef cabc 3b7e 483d 9f26 f7bd 2bfe 46bd
000000b0: 2f36 3a3e f684 113e df81 73bd 0ffb cabc
000000c0: 7779 45bd c133 8ebd eee8 cbbd a3c4 083e
000000d0: 24c1 813c ff97 94bd eb64 b23d a5b6 cdbc
000000e0: b497 0ebe f61f 95bd 8383 7ebd 5e6a 3e3d
000000f0: f89c 11be 4389 a63e b48d 7fbd cb7c 2bbd
00000100: f8db 663d a6cd 60bd 34b2 463c ce38 67be
00000110: 262f 8ebc b101 49bd f6a6 2ebd de40 3abe
00000120: c0dc 9b3d 2447 d1bd 4cd4 d73d 4bb5 cf3b
00000130: 8e9c f5bd 4afb 60be 148c 853c 3aa8 b0bc
00000140: 87a5 57bd 34a0 53be bb07 3b3d 9474 33be
00000150: 3667 c9bd 6326 1e3c c4e5 49be 6b19 573c
00000160: 880e bc3c 4cf5 6dbd 971d 7fbe 86dc 32bd
00000170: 5e8d 8fbd b224 81be 8c32 5ebe 2192 cbbd
00000180: a94a 073a 93fa 9ebe dc75 bb3d aa4c d13d
00000190: f89d 62be c0a7 edbd b2a7 61bd fe0c 643c
000001a0: 85f1 c53c 2729 89bd 6e2e 70bd f4a0 ccbd
000001b0: 249f 50be 97da e0bd c6d5 79bd 83dc ef3d
000001c0: 657f 65be d217 a23d b6bc 143c e3fd 3a3d
000001d0: b416 71bd 8da6 b03c 233e 70bd afcf 22bd
000001e0: dc74 34be 46f1 b33c 9211 11be 9e87 d53d
000001f0: fc52 d53c 2a46 a4bc 31c0 02be c93a cbbd
00000200: a838 1c3d b155 393d 4f43 e8bd af20 173e
00000210: 682d f33d c36e 8e3d 0cc0 24bd e68a 5b3d
00000220: 9b46 14bd 527b 53bd b747 b03d 5676 adbd
00000230: f93e 87bd c5ef 6dbd fe62 273c cf03 013e
00000240: 8155 3d3d 97bd 913d 5962 e7bd ada1 193e
00000250: 2b7d 04bc 6016 0dbd 193e febc 7a86 38be
00000260: 1ad5 15bc d284 113d acbf 5a3d 8dc5 513d
00000270: d4e1 82bd e8ff f13d 6733 dfbd 3b45 7cbd
00000280: b062 273e a101 69bd 4d3a 0dbe 5345 89bb
00000290: 60fb cf3b a11d be3d cecc 34bd ef71 993b
000002a0: d05d 9b3c 1027 04be 2856 f53c 6ccd 71bd
000002b0: 6d6a ed3d 3a1c cbbd fada 3ebe 9a40 a03d
000002c0: 044f 323e 222b dd3b 0067 f3bd bf0e f43c
000002d0: fd2d 093e 7908 bb3d 7c2a a6bd c990 243d
000002e0: fb38 39bc 97d5 4b3b 127f d3bd c2ef d4bd
000002f0: b97e 983d a3da 153d 7747 76bd 80a0 ca3c
0.21265021 -0.15670344 -0.15437382 -0.00827758 0.03694219 -0.025638435 0.02130338 -0.07447699
-0.014557451 0.055125482 -0.107408695 -0.06334483 0.07938286 0.01057826 -0.07728344 -0.17101362
-0.051995374 -0.08102679 0.1476944 0.03313669 -0.12922353 0.1311714 0.0114376005 -0.0010243033
-0.066500746 -0.012199607 0.13377571 0.0011905935 0.020040425 0.07803407 -0.07051548 -0.018777097
0.013310396 -0.034869842 -0.058934424 0.001197983 -0.014894108 0.102670714 -0.011830412 0.090199724
-0.024772458 0.048948508 -0.12067913 -0.048582237 0.18184732 0.14210877 -0.059450027 -0.024777917
-0.04821154 -0.06943465 -0.09956537 0.13356261 0.015839167 -0.072555535 0.08710655 -0.025111506
-0.13925058 -0.07281487 -0.062137138 0.04648816 -0.14220035 0.32526597 -0.062390998 -0.04186706
0.056362122 -0.05488362 0.012127448 -0.22580263 -0.017356467 -0.04907388 -0.042639695 -0.18188807
0.07610464 -0.10218647 0.10538539 0.0063387505 -0.11992751 -0.21970859 0.016302146 -0.021564592
-0.052648094 -0.20666581 0.04566167 -0.1752494 -0.09834139 0.009652707 -0.19716555 0.013128619
0.022956148 -0.05809526 -0.24913631 -0.04366734 -0.070093855 -0.2522331 -0.2169897 -0.09939981
0.00051609665 -0.31050548 0.09153339 0.10219701 -0.22130573 -0.116042614 -0.055091567 0.013919113
0.024163017 -0.06697302 -0.05863803 -0.09991637 -0.20373207 -0.10979193 -0.060994886 0.11711981
-0.22411878 0.079146996 0.009078195 0.04565228 -0.058859542 0.021563793 -0.05865301 -0.039748844
-0.17622703 0.021965634 -0.14166859 0.104262576 0.026040547 -0.020052988 -0.12768628 -0.09923322
0.03813997 0.045247737 -0.11340963 0.14758562 0.11873895 0.0695472 -0.040222213 0.05359926
-0.036200147 -0.05163128 0.086074285 -0.084698364 -0.06603808 -0.05808999 0.010216473 0.12599109
0.04622412 0.071162395 -0.11298055 0.1500308 -0.008086483 -0.034445167 -0.03103547 -0.18020049
-0.009145046 0.035527058 0.05340545 0.05121379 -0.063907295 0.11816388 -0.10898476 -0.06158946
0.1634624 -0.05688632 -0.13791771 -0.0041891723 0.006347105 0.09282995 -0.04414063 0.0046827714
0.018965632 -0.12905526 0.029948309 -0.059033796 0.11592565 -0.09917493 -0.1863822 0.07824822
0.17412955 0.0067495266 -0.1188488 0.029792188 0.1339645 0.091324754 -0.08113572 0.04017714
-0.011305089 0.0031102651 -0.10326971 -0.10397293 0.074460454 0.03658546 -0.060126748 0.024734735

rnn.bias_hh f4 [192]
00000000: 5789 0a3e 8112 30be d7f7 323c a935 233d
00000010: 1064 ae3d 57cf e8bd c468 9d3d 879c c8bc
00000020: eba9 9bbd 824c c0bd 105e cdbd a18b b13c
00000030: 8cb7 323d 5024 ac3d 28eb bb3d 8773 08bd
00000040: 7d9c d13c 0456 2f3d 83f2 903d c0b9 c53c
00000050: 2a66 c9bc 778c 50bd 3fc4 aa3d 4c59 82bd
00000060: 2fe1 e4bd 0f63 b2bd 3009 6f3c 48c4 8abd
00000070: bbff 1abd e328 fa3c 4174 74bd 991c 88bc
00000080: b599 09bd 81bb b73d e337 26bd f298 67bd
00000090: dce9 fc3d 21a9 293e bcba 053e 7270 203d
000000a0: 22ff f7bd 7986 94bd f5b6 d8bd 5ba7 1f3e
000000b0: 7a17 67bc 09cb 2f3d 011a cfbd bb0e c83c
000000c0: 25f6 06be bf22 d33d 8df9 64bd 69b1 db3d
000000d0: 0eee 893d 4922 04bd 1bde e13d ba9d 953d
000000e0: 01cb 3eba a37c d73d c9a6 9d3d ba7c 13bc
000000f0: cfa1 bfbd a5f2 163e 8def 8f3c 0e1f 19be
00000100: e3b2 813c 3858 90be 7db8 973d 774f 95be
00000110: e13a 47be 3ac7 d9bd b69d 4cbd 95d1 853c
00000120: 21e0 003d f68b 70be a98f 963d f463 bfbd
00000130: 2a05 393d 6081 02bd e920 b43d ee0e d6bd
00000140: af11 763d f091 75be 1d14 973c 1035 42be
00000150: 707d 23bd 293e 86bd a272 8bbe d4d2 d93c
00000160: d5bb ae3d 5b24 edbd d151 afbd 4b0d 25be
00000170: 410b 06be b704 75be b3a8 25be 19f9 d8bd
00000180: 2e92 d1bd 6202 68be 46d3 c83c a289 733e
00000190: 2018 febd 9b7f a6bd 062d 0abe e1e4 ccbd
000001a0: 1d54 fe3b 9d58 c7bd 04a2 24bd c724 cabb
000001b0: 17ef 19be 3a51 fa3d 2ff4 89be d3bd ac3d
000001c0: d63e 97be a193 ffbc c6fa d33b bb61 133d
000001d0: 4f50 bebd 1e9d cabb 3e75 893d f7e5 f4bd
000001e0: 889d 8bba 6361 88bd 6a13 d5bd e547 853d
000001f0: a8be 0d3e 294a db3c d5a1 b43d 72ba 253d
00000200: be62 3fbe f204 113e ef5b 753d 8175 133d
00000210: a179 0f3d 974f be3d bd96 943d 3b96 2a3d
00000220: e4ba a5bd 9dd0 e8bd da33 6abd b66a 0bbd
00000230: 9396 333e 62ba 523e 5141 a53d ddec e43d
00000240: 937e 4f3d d064 c3bd fb38 8c3d e81b 0b3d
00000250: 2935 453d f64c 4c3e a7d6 54bd 8bae e03d
00000260: e5f9 71bd d3a8 523d fd7e 77be 33e1 37bd
00000270: 64ab 0d3e 9e0f 5cbd 37e1 023e 7b4e 703d
00000280: 2469 00bc 7b71 023d ab4c 8abb de5c 9e3d
00000290: 3eb3 65bd 718e b6bc 9db8 193d 89cf a13d
000002a0: 01a2 9c3d 24d9 dabd 8a66 153e e204 36bd
000002b0: 3dcf 9dbc 8163 c2bd 132e bb3d bfaa ac3c
000002c0: 4025 a43b 1850 da3d 0280 283d c859 7fbd
000002d0: 35dc c93d 247c 2a3d 9b98 823d eea5 6dbd
000002e0: 13c0 09be bac0 d83d 3de6 64bd e92c 6439
000002f0: 4734 d23d 8c1e 9e3d ecad 84bd f99f 33bd
0.13528953 -0.17194559 0.010923347 0.039846096 0.08515179 -0.11367672 0.07685998 -0.0244887
-0.07600769 -0.09389593 -0.100277066 0.021673026 0.043632075 0.084053636 0.09175712 -0.0333133
0.025587315 0.04280664 0.070775054 0.024136424 -0.024584848 -0.050915208 0.08338212 -0.06364688
-0.11175763 -0.087103 0.014589593 -0.06775719 -0.03784154 0.030537074 -0.05968118 -0.016615199
-0.033593852 0.089713104 -0.04058064 -0.056542344 0.12349293 0.16568424 0.13059515 0.039169736
-0.121092096 -0.07252211 -0.10581771 0.15591185 -0.014104718 0.04291824 -0.10112382 0.024421087
-0.13179834 0.10309362 -0.055902053 0.10727198 0.067348585 -0.03225926 0.110286914 0.073054746
-0.0007278175 0.105218194 0.07697827 -0.009001905 -0.093570344 0.14740999 0.017570281 -0.14953253
0.01583237 -0.28192306 0.07408235 -0.2916219 -0.19456054 -0.106337026 -0.049955092 0.016335288
0.031463746 -0.23490891 0.0735162 -0.093452364 0.04517094 -0.031861663 0.087953396 -0.10452066
0.06007546 -0.23981452 0.018442208 -0.18965554 -0.03991455 -0.06554825 -0.27235895 0.026589788
0.0853192 -0.115792 -0.08560527 -0.16118352 -0.1309023 -0.2392758 -0.16177635 -0.105943866
-0.1023296 -0.22657159 0.024514806 0.23782972 -0.12406945 -0.081298076 -0.13493738 -0.10004593
0.007761492 -0.097336985 -0.040193573 -0.006168935 -0.15032612 0.12222524 -0.2694411 0.084346436
-0.29540128 -0.031198325 0.0064691035 0.035981875 -0.092926614 -0.0061832806 0.06711815 -0.11957925
-0.0010651806 -0.066592 -0.104040936 0.065078534 0.13842261 0.02676876 0.088199295 0.04046101
-0.18690011 0.14162043 0.059902128 0.036000732 0.035028104 0.09292524 0.072553135 0.041647177
-0.08092287 -0.11367915 -0.057178356 -0.034037314 0.17537908 0.20578912 0.08069099 0.111779906
0.05065782 -0.09540713 0.06846806 0.03396216 0.0481464 0.19951233 -0.05196252 0.109707914
-0.05907621 0.051430535 -0.24169536 -0.0448925 0.13834912 -0.05372583 0.12781225 0.058668595
-0.0078375675 0.031846505 -0.0042205653 0.07732557 -0.05607914 -0.022284718 0.037529577 0.07900912
0.07648087 -0.106859475 0.14589897 -0.04443825 -0.019263858 -0.09491635 0.09139647 0.021077512
0.0050093234 0.10659808 0.041137703 -0.06234148 0.09856454 0.041622296 0.063767634 -0.05801957
-0.13452177 0.10583635 -0.055883635 0.00021760505 0.10263877 0.0772067 -0.064784855 -0.043853734

phi.weight f4 [64, 8]
00000000: 98fe 1ebe 60ff 1abe f2f0 a7be 8790 9e3e
00000010: ec96 5b3e 92aa b0bd 2843 883e 2da6 c9bd
00000020: e6e5 073e 08eb c2bd 7714 be3d c784 84be
00000030: b32d 89be 1f43 ed3d 4419 543d ae48 c3bd
00000040: 06c9 e13c e7cd bdbe 1af5 9d3e f185 eb3d
00000050: 6a59 a93e 4905 88bd 3c46 27be 4510 13be
00000060: 2077 fc3d 35f8 9c3e 9331 cdbe 2b38 303e
00000070: a6e0 0fbe 27fc 0d3d 5024 96bb 1b3f 03bd
00000080: 4e49 d13e 44d8 babe 0be7 873e cb2a 0e3e
00000090: f132 693c 41bc 24be 9075 63be c767 ef3b
000000a0: 272d f43e 808c 523d da4a 7abd 4fbc bebc
000000b0: ba87 8ebd 82cf 403d 9baf ddbb 3452 fdbc
000000c0: bc73 b4bd b986 79bc e224 ae3e f846 83be
000000d0: 3bc1 f8bd 5433 c63d b53e b93d 94b3 23be
000000e0: c089 a6bd 7cad 923e 2258 f23e 3ee9 843e
000000f0: 83ec 8a3b c080 8abe a347 0e3e cc37 953d
00000100: 5fc1 d8bd 549c 93be ff22 0f3e ac78 5d3e
00000110: fcfc 2fbc 06c3 23bc bbb0 46bd 5930 133d
00000120: c431 e33e e747 dfbc 7b08 6cbb aee0 213d
00000130: 0c71 07be 655b 173e dc5d 12bd 646c c43c
00000140: e7c4 603e df7e d53e 1066 5c3c c813 6c3e
00000150: e539 0d3d 5152 073e 5dd0 f6bd 6a88 36be
00000160: a8a1 253e 4014 233c 5365 2a3e 6dc6 7a3d
00000170: 02cb 90bd fb57 0fbe f301 bf3d b1ea 5b3c
00000180: e61d 31be 8f21 853e 81b2 73be 7dcc 463e
00000190: fdef 1ebe 9c95 813d b029 02bd aa3b 473d
000001a0: 1c8c ecbd 0b5e bd3c 81ec 3dbd 0a29 a03e
000001b0: efb6 39bd 95bd 503d 3c14 103e 04c8 d5bd
000001c0: 5cb4 833e 5ff2 603e 207a bf3e be1a a1be
000001d0: 2168 b23e dbdc c23d 5f1e 04be 7252 fcbc
000001e0: 8f38 663e 349b 14be d8aa 81bd 7576 9e3b
000001f0: 5ba6 debc cd46 63bd 3040 f33c 34c0 abbc
00000200: 4f44 c43e 9396 69be 6e73 58bd 4c4f d1bd
00000210: f4e1 d73d 82ee 1abe d734 b73d e466 653d
00000220: e014 bcbd 4178 743e 35a0 e8bd 68ff eabd
00000230: 4f19 4e3d 8573 41be db52 803d 0d33 1c3c
00000240: c5bc 9f3d 08de 39be dbec be3c 52a1 863e
00000250: 0a35 c53e a4ce 61be 7d29 223e 5486 48be
00000260: 2bf7 933e 9257 783e 548e c6bd 1a41 9ebe
00000270: 38ea 983e 8997 63be e729 b83c 5f1b 29bd
00000280: c36f 86be 3726 99be a4e4 2abe 8a76 2aba
00000290: c1e9 e63d ad3c 60bd 5a28 a43d e1e1 dc3c
000002a0: ffeb d23e c023 62be 816b 0fbe ac33 0abe
000002b0: fb6b 68bd ac45 46bd a705 603c da42 cb3c
000002c0: fd10 3dbe 8ec9 9abe 901c b93d 5749 87bd
000002d0: 7058 cc3e 8caf 953d 224b 9dbe 9d01 c4bd
000002e0: 3576 ca3e bd83 963b d03d e23b d056 b73c
000002f0: 0f70 283d 13aa 453c bd05 25bb 77c5 4e3c
00000300: 8899 333e aa43 96be a956 8e3d 1713 d03d
00000310: 82a3 453d 3484 903c b1b1 03be d611 e5bd
00000320: 810e 593d c629 97be a139 0a3e b6a4 a33e
00000330: f32d b73e 9af8 69bd 4534 5abd 0c4e d9bd
00000340: 72be 843e 9ead bf3d b417 1b3c 1061 c53c
00000350: 447e 973b c3cf 703c 2112 04bc 4a58 c839
00000360: 6ddf 0ebd 793a 833c e15e 0ebe 2611 15be
00000370: 9897 76be f5da 703e 0ee0 9a3e 335b 0ebe
00000380: 8f83 92be 0a2d 183e 2bb1 97be d29b 893d
00000390: 09e1 293d ff49 0fbe a635 04be 271e 08be
000003a0: 88d3 82bd db8f 183d 53c4 b13c d5b7 683d
000003b0: b592 90bd a274 ef3d f6d5 f73b 1d9f ed3b
000003c0: 1af6 943e e7f0 abbe 9b82 b13e 1335 a5bc
000003d0: 4efb 153e c7a5 c33e 44f5 a5bd c6d8 12be
000003e0: 067b 3a3e 708d 983e 8b1f 16bd 6233 eabe
000003f0: bc3a bdbe 5c34 57be b97a fd3c 32ca d6bd
-0.15526807 -0.1513648 -0.32801014 0.3096964 0.21444291 -0.08626284 0.26613736 -0.09846149
0.13271293 -0.09517485 0.09281247 -0.2588255 -0.26792678 0.11585068 0.051781908 -0.09535347
0.027561676 -0.37071154 0.3085106 0.11500157 0.3307603 -0.06641633 -0.16335386 -0.14361675
0.12327409 0.30658117 -0.40076885 0.17208926 -0.1405054 0.0346643 -0.0045819655 -0.032042604
0.4087624 -0.36493123 0.2654346 0.13883512 0.014233337 -0.16087438 -0.22212815 0.0073060724
0.47690699 0.051403522 -0.06110654 -0.023283152 -0.069594815 0.047072895 -0.0067653186 -0.030922987
-0.08811137 -0.015229874 0.34012514 -0.25640082 -0.12146231 0.09677759 0.090451635 -0.15986472
-0.081317425 0.28647983 0.47332865 0.259592 0.00423962 -0.27051353 0.13894515 0.07286033
-0.105837576 -0.28830206 0.13978194 0.21628064 -0.0107414685 -0.009995228 -0.048508387 0.03593478
0.44373906 -0.027255965 -0.0036015797 0.039520912 -0.13226718 0.14780958 -0.035734043 0.023977466
0.21950112 0.41698357 0.013452068 0.23054421 0.03447904 0.13214995 -0.12051461 -0.17825475
0.16174948 0.009953558 0.16640215 0.06122439 -0.07069971 -0.13998406 0.09326544 0.013422654
-0.17296562 0.26002166 -0.23798563 0.19413944 -0.15521236 0.06327364 -0.031778038 0.048640884
-0.11550161 0.023116132 -0.046368126 0.3128131 -0.045340475 0.05096205 0.14070219 -0.104385406
0.2572354 0.21967457 0.3739786 -0.31465715 0.3484507 0.09514781 -0.1290221 -0.030801032
0.22482513 -0.1451233 -0.06331414 0.0048358985 -0.027178934 -0.055487443 0.029693693 -0.020965673
0.38333365 -0.22811346 -0.052844457 -0.10220203 0.10541144 -0.15130046 0.08945625 0.056006327
-0.09183669 0.23873998 -0.11358682 -0.11474496 0.050317105 -0.18891723 0.062658034 0.009533656
0.07799677 -0.18151104 0.0233063 0.26294953 0.38517028 -0.22051483 0.15836139 -0.19582492
0.28899512 0.24252155 -0.09695116 -0.30909044 0.29866195 -0.22225775 0.022480918 -0.04128587
-0.26257142 -0.29911968 -0.16688782 -0.0006502649 0.11275054 -0.054745365 0.08015509 0.026963176
0.41195676 -0.2208395 -0.14005853 -0.13496274 -0.056743603 -0.048406288 0.013673223 0.02481215
-0.18463512 -0.302319 0.09038651 -0.06605785 0.39911222 0.073088735 -0.30721384 -0.0957062
0.3954331 0.004593341 0.0069043413 0.022380263 0.041122492 0.012064475 -0.0025180422 0.0126203215
0.17539036 -0.293485 0.06950123 0.10159891 0.048251636 0.017641164 -0.12860753 -0.111850426
0.052992348 -0.29524058 0.13498546 0.31961602 0.35777244 -0.05712185 -0.053272504 -0.106105894
0.25926548 0.09359287 0.0094661005 0.024094135 0.0046232063 0.014697972 -0.008060963 0.00038212753
-0.034881044 0.016019093 -0.13903381 -0.14557323 -0.24081266 0.23521025 0.30249065 -0.13901977
-0.28615996 0.14860931 -0.29627356 0.067191735 0.041474376 -0.13993071 -0.1291109 -0.13292752
-0.06388003 0.037246566 0.02170006 0.05681594 -0.07059232 0.11692168 0.007563348 0.007251634
0.2909401 -0.3358223 0.34669957 -0.02016691 0.14646646 0.38212416 -0.08103421 -0.14340505
0.18210992 0.29795408 -0.036651175 -0.45742327 -0.36958873 -0.21016067 0.030942308 -0.104877844

phi.bias f4 [64]
00000000: cd2e 8cbe 862c b03d ee51 ac3e 09ff b73e
00000010: e9e5 c43d f5f1 bb3e 8f4e 933e e574 cb3e
00000020: e22c c3bd a6fb 983e 7893 203e 29e4 1bbe
00000030: 4fc6 a73e 1c2c 9a3e 9def 38be 7e5a 9d3e
00000040: 8c89 a93e 004f db3e 108d b7be 1e9e ca3d
00000050: ec7d 713e 2959 5cbe 01e6 c93e 9cb2 083e
00000060: 34d8 fbbc c517 4f3e 3d38 793e f250 f53d
00000070: 0e8f 913e e77a de3e e32e 19be 9f33 55be
00000080: c119 733e 0459 75be 245b cc3e b1a0 313e
00000090: 8455 8d3e 1e85 2ebe f675 443d 10ce 5ebd
000000a0: d0c3 513e 2135 143e e316 09be fd6d 78be
000000b0: 7058 4c3e 378b 9abd b01a 743e 2b6d 01be
000000c0: d411 a83e 8ddd d3bd d714 d03d b050 c43d
000000d0: a997 8f3e 4c71 ab3e b32d 93be bad6 8b3e
000000e0: 79ae a63e c460 82be 1d53 2a3d f0b0 1dbe
000000f0: 4c21 8a3e ea80 d9bd 965a 1fbd 07ec 3b3e
-0.27379456 0.08602242 0.33656257 0.35936764 0.096141644 0.36708036 0.28770873 0.3973762
-0.09530045 0.29879493 0.15681255 -0.15223755 0.32768485 0.30111778 -0.18060155 0.30733103
0.33112752 0.4283371 -0.3584981 0.0989344 0.23583192 -0.21518387 0.39433292 0.13349384
-0.030742742 0.20223911 0.2433786 0.1197833 0.28429455 0.43453142 -0.14959292 -0.20820473
0.23740293 -0.23959738 0.39913285 0.17346455 0.27604306 -0.17042968 0.04796406 -0.054395735
0.20484853 0.14473392 -0.13387637 -0.24260707 0.19955611 -0.075460844 0.23838305 -0.126393
0.32826102 -0.10344992 0.10160225 0.095857024 0.28045395 0.33484876 -0.28745803 0.2731226
0.32554987 -0.2546445 0.04158317 -0.15399528 0.26978528 -0.106202915 -0.03890475 0.18351756

g.weight f4 [12, 64]
00000000: 96eb 22bc 2db4 10be b34b 90bd 3298 f63b
00000010: 1679 8fbd c449 98bd 3593 87be 3317 6bbd
00000020: cb9d 823d 3b94 c7bc 2d3c 72bd 91ae b93d
00000030: da53 a23c 6649 1d3d b3f0 1dbd 1a6f febd
00000040: bbe0 fe3c 8f1d 4b3d 4cd8 01bd 15d4 683d
00000050: 65b5 1abc b1ac 993d ec73 463e 054e a93e
00000060: c897 b4bc 0fc2 1fbd 72c0 79bb 5584 653d
00000070: 9c73 943d 9c99 803c 634b 043e 083b 983c
00000080: a682 97bd c856 513d 2a48 83bd 7503 4fbd
00000090: c12b af3d 6b9e 5abe d63c 423e fa3a 0fbd
000000a0: a04f 8e3b fa7e da3c 837f e93d 8713 77bd
000000b0: 4e2c 85bd a7ca da3c 1f1b ac3d 5def d23c
000000c0: fc60 99be f4b8 14be eb24 afbd 41fc a0bd
000000d0: efb8 8c3d dcb8 9e3d 7a8a 183d 4eda 313e
000000e0: bfe1 afbd f452 1bbd adc3 dd3b 806f 11b9
000000f0: edbc 9f3d 706d 2c3d cee4 51bd e4a5 7e3d
00000100: f0d9 f53c 7e2e e73d 5ee0 9cbd 64f9 c43d
00000110: 961f 2e3e af07 643e 3171 043e a6e6 173e
00000120: 37e9 b9bd eb8b 143e eae9 2f3e b3d4 e43c
00000130: c8c0 a4bd 0596 793d 7ebd 22bb d723 0e3e
00000140: 5765 b5bd 53bd 87bc 8241 a8bd a7c0 283e
00000150: 31ec 843d 238f c8bd a2e5 10be a4e0 12be
00000160: e698 a03d ac4e 8abd e7e9 f8bd 74eb 7abd
00000170: 994a 3e3d 1393 10bd 28ad 4cbd ecdc 67bd
00000180: b9c4 1d3d b39a 14bd 8975 373d 1f53 363e
00000190: 0cbd 2dbe 8da6 ffbd 86f6 13bd d1c0 743d
000001a0: 24ba 97bd b048 abbd 66c2 7abd 44ff 6bbd
000001b0: 0ef4 5ebd dad7 03be bcca d8bd 1d8b 16bd
000001c0: 907f 103d 2cc6 eb3d 90a7 393d cfa7 b33d
000001d0: cd9f 9e3c 6da2 463e 02b6 67bd 6371 68bd
000001e0: 0a44 d33d 9714 0a3e cde0 1e3d 85ac c83c
000001f0: 4689 32bc df15 963b 2d30 e63b d61d a03d
00000200: bcf7 7e3d d7bd f53d e015 a4bd 314e 1e3e
00000210: e76c 113e cc33 683e 496b f23d 7b60 f13d
00000220: 4595 7fbc b2a5 443e 9d3c 353e a603 f4bd
00000230: 2fbb e8bd 8557 1a3e 44ad 67bb 3b8a ea3d
00000240: 8d03 1dbe 4bf6 f83c 3787 51bd 7374 203e
00000250: 2404 103d 5310 97bd 619f dabd 8a1b 9abd
00000260: 4ccb 923d fb8e 00be 6c48 08be 2230 fabd
00000270: 488a 013d c11d 07bd 3807 c3bd 0c15 07bd
00000280: 709e f5bc 4056 5b3c 4bbe 5c3c 76b0 2b3e
00000290: 1f63 babd ad34 9fbd 9e11 debc 8633 563d
000002a0: 918c 94bd e46b a6bd 2e12 f9bc c824 33bc
000002b0: 48f0 68bd 8762 44bc 5e09 95bc ae44 fcbd
000002c0: e699 703d 3829 253e 08e3 a13d eb29 a73d
000002d0: 0b98 d53d 1528 de3d cf6d 9abd e16c 3fbe
000002e0: 2c1d d53d 3802 b83d 5cc1 033d f094 9cbc
000002f0: 37c4 1fbc c90e 203e 19c4 5b3d fa4e c13d
00000300: 2e05 b53d 2837 e43d 7b93 97bd c0a8 163e
00000310: 5877 283e 8dae 5f3e 307a 153e 9057 fb3d
00000320: 5c63 3abd b06b f83d f877 043e b704 f23c
00000330: 3698 4fbe 1a0a c53d 78ff c2bc 631c 113e
00000340: 28ab edbd 5206 f7bc 0617 78bd a553 963d
00000350: 30ee 19bb 6c5a 0cbe c4b1 09be 5a1f 04be
00000360: 3874 ef3d 8921 99bd 3f01 a7bd 6824 e0bd
00000370: bd33 9b3d ce95 c1bc e540 f4bd b1ca 8fbd
00000380: c0fb b53d a19d 8f3a ad3d 3fbb 6992 1d3e
00000390: fcab 06be ba50 9fbd 726d 43bc f67b ad3d
000003a0: afda 3ebd e818 b0bd 2e30 8a3c 27ba 04be
000003b0: c2fd 55bd a39c d0bc bb1e 89bd 982e 7bbd
000003c0: 277d 263d 9049 893c a584 3b3d f887 313d
000003d0: 0005 0e3e f3e3 283e 307f ecbd f914 dbbd
000003e0: a98f ab3d 0edc f93d ab42 9ebc 73a3 a1bd
000003f0: ff4e ba3d e02c 833d a548 433d 369a 9ebd
-0.009943863 -0.14131232 -0.070456885 0.0075254673 -0.07005517 -0.07435945 -0.26479498 -0.05739517
0.06377753 -0.024362674 -0.05913942 0.09066499 0.019815374 0.038400076 -0.038559627 -0.12423535
0.03111302 0.049588736 -0.031700417 0.056842882 -0.009442662 0.075036414 0.19380158 0.33067337
-0.022045031 -0.039003428 -0.003810909 0.056034405 0.07248613 0.015698247 0.12919383 0.018582836
-0.07397966 0.05110815 -0.064102486 -0.050540406 0.08553267 -0.21349494 0.1896852 -0.034968354
0.004342988 0.026671875 0.11401274 -0.060321357 -0.06502591 0.02670796 0.084036104 0.025748903
-0.29956806 -0.14523679 -0.085519634 -0.078606136 0.06871211 0.07750103 0.037241437 0.17368433
-0.085879795 -0.037920907 0.006767711 -0.00013869815 0.077997066 0.042096555 -0.051243596 0.062169924
0.030011147 0.112881646 -0.07659982 0.0961788 0.17004237 0.22268556 0.12933804 0.14834079
-0.09077685 0.145065 0.17179075 0.027933454 -0.080445826 0.060934085 -0.0024832184 0.1388086
-0.0885722 -0.016569769 -0.082156196 0.16479741 0.064903624 -0.09792926 -0.14150098 -0.14343506
0.07841663 -0.06753287 -0.12153988 -0.0612597 0.04645786 -0.03529651 -0.049969822 -0.056607172
0.038517687 -0.036280345 0.044789825 0.17805146 -0.16966647 -0.12482939 -0.036123775 0.059754197
-0.074085504 -0.083634734 -0.06122055 -0.057616487 -0.054431967 -0.1287531 -0.105855435 -0.036753763
0.035277903 0.11512408 0.045325816 0.08772241 0.019363308 0.19397898 -0.05657006 -0.05674876
0.10315712 0.13484417 0.038788605 0.024496326 -0.010896986 0.004580244 0.007024786 0.07818191
0.062247977 0.119991 -0.08011985 0.15459515 0.14201699 0.22676009 0.11836869 0.1178598
-0.0155995535 0.19203833 0.17698903 -0.119147584 -0.113638274 0.15072449 -0.0035351077 0.114521466
-0.15333386 0.03039088 -0.05115434 0.15669422 0.0351602 -0.073761605 -0.1067493 -0.07524784
0.07167682 -0.12554543 -0.13308877 -0.12216212 0.031626016 -0.03298736 -0.09522861 -0.032979056
-0.029982775 0.013387263 0.013473104 0.16766533 -0.09100937 -0.07773719 -0.02710801 0.05229523
-0.072533734 -0.08126047 -0.030404177 -0.010934062 -0.056869775 -0.011986381 -0.018192943 -0.12317787
0.05874052 0.16129005 0.07904631 0.08162292 0.104293905 0.10847489 -0.075404756 -0.18693878
0.10405955 0.08984798 0.032166824 -0.019113988 -0.009751371 0.1563064 0.05365381 0.09438892
0.088388786 0.11143333 -0.074011765 0.1471281 0.16451776 0.2184393 0.14597392 0.122725606
-0.045504913 0.12129915 0.1293639 0.029543264 -0.20272908 0.09621067 -0.023803458 0.14170985
-0.11604911 -0.030154381 -0.06056883 0.07340173 -0.0023487918 -0.13706368 -0.13446718 -0.12902585
0.11692089 -0.074770994 -0.081545345 -0.10944444 0.07578228 -0.023631003 -0.1192644 -0.07021082
0.08885908 0.0010957011 -0.0029181049 0.15387882 -0.13151544 -0.07779069 -0.011927949 0.08470909
-0.04659527 -0.085985005 0.016868677 -0.12961636 -0.052243955 -0.025465315 -0.066953145 -0.061323732
0.0406467 0.01675871 0.045780797 0.04334256 0.13869095 0.16493206 -0.115476966 -0.106973596
0.083770104 0.12200175 -0.0193189 -0.078925036 0.090970986 0.064050436 0.0476767 -0.07744257

g.bias f4 [12]
00000000: e84e babc 7ef8 ac3d 1c53 8e3d b92b 7c3d
00000010: fa52 803d 9155 e23c 54ae b63d 075c f23c
00000020: b8d5 ea3d c999 3e3e 8bcf 403e 2f89 a93d
-0.022742704 0.084458336 0.069494456 0.061565135 0.062658265 0.027628692 0.08919969 0.029584898
0.11466545 0.18613352 0.18829171 0.08278119
