model/ddn/5m_vs_6m/8_rnn_net_params.pkl (torch, 126663 bytes, 10 tensors)

fc_obs.weight f4 [64, 72]
0	0xbd849b5d	-0.06474946
1	0xbd705beb	-0.05868141
2	0xbdeb4955	-0.11488596
3	0xbe0bdcc4	-0.13658434
4	0xbe3fdd53	-0.18736772
5	0xbd9660ba	-0.07342668
6	0xbd2c8513	-0.042119097
7	0x3d91e776	0.07124226
8	0xbe57ed3b	-0.2108659
9	0xbe83de9f	-0.25755784
10	0x3d6c7589	0.057729278
11	0x3dae45d8	0.085094154
12	0x3f230214	0.63675046
13	0xbd84a55d	-0.06476853
14	0xbe386cd8	-0.1801027
15	0x3b9f6676	0.004864509
16	0x3e0d85e6	0.1382061
17	0x3eb12003	0.34594736
18	0x3e1fca86	0.156046
19	0xbda18013	-0.07885756
20	0x3db45b60	0.08806491
21	0x3d0a4fbf	0.033767458
22	0x3f281209	0.6565252
23	0xbd5b3293	-0.05351503
24	0x3c4b3d69	0.012404778
25	0xbda69b93	-0.08135142
26	0x3bbf924d	0.005846298
27	0x3e1947f2	0.14968851
28	0xbdab63f0	-0.08368671
29	0x3d22c853	0.039741825
30	0x3dbaf62e	0.09128986
31	0x3c987022	0.018608157
32	0x3d7c6025	0.061615128
33	0x3e17baf5	0.14817412
34	0xbcb747e0	-0.02237314
35	0x3ea91938	0.33027053
36	0x3f5bc3cb	0.8584563
37	0x3eb581ab	0.3545049
38	0x3dac48d2	0.08412327
39	0xbdd53665	-0.104107656
40	0x3e60087f	0.21878241
41	0x3f81fcd5	1.0155283
42	0x3db3a178	0.08771032
43	0x3e130640	0.14357853
44	0xbcfa73c1	-0.030572774
45	0x3ef3fe5a	0.47654992
46	0x3f561ebd	0.8364065
47	0x3f10cb9c	0.56560683
48	0x3dce8c44	0.10085347
49	0xbd292969	-0.041299257
50	0x3e54ddb9	0.20787705
51	0x3f33d39f	0.70244783
52	0x3f08abcc	0.5338714
53	0x3e69b061	0.2282119
54	0x3b9c7769	0.004774977
55	0xbd6fa6fd	-0.05850886
56	0x3e080f75	0.13287146
57	0xbe3a52c2	-0.18195632
58	0xbdb12ab2	-0.086507216
59	0xbcc8f056	-0.024528664
60	0x3e44aa2c	0.1920554
61	0x3e0f3d8d	0.13988324
62	0xbd52764a	-0.05138234
63	0x3cbc5583	0.022989994
64	0x3be40340	0.0069583952
65	0x3dbe6707	0.09296995
66	0xbd60662a	-0.05478493
67	0xbdce92a7	-0.100865655
68	0x3d9d603c	0.07684371
69	0xbe851c84	-0.25998318
70	0x3db13005	0.08651737
71	0xbdb45ce5	-0.08806781
72	0x3db4cda0	0.08828282
73	0xbd4a9ba8	-0.04946485
74	0x3d7cae60	0.061689734
75	0xbce1e3f8	-0.027574524
76	0x3e3df221	0.18549396
77	0xbd38b71b	-0.045096498
78	0x3db0cbd2	0.08632626
79	0x3e307c57	0.17234932
80	0x3e245c6e	0.16050884
81	0x3dfcdefb	0.12347218
82	0x3ca2613b	0.019821754
83	0x3be29dfa	0.006915805
84	0x3e231060	0.15924215
85	0xbe07faf3	-0.13279323
86	0xbc2aab43	-0.010416809
87	0xbd799768	-0.060935408
88	0xba02041c	-0.0004959719
89	0xbd352362	-0.044223197
90	0x3f04e643	0.5191385
91	0x3d14c73e	0.036322825
92	0x3d0014ae	0.03126972
93	0x3dfecc50	0.12441313
94	0x3d439618	0.047750562
95	0x3d666dee	0.05625718
96	0x3e35cd36	0.17754063
97	0x3dc5bb2a	0.09654839
98	0x3de323b6	0.11090796
99	0xbc8df097	-0.017326636
100	0xbe42c589	-0.19020666
101	0x3d19d84c	0.037559792
102	0xbc7cfebf	-0.015441596
103	0x3dade0d7	0.084901504
104	0xbd07413a	-0.03302119
105	0x3c7ab60b	0.0153021915
106	0xbe67f026	-0.22650203
107	0x3d3daa00	0.046304703
108	0xbdc90080	-0.098145485
109	0x3d3b158c	0.045674846
110	0xbd2bbe04	-0.04192926
111	0xbe2f718c	-0.17133158
112	0xbe0208fa	-0.12698737
113	0xbeceb1ae	-0.40369934
114	0xbe659e7f	-0.22423743
115	0xbb33362c	-0.0027345521
116	0xbde7e5be	-0.11323117
117	0xbdd97fa4	-0.10620049
118	0xbf108a46	-0.5646099
119	0xbc4461b5	-0.011986186
120	0x3dfbdf3f	0.1229844
121	0xbde75a52	-0.11296524
122	0xbdcf0b81	-0.10109616
123	0xbe4a3dab	-0.19750087
124	0x3e939ac8	0.28829026
125	0xbde0d9b1	-0.10979021
126	0xbea66f7f	-0.3250694
127	0xbe0d8237	-0.13819204
128	0x3ba87c4e	0.0051417714
129	0xbd346579	-0.044042084
130	0x3ea10796	0.314511
131	0x3e0b11b6	0.13580975
132	0x3e264557	0.16237389
133	0x3e2c7004	0.16839606
134	0x3e19d219	0.15021552
135	0x3e1d0b34	0.15336305
136	0xbd5b64a1	-0.053562764
137	0x3e7ae9bc	0.24503225
138	0x3e49501f	0.1965947
139	0xbdde150c	-0.10843858
140	0xbc81add5	-0.01582996
141	0x3c9f2494	0.019426621
142	0xbd492b39	-0.049113486
143	0x3d2db9d0	0.042413533
144	0xbe2dcdcd	-0.16973038
145	0xbe4b3de1	-0.19847824
146	0xbbc9fc3c	-0.006164102
147	0xbc23fa0a	-0.010008344
148	0xbe464b1d	-0.19364591
149	0x3db0a0cf	0.08624422
150	0x3d82ed17	0.063928775
151	0xbd1f4263	-0.03888167
152	0xbda226ed	-0.07917581
153	0xbe13a62f	-0.14418863
154	0xbe0513f4	-0.12995893
155	0x3e068181	0.1313534
156	0xbd70cdd5	-0.058790047
157	0x3d83438e	0.064093694
158	0xbe9e7a25	-0.30952564
159	0xbe4aa7f5	-0.19790633
160	0x3b19d88b	0.0023475017
161	0xbd3aec94	-0.045635775
162	0x3dd5b7e3	0.10435464
163	0xbde82e20	-0.11336923
164	0x3e3e8a4e	0.18607447
165	0x3df4e646	0.11957984
166	0xbe01b3ef	-0.12666295
167	0x3df1844d	0.117928125
168	0xbdbccbbf	-0.09218549
169	0xbb20554c	-0.0024464903
170	0xbc0f115c	-0.008732166
171	0xbe7801bc	-0.24219412
172	0x3dd7287e	0.1050577
173	0xbc24362e	-0.010022683
174	0x3e01c7f0	0.12673926
175	0xbd95ccdb	-0.07314464
176	0xbf1aa159	-0.60402447
177	0xbe07eb75	-0.13273413
178	0xbd5cf248	-0.053941995
179	0xbdc8f0c1	-0.09811545
180	0x3e8a82d3	0.27052936
181	0x3e19da14	0.15024596
182	0x3e51c4b3	0.20485191
183	0x3d8d481e	0.06898521
184	0x3e5ea7ea	0.21743742
185	0x3e56e421	0.20985462
186	0xbe7b9b09	-0.2457086
187	0x3e81c0aa	0.25342304
188	0xbc39d765	-0.011342858
189	0x3eb575c9	0.35441425
190	0xbe7edbea	-0.24888578
191	0x3e884c7a	0.26620847
192	0x3d2caec0	0.042158842
193	0xbc407a29	-0.011747875
194	0x3d865a59	0.06560201
195	0xbe2d461e	-0.16921279
196	0x3e8ccc5f	0.27499673
197	0x3e4e8fa3	0.2017198
198	0x3e2b296d	0.16715021
199	0xbdc3bffb	-0.09558102
200	0x3c98c0b1	0.01864657
201	0x3df6a423	0.12043025
202	0xbda1700a	-0.07882698
203	0xbe790641	-0.24318792
204	0x3d6d9c58	0.05801043
205	0xbe64b648	-0.2233516
206	0x3eaaa559	0.33329275
207	0x3e4be6e4	0.19912297
208	0x3da5dcf8	0.08098787
209	0x3ea1a9f4	0.31574976
210	0x3e928805	0.286194
211	0xbdf7017e	-0.120608315
212	0xbe89c98d	-0.26911584
213	0xbe0b04e0	-0.13576078
214	0x3c462298	0.012093209
215	0xbe653a5d	-0.22385545
216	0xbe151cbe	-0.14561746
217	0x3d35c14e	0.044373803
218	0x3cce712e	0.025200453
219	0x3cf15e39	0.029463874
220	0xbdfb028e	-0.12256347
221	0x3d94f8b4	0.07273999
222	0x3d9be7c3	0.076125644
223	0x3c93fa7c	0.018063776
224	0xbd0ca0dc	-0.034333095
225	0x3ce2422a	0.02761944
226	0xbcce6e70	-0.025199145
227	0x3d8736a3	0.06602218
228	0x3e3ebbe6	0.18626365
229	0xbe7f6c33	-0.24943618
230	0xbd616990	-0.055032313
231	0xbe394a46	-0.1809474
232	0xbcb579b6	-0.022152763
233	0xbdb7f026	-0.089813516
234	0x3e732e22	0.23748067
235	0xbde11b3f	-0.10991525
236	0xbdd9f814	-0.1064302
237	0xbc636711	-0.013879553
238	0x3d0b9197	0.034074392
239	0xbcf6bcfd	-0.030119414
240	0x3b49d82c	0.0030799014
241	0xbd2c8a99	-0.042124365
242	0x3d922877	0.07136624
243	0xbd9452ac	-0.07242331
244	0xbe2dbe74	-0.16967183
245	0xbd0aac38	-0.033855647
246	0xbd9834d9	-0.07431955
247	0xbcc79a97	-0.024365706
248	0x3e58c745	0.21169765
249	0x3cfe82e4	0.031068273
250	0x3e246fdb	0.16058294
251	0x3daa2cbc	0.08309314
252	0x3e9b244b	0.30301127
253	0x3d2d1333	0.042254638
254	0x3dec92c0	0.11551428
255	0xbd0136d5	-0.031546433

fc_obs.bias f4 [64]
0	0xbdbcbf88	-0.09216219
1	0x3c9698e2	0.018383447
2	0x3b43363c	0.0029786965
3	0x3c850cfb	0.016241541
4	0x3e0689be	0.13138482
5	0x3dcb7d92	0.0993606
6	0x3d134adf	0.035960075
7	0x3dc01c9f	0.09380459
8	0xbcb02eb7	-0.02150665
9	0x3ddce67e	0.107861504
10	0xbcb0d420	-0.021585524
11	0xbd87a884	-0.06623939
12	0xbca99fee	-0.020706143
13	0x3e05635d	0.13026185
14	0xbd979a8c	-0.07402524
15	0x3e153c14	0.14573699
16	0x3d4fb302	0.050707825
17	0x3d606b22	0.05478967
18	0xbd8d3d0b	-0.06896409
19	0x3d96271e	0.0733168
20	0x3b0093d2	0.0019619358
21	0x3bbaa718	0.0056961887
22	0xbe53d6b4	-0.20687371
23	0x3d9d517a	0.07681556
24	0xbddd363f	-0.10801362
25	0xbd9ef7ff	-0.07762145
26	0x3d8e41e9	0.06946165
27	0xbbb1e161	-0.0054284786
28	0x3c39b637	0.011334947
29	0xbdaa53ad	-0.08316741
30	0x3a9000f7	0.0010986616
31	0x3e8371b1	0.25672677
32	0x3cc5e740	0.02415812
33	0x3d602062	0.054718383
34	0x3d7d8263	0.061891925
35	0x3db4aa5a	0.088215545
36	0x3c7a6c71	0.0152846435
37	0xbd0210dd	-0.031754363
38	0xbd0ca8a2	-0.03434051
39	0xbd807ed1	-0.06274188
40	0x3dcc1521	0.099649675
41	0x3dcab5c4	0.0989795
42	0xbdf6cf26	-0.12051229
43	0x3d125aab	0.035731
44	0x3e080ade	0.13285396
45	0xbd397b8a	-0.04528383
46	0x3cc069f1	0.023488017
47	0xbdc98c83	-0.098412536
48	0xbd830415	-0.06397263
49	0x3dc7d049	0.09756524
50	0x3dea51a0	0.1144135
51	0x3d3f9c9b	0.04678021
52	0xbd830624	-0.063976556
53	0xbb897ad3	-0.00419555
54	0x3dd34a3a	0.10316892
55	0x3d56b9fe	0.05242347
56	0x3e3e4107	0.18579493
57	0x3dfd4c3a	0.12368055
58	0xbc87114e	-0.016487744
59	0xbe1895ca	-0.1490089
60	0xbd5f8124	-0.054566517
61	0x3d9fc3bf	0.078010075
62	0x3dd96592	0.10615076
63	0x3dc8f16f	0.09811675

rnn.weight_ih f4 [192, 64]
0	0x3ed0f374	0.4081074
1	0x3c4b3e44	0.012404982
2	0x3db4b681	0.08823872
3	0x3df4f8bb	0.11961504
4	0xbe865b7d	-0.26241675
5	0x3d236b5a	0.0398973
6	0x3eb14b0a	0.34627563
7	0xbdb3a16f	-0.087710254
8	0x3def942f	0.11698186
9	0xbdf464c3	-0.11933281
10	0xbecb4d7e	-0.3970756
11	0x3e4e4dfc	0.20146936
12	0xbecf257f	-0.40458295
13	0x3d266a72	0.040628858
14	0xbd66d300	-0.05635357
15	0x3e9fb64b	0.31193766
16	0x3e011406	0.12605295
17	0x3d6653fd	0.05623244
18	0x3e5bcde0	0.21465254
19	0x3c93766c	0.018000804
20	0x3d97b10f	0.07406818
21	0x3ef41031	0.47668603
22	0x3e02bdfb	0.12767784
23	0x3e97ecc5	0.29672828
24	0x3dcb42ff	0.09924888
25	0x3dfb7e38	0.12279934
26	0x3e0d6376	0.13807473
27	0x3cd7b650	0.02633205
28	0x3dff955e	0.124796614
29	0xbe5aee40	-0.21379948
30	0x3d8f7b8e	0.07005988
31	0xbef412b3	-0.47670516
32	0xbdf2e299	-0.11859626
33	0xbda8408e	-0.08215438
34	0x3e437176	0.1908625
35	0xbd22a030	-0.039703548
36	0x3d7c3a30	0.06157893
37	0x3dc363ea	0.095405415
38	0x3e018765	0.12649305
39	0x3e4d8f97	0.20074306
40	0xbdabc56b	-0.08387264
41	0x3d88f8b8	0.06688064
42	0x3dfbcd55	0.12295023
43	0x3f0affaa	0.5429636
44	0x3e0df93c	0.13864607
45	0xbeb241fe	-0.34815973
46	0xbea68386	-0.3252222
47	0xbda74d53	-0.08169045
48	0xbf52a1a0	-0.8227787
49	0x3cc21c3e	0.023695108
50	0x3e6e3740	0.23263264
51	0xbdbdcffb	-0.09268185
52	0xbe01397e	-0.12619588
53	0x3e87f74f	0.2655587
54	0xbd86a734	-0.0657486
55	0x3d38156d	0.04494231
56	0x3d9884f1	0.074472316
57	0x3be6f5ff	0.007048368
58	0xbedd7ded	-0.43260136
59	0xbd8011b2	-0.06253375
60	0xbd93daf8	-0.07219499
61	0x3dbbc3a3	0.09168174
62	0x3d8b0c3c	0.06789443
63	0xbf41464f	-0.7549791
64	0xbda6a5b2	-0.081370726
65	0xbf761a76	-0.96134126
66	0x3a6fe89d	0.00091517885
67	0xbebffc45	-0.37497154
68	0x3db16dda	0.08663531
69	0x3eb0f4cd	0.34561768
70	0xbe342c97	-0.17595135
71	0x3eb74823	0.35797223
72	0x3d665634	0.056234553
73	0xbf4a8687	-0.7911152
74	0xbfad6a1a	-1.3548005
75	0xbe4fcac3	-0.20292191
76	0xbdb69878	-0.089158
77	0xbe377ba5	-0.1791826
78	0x3ce6a65a	0.028155494
79	0x3c28d660	0.010305017
80	0xbd91ecd7	-0.07125252
81	0xbeb02db3	-0.34409866
82	0x3effd14d	0.4996437
83	0x3eff58e9	0.4987252
84	0xbb87a2dd	-0.004139288
85	0xbea105cd	-0.31449738
86	0xbdb1a187	-0.08673387
87	0xbee75ab1	-0.4518638
88	0xbcd2bfac	-0.025726162
89	0x3c1ab527	0.009442604
90	0x3e1b918f	0.15192245
91	0xbe305c2b	-0.1722266
92	0xbdb762a2	-0.089543596
93	0xbf8b8e74	-1.0902848
94	0xbb8f11ee	-0.004366151
95	0xbf230d1c	-0.6369188
96	0xbe3e34e6	-0.18574867
97	0x3e84639e	0.25857252
98	0x3e9caedb	0.30602154
99	0x3cd2e33a	0.025743116
100	0xbe2ffe5d	-0.17186876
101	0xbe663efa	-0.22484961
102	0x3e0425f9	0.1290511
103	0xbdd872af	-0.10568749
104	0xbe85ec1e	-0.26156706
105	0x3e9f6b6d	0.31136647
106	0x3bbd3d80	0.0057751536
107	0xbea83c9f	-0.3285875
108	0xbd62c77d	-0.055366028
109	0xbf20b0b0	-0.62769604
110	0xbf76916d	-0.9631565
111	0xbda4d1f5	-0.080478586
112	0xbfab2cc1	-1.3373033
113	0xbe292470	-0.16517806
114	0x3f3bb6cb	0.73325795
115	0xbee67e6f	-0.45018336
116	0x3cd7227a	0.026261557
117	0x3e22229f	0.1583352
118	0xbe8a4963	-0.27009115
119	0x3ed2ab81	0.41146472
120	0x3e8d19f9	0.27558878
121	0xbf96ff59	-1.1796676
122	0xbeb78a90	-0.35847902
123	0x3d4f3086	0.050583385
124	0x3cb0dda4	0.021590061
125	0xbf3668d9	-0.71253735
126	0xbcd50527	-0.026003433
127	0xbe20c470	-0.15699935
128	0x3e82a82b	0.25518927
129	0xbe6c540c	-0.23078936
130	0x3e0f6576	0.14003548
131	0x3e096d43	0.13420586
132	0x3e08177e	0.13290212
133	0x3c203604	0.009778503
134	0x3e002bdd	0.12516733
135	0x3e0b0897	0.13577496
136	0x3cd0c9de	0.025486883
137	0x3db648b3	0.08900585
138	0xbd9dd4bd	-0.07706592
139	0x3e46db00	0.1941948
140	0x3e2d6fd8	0.16937196
141	0x3dd22e13	0.10262694
142	0x3f2e4812	0.6807872
143	0xbe670bca	-0.22563091
144	0x3df605ad	0.12012801
145	0xbdfc9957	-0.12333935
146	0xbed0856f	-0.40726802
147	0x3c523ae2	0.012831422
148	0x3d806b6c	0.06270489
149	0x3da04dc3	0.07827332
150	0xbd9a045b	-0.07520362
151	0x3e4a69e5	0.19766958
152	0x3e37e890	0.1795981
153	0x3e1ac0db	0.15112631
154	0x3ea16e15	0.31529298
155	0xbed97734	-0.42473757
156	0x3e2df751	0.16988875
157	0xbbacb1e5	-0.00527023
158	0xbca53133	-0.020165062
159	0xbef0b1a5	-0.47010532
160	0x3d9c9fbe	0.07647656
161	0x3e89732f	0.2684569
162	0xbe7b83b4	-0.2456196
163	0x3e36a0c7	0.17834769
164	0xbf00afb2	-0.5026809
165	0x3cb75bd1	0.022382649
166	0x3ed1ca1e	0.40974516
167	0xbd83bd49	-0.06432588
168	0xbd5a7e53	-0.05334313
169	0xbe4193e6	-0.18904075
170	0x3e531cec	0.20616502
171	0x3d5bc311	0.053652827
172	0xbe350101	-0.17676164
173	0x3caed70e	0.02134278
174	0x3edc2ec4	0.4300443
175	0x3e9e2505	0.3088762
176	0x3ebbc7ed	0.3667597
177	0x3e840124	0.2578212
178	0xbe6259da	-0.22104588
179	0x3dbdf381	0.0927496
180	0x3d14fc0a	0.036373176
181	0x3ed2d9da	0.41181833
182	0xbdb140d6	-0.086549446
183	0x3e345cc9	0.1761352
184	0xbe0fdf90	-0.14050126
185	0xbedb8590	-0.42875338
186	0x3e68b631	0.2272575
187	0x3dc743ac	0.09729704
188	0x3cf7e5ec	0.030261002
189	0xbd7729a3	-0.060342442
190	0x3e88118b	0.26575884
191	0xbddd01f2	-0.10791387
192	0x3e45a592	0.19301441
193	0x3e82741a	0.25479203
194	0x3cec4337	0.028840644
195	0xbd8131ac	-0.06308302
196	0xbf31ad2a	-0.6940485
197	0xbe132a1b	-0.1437153
198	0x3e91a3c8	0.28445268
199	0x3f26c9cf	0.65151685
200	0xbe99adc9	-0.300154
201	0x3e1b4a7b	0.15165131
202	0x3e517abc	0.20456976
203	0xbce3f3d8	-0.027826235
204	0x3cb3ce9e	0.021949109
205	0xbcf9a09e	-0.030472096
206	0xbe95c167	-0.29249117
207	0xbf29169b	-0.6605012
208	0xbe86f578	-0.26359153
209	0x3e6dfd7e	0.23241231
210	0xbee698d5	-0.45038477
211	0xbf071bbb	-0.5277669
212	0xbc284321	-0.010269911
213	0x3f0631ae	0.52419555
214	0x3d5be00d	0.05368047
215	0x3d7d6ce0	0.06187141
216	0xbc93f288	-0.018059984
217	0xbccaaa71	-0.024739476
218	0xbea559ae	-0.32294983
219	0xbe76c5c1	-0.24098875
220	0xbe006983	-0.1254025
221	0x3e68fffc	0.227539
222	0xbe84464a	-0.25834876
223	0x3eedc53b	0.46439537
224	0xbdf6c2ed	-0.12048898
225	0x3e430f68	0.19048846
226	0xbd89e1fe	-0.06732558
227	0xbe763be5	-0.24046285
228	0xbe3f356f	-0.18672727
229	0xbe808f79	-0.2510946
230	0xbe1f1c5d	-0.15538163
231	0xbe852743	-0.26006517
232	0x3ec1bb5a	0.3783825
233	0xbeb4a484	-0.35281765
234	0xbe0671ad	-0.13129301
235	0xba985605	-0.0011622316
236	0xbf0bc84b	-0.546025
237	0x3eb9bd4a	0.3627723
238	0x3ec87115	0.39148775
239	0x3c849605	0.016184816
240	0x3f032dc2	0.51241696
241	0x3d91bcac	0.071160644
242	0x3edd7d1f	0.43259522
243	0x3e4ebf74	0.20190221
244	0xbeeb9988	-0.46015573
245	0xbdbd69d9	-0.092487045
246	0x3e83311d	0.25623408
247	0xbf0533b5	-0.52032024
248	0xbd859c60	-0.06523967
249	0x3e1d4a1f	0.15360306
250	0x3ca3be93	0.019988334
251	0x3cab0a9c	0.020879082
252	0xbdfde650	-0.12397444
253	0xbd2694e7	-0.040669348
254	0xbddb1d52	-0.10698952
255	0x3f67bf41	0.90526205

rnn.weight_hh f4 [192, 64]
0	0x3ed31726	0.41228598
1	0xbecaafbe	-0.39587206
2	0x3e13510c	0.14386386
3	0xbd674778	-0.056464642
4	0x3bd656f8	0.006541129
5	0x3d448b36	0.047984324
6	0x3dec4743	0.115370296
7	0xbe08ea4e	-0.1337063
8	0x3db2c746	0.08729415
9	0xbd53f595	-0.051747877
10	0x3e1c5755	0.1526769
11	0x3d867447	0.06565147
12	0xbe04f986	-0.1298581
13	0x3e9727fb	0.2952269
14	0x3c97507e	0.018470999
15	0xbe9df8bf	-0.3085384
16	0xbd225ab0	-0.039637268
17	0xbea5a1c3	-0.32349977
18	0x3cde03b9	0.027101384
19	0x3d3ca006	0.046051048
20	0x3e5fdf2c	0.21862477
21	0x3d221573	0.039571237
22	0x3dd065d5	0.10175673
23	0x3e0c49ac	0.13699979
24	0x3e154384	0.14576536
25	0xbe9b21a7	-0.30299112
26	0xbdab83f2	-0.08374776
27	0x3dd77fc5	0.10522417
28	0x3e7794c5	0.24177845
29	0xbccb7d45	-0.024840007
30	0x3e546042	0.20739844
31	0x3ca97c88	0.020689264
32	0x3d056864	0.032570258
33	0x3d4fcda9	0.050733242
34	0x3e3d2e82	0.18474773
35	0x3efd7768	0.49505162
36	0xbda90f62	-0.08254887
37	0xbcc21f87	-0.023696674
38	0xbabb85c1	-0.001430683
39	0xbe0f7271	-0.140085
40	0xbd3970fe	-0.045273773
41	0x3e80c15a	0.25147516
42	0xbd7da298	-0.06192264
43	0x3ec36660	0.38164043
44	0x3ea51e6b	0.3224977
45	0xbec26521	-0.3796778
46	0xbe48d152	-0.196111
47	0x3e0e28ff	0.13882826
48	0xbe8b8cd9	-0.27255896
49	0xbdd25183	-0.102694534
50	0x3d78ea03	0.060770046
51	0xbe135a40	-0.14389896
52	0xbda5884c	-0.08082637
53	0xbd9c9085	-0.076447524
54	0xbe442e95	-0.19158395
55	0xbf02d603	-0.51107806
56	0x3e83d7c9	0.25750569
57	0x3d6330ae	0.055466346
58	0xbd91b6e7	-0.07114964
59	0x3e07b043	0.13250832
60	0xbe09607e	-0.13415715
61	0xbd568eed	-0.0523824
62	0xbdc428ef	-0.0957812
63	0x3e4a1d84	0.19737822
64	0xbc6c4f4f	-0.0144232055
65	0xbe72ee1e	-0.23723647
66	0x3beef242	0.007292063
67	0xbd857047	-0.06515556
68	0x3c919e3d	0.01777565
69	0xbee709f6	-0.45124787
70	0xbdadcf4c	-0.08486804
71	0xbcfc53ce	-0.03080168
72	0xbe814b20	-0.25252628
73	0xbe6b5151	-0.22980238
74	0xbcd497c4	-0.025951274
75	0xbe9770ee	-0.29578346
76	0xbe9ae480	-0.30252457
77	0x3cdfb60b	0.027308485
78	0xbd3abd5b	-0.04559074
79	0xbea67480	-0.32510757
80	0x3e77eabc	0.24210638
81	0xbe85820e	-0.26075786
82	0x3c82bb80	0.015958548
83	0xbc95ff88	-0.018310323
84	0xbe324826	-0.17410335
85	0x3ec67248	0.38759065
86	0xbdad85c3	-0.08472779
87	0x3e990ec7	0.29894087
88	0x3e4bfd21	0.1992078
89	0xbe2d21b8	-0.16907394
90	0x3db01f8c	0.08599767
91	0x3ea87d2d	0.32908002
92	0x3e5fcaca	0.21854702
93	0x3e94314a	0.28943855
94	0x3d509c7c	0.050930485
95	0x3d1ff741	0.03905416
96	0xbd352524	-0.044224873
97	0x3e220041	0.1582041
98	0x3ecc60d9	0.3991764
99	0x3e3977c6	0.18112096
100	0xbdbf17ce	-0.09330712
101	0xbda6ffcd	-0.08154259
102	0xbdde4ce3	-0.10854509
103	0x3e3c8eca	0.18413845
104	0xbabd21e2	-0.0014429654
105	0x3e9d5034	0.30725253
106	0x3e550ed7	0.20806442
107	0xbdcf474a	-0.10121019
108	0xbd7fb192	-0.062425204
109	0xbf16e527	-0.5894341
110	0x3c219732	0.009862708
111	0x3d2f7a0a	0.042840995
112	0xbe182d26	-0.14860973
113	0x3db388c4	0.0876632
114	0x3eaeb98e	0.34125942
115	0x3daf0965	0.08546714
116	0xbd868e2f	-0.06570088
117	0x3d94a5de	0.07258199
118	0xbe4293d5	-0.19001706
119	0x3e9a2eb5	0.3011376
120	0x3e284db9	0.16435899
121	0x3ba2f757	0.004973333
122	0xbe2401ec	-0.16016358
123	0xbdfeabb8	-0.124350965
124	0x3e6e8ead	0.23296614
125	0xbd7f551a	-0.06233702
126	0x3f338088	0.70118
127	0xbdb7a1c4	-0.08966401
128	0x3e832064	0.2561065
129	0xbd91b7c8	-0.071151316
130	0xbe8c3d71	-0.27390626
131	0x3e7a4a95	0.24442513
132	0x3e4c99ca	0.19980541
133	0xbde2ad9c	-0.110682696
134	0x3e9c8ecb	0.30577692
135	0x3e9127aa	0.28350574
136	0xbe8c6967	-0.27424166
137	0x3e654970	0.22391295
138	0x3ede3299	0.43397978
139	0xbdf748ee	-0.12074457
140	0x3e26ebbe	0.16300866
141	0x3dea59e7	0.11442929
142	0xbd3e08c9	-0.046395097
143	0xbdab1087	-0.08352762
144	0xbe981264	-0.2970153
145	0xbdae3aab	-0.08507284
146	0x3e3c94ce	0.1841614
147	0x3dae928d	0.08524046
148	0xbe625fff	-0.22106932
149	0x3c3f0efc	0.011661287
150	0xbec838cf	-0.39105842
151	0xbe051ac8	-0.12998497
152	0x3ec291f1	0.3800197
153	0xbe113b3d	-0.14182754
154	0xbe1decce	-0.15422365
155	0xbcec2682	-0.028826956
156	0xbe3b5a98	-0.18296278
157	0xbe1b2ede	-0.15154597
158	0xbe9f7e8e	-0.3115124
159	0xbd848d5d	-0.064722754
160	0x3e83498f	0.25642058
161	0xbe6f4929	-0.23367752
162	0x3e0c14d5	0.13679822
163	0x3e7a062d	0.24416418
164	0xbf153b14	-0.5829327
165	0x3ec16fa4	0.37780488
166	0xbd9d4852	-0.0767981
167	0x3e07c604	0.1325913
168	0xbe4994a3	-0.19685607
169	0x3d68d63a	0.056844927
170	0xbc432ae4	-0.011912081
171	0x3c5be394	0.013420958
172	0xbceeccd5	-0.029150406
173	0x3ddbccdc	0.10732433
174	0xbeb9c818	-0.36285472
175	0xbe030dd6	-0.12798247
176	0xbd2731de	-0.04081904
177	0x3f398fc6	0.72485006
178	0x3d985181	0.07437421
179	0x3ea8577b	0.32879242
180	0x3ecff69b	0.40617833
181	0x3e85de7a	0.261463
182	0xbd978fb3	-0.07400455
183	0xbea1f7c4	-0.31634343
184	0x3cbbf646	0.02294458
185	0x3e878407	0.26467916
186	0xbe4aff23	-0.1982389
187	0xbe632732	-0.2218292
188	0xbe81d109	-0.25354794
189	0xbc0005c9	-0.007813879
190	0x3f1f1ecc	0.6215637
191	0x3ca0f57e	0.01964831
192	0x3c27b464	0.01023588
193	0xbd036edb	-0.032088142
194	0x3dbe46dd	0.0929086
195	0xbbdeb4bd	-0.006796448
196	0xbe81580e	-0.25262493
197	0x3e2c6c20	0.16838121
198	0xbe96ffbf	-0.29491994
199	0xbe4324b4	-0.1905697
200	0x3e85cedb	0.2613438
201	0xbe0e0e59	-0.1387266
202	0x3eb6b5be	0.35685533
203	0x3eb15827	0.34637567
204	0x3f05abc1	0.522152
205	0xbed98e53	-0.42491397
206	0x3dd86db2	0.10567798
207	0xbd55d817	-0.052208032
208	0xbd05c56c	-0.03265898
209	0x3d972bd4	0.073814064
210	0xbdd82777	-0.10554402
211	0xbdcf3f33	-0.10119476
212	0xbed18760	-0.40923595
213	0xbea9c4b1	-0.33157876
214	0x3e4d6959	0.20059718
215	0xbc393249	-0.011303493
216	0xbec130ea	-0.3773263
217	0xbed383ec	-0.41311586
218	0xbe3c8374	-0.1840952
219	0x3e074b93	0.13212423
220	0xbe8d0637	-0.27543804
221	0x3d80d3fb	0.06290432
222	0x3e3b5749	0.18295015
223	0x3e709d6f	0.23497556
224	0x3cfc49f2	0.030796979
225	0xbe605cab	-0.2191035
226	0xbe81537a	-0.25259
227	0xbe3b0aa5	-0.1826578
228	0x3e0a1caf	0.13487504
229	0xbe9d3611	-0.30705312
230	0xbd367930	-0.044549167
231	0xbde022ef	-0.10944163
232	0x3d6902eb	0.05688755
233	0x3e63dd1d	0.22252317
234	0xbd8b4aa6	-0.068013474
235	0x3e22ab49	0.15885653
236	0x3c3bf656	0.011472305
237	0x3eb546df	0.35405633
238	0x3e16b412	0.14717129
239	0x3e09567d	0.13411899
240	0xbe5bd16f	-0.21466611
241	0xbeaa1ebb	-0.3322657
242	0xbf5407f2	-0.82824624
243	0xbe519e61	-0.20470573
244	0x3db2df76	0.08734028
245	0xbcd171d3	-0.02556697
246	0xbbdfe8ed	-0.006833187
247	0xbd1dcc51	-0.03852493
248	0x3c3ca154	0.011513073
249	0xbe1cbe46	-0.15306959
250	0xbd375029	-0.04475418
251	0x3eb3eb65	0.3514053
252	0xbe8238a6	-0.25433844
253	0x3e528372	0.20557955
254	0x3ea21c5d	0.31662264
255	0xbe0b823b	-0.13623898

rnn.bias_ih f4 [192]
0	0x3e4b0e29	0.1982962
1	0xbe1ee6d4	-0.15517741
2	0xbe3443a6	-0.17603931
3	0xbd2b46d4	-0.041815594
4	0x3d5472c4	0.05186726
5	0xbd6e99df	-0.05825221
6	0x3cced3db	0.025247505
7	0xbdadf81f	-0.08494591
8	0xbd89cfc4	-0.06729081
9	0x3a81047f	0.0009843259
10	0xbd9b6e1d	-0.07589362
11	0xbcec9b4a	-0.028882641
12	0x3dd7e5f5	0.10541908
13	0xbc5af7b8	-0.013364725
14	0xbe171325	-0.14753397
15	0xbdb5c04b	-0.088745676
16	0xbd179333	-0.037005614
17	0xbdec131c	-0.11527082
18	0x3e3e2303	0.18568043
19	0x3cb13ea2	0.021636311
20	0xbd30dd1f	-0.043179628
21	0x3e138f05	0.14410026
22	0x3dae5686	0.08512597
23	0xbd602921	-0.054726724
24	0xbe02eeb7	-0.12786375
25	0xbd92b186	-0.07162766
26	0x3e071ab7	0.13193785
27	0x3d1f9dcc	0.038968846
28	0x3d76b1a5	0.06022801
29	0x3d9b3ef7	0.07580369
30	0xbd2d89c6	-0.04236772
31	0xbd83691c	-0.064165324
32	0xbce9513e	-0.028481122
33	0x3d7b79d5	0.061395485
34	0xbdd84a30	-0.10561025
35	0x3ca75698	0.020427033
36	0x3d67dd7f	0.05660772
37	0xbd8ae201	-0.06781388
38	0x3c451a9c	0.01203027
39	0x3d1b9786	0.0379863
40	0xbd30c2e8	-0.043154627
41	0x3d80406a	0.06262286
42	0xbd96b4bb	-0.0735869
43	0xbd58b64a	-0.05290822
44	0x3e481af1	0.19541527
45	0x3e37dd48	0.17955506
46	0xbdc3936f	-0.09549605
47	0xbd041122	-0.0322429
48	0xbcbc67df	-0.022998748
49	0xbdcd8519	-0.10035152
50	0xbdd723fc	-0.1050491
51	0x3e25ae4f	0.16179775
52	0xbb754fe3	-0.003743165
53	0xbd7ad2ef	-0.06123632
54	0x3d594eeb	0.053053778
55	0xbcdf5c08	-0.027265564
56	0xbdf1101f	-0.11770653
57	0xbdcf268c	-0.10114774
58	0xbcb42d6b	-0.021994313
59	0x3d774403	0.060367595
60	0xbe26aaba	-0.16276065
61	0x3eb6df2a	0.35717136
62	0xbdb063ae	-0.086127624
63	0xbdcea6b3	-0.10090389
64	0x3dfe4048	0.124146044
65	0xbe2edd6e	-0.17076656
66	0xbb06d949	-0.002057629
67	0xbe8ac110	-0.2710042
68	0x3cd2ed01	0.025747778
69	0xbe536467	-0.20643769
70	0xbe37ee1f	-0.1796193
71	0xbe4a2844	-0.19741923
72	0x3d10a558	0.035313934
73	0xbbdde6c4	-0.006771894
74	0x3982efca	0.0002497419
75	0x3d6b852e	0.057500057
76	0xbe5fdfb1	-0.21862675
77	0xbe84ec0e	-0.25961345
78	0x3e6bf593	0.23042898
79	0xbdd26189	-0.102725096
80	0xbd630670	-0.05542606
81	0xbe149798	-0.14510953
82	0xbca66043	-0.020309573
83	0xbe276bea	-0.1634976
84	0xbe14db55	-0.14536794
85	0xbb94ab45	-0.0045370185
86	0xbe9ef715	-0.31047884
87	0xbe2690bd	-0.16266151
88	0xbcde041b	-0.027101567
89	0xbdfc5fdf	-0.123229735
90	0xbe9a3969	-0.30121925
91	0xbdc33b5d	-0.09532807
92	0xbe789496	-0.24275431
93	0xbe84042f	-0.25784442
94	0xbe4fb4ad	-0.20283766
95	0xbe146a93	-0.1449378
96	0xb7c48994	-2.3429086e-05
97	0xbed9a41f	-0.42508027
98	0x3e59b595	0.21260674
99	0xbaebdbbe	-0.0017994565
100	0xbdeda46c	-0.116036266
101	0xbebc7487	-0.36807653
102	0xbc0e5e02	-0.008689405
103	0xbb804362	-0.0039142827
104	0xbc1a4418	-0.009415649
105	0xbe2847b0	-0.16433597
106	0x3c12c503	0.008958104
107	0xbe31673d	-0.17324539
108	0xbe19601d	-0.1497807
109	0xbe32717b	-0.17426102
110	0xbe285b66	-0.16441116
111	0x3dc6b2b2	0.09702052
112	0xbe66fbfc	-0.22557062
113	0x3d988c27	0.07448607
114	0x3cf72a10	0.030171424
115	0x3b2452b7	0.0025073716
116	0xbe8a600f	-0.27026412
117	0xbd25d857	-0.04048952
118	0xbe39cd88	-0.1814481
119	0xbe010c9e	-0.1260247
120	0xbe184d5b	-0.14873259
121	0xbc1f49e3	-0.009722206
122	0x3d14bcf5	0.036313016
123	0x3debaf09	0.11507995
124	0x3c0b99cf	0.008520558
125	0xbd45cab7	-0.048289027
126	0xbe471bdc	-0.19444221
127	0xbe152882	-0.14566234
128	0x3df40381	0.11914731
129	0xbcd18dcb	-0.025580307
130	0xbe392d09	-0.18083586
131	0x3e7344e1	0.23756744
132	0x3e01b66d	0.12667246
133	0x3e2287ed	0.15872164
134	0xbd16a3a9	-0.036777172
135	0x3e39dc0f	0.18150352
136	0xbd5905e2	-0.052984126
137	0x3cb57a3d	0.022153014
138	0x3df1a21e	0.117984995
139	0xbe0a76ca	-0.13521877
140	0xbdbbb6ab	-0.091657005
141	0xbdcf6fd8	-0.101287544
142	0xbb972faf	-0.0046138386
143	0x3e07d77b	0.13265793
144	0x3c847f63	0.016174024
145	0x3dde94c6	0.1086822
146	0xbe0367fd	-0.12832637
147	0x3e351f28	0.17687666
148	0xbd5a6ff5	-0.053329427
149	0xbc871218	-0.01648812
150	0xbd3a7be6	-0.045528315
151	0xbe974201	-0.29542544
152	0x3d4f2d5f	0.05058038
153	0xbc637a27	-0.013884104
154	0xbb9b2a24	-0.004735248
155	0xba836b6f	-0.0010026525
156	0xbdc8e5a7	-0.09809428
157	0x3e19a669	0.15004887
158	0xbe13641d	-0.14393659
159	0xbdede45a	-0.1161582
160	0x3e7812c2	0.24225906
161	0x3c9ed718	0.019389674
162	0xbe108365	-0.14112623
163	0x3da9ce0d	0.08291254
164	0xbadb818b	-0.0016746981
165	0x3e03cce9	0.12871136
166	0xbdf3cfcd	-0.11904869
167	0x3dbe7d89	0.09301288
168	0xbd0e92a3	-0.034807812
169	0xbe13a669	-0.14418949
170	0x3cc93cc3	0.024565106
171	0xbd11781f	-0.035514947
172	0x3e20fdd8	0.15721834
173	0xbd4b3652	-0.04961235
174	0xbe8c3e1c	-0.27391136
175	0x3d19756c	0.037465498
176	0x3e503090	0.20331025
177	0x3d5262cb	0.051363748
178	0xbdb0e7f5	-0.08637992
179	0x3dda780d	0.10667429
180	0x3e0d42b5	0.13794978
181	0x3e0054e6	0.12532386
182	0xbda1f22b	-0.07907518
183	0xbd40d1b3	-0.047074985
184	0x3d96b051	0.073578484
185	0x3d14345a	0.03618274
186	0xbdad03c2	-0.08447982
187	0xbe02652b	-0.12733905
188	0x3e06b07f	0.13153265
189	0xbd8e446f	-0.069466464
190	0xbcb96c0c	-0.022634529
191	0x3d8a3f04	0.067503005

rnn.bias_hh f4 [192]
0	0x3df7ad07	0.12093549
1	0xbe2e8277	-0.17041956
2	0xbc30013a	-0.01074248
3	0x3bceb513	0.006308207
4	0x3dccf54d	0.10007725
5	0xbe15cd19	-0.1462902
6	0x3da57ca0	0.08080411
7	0xbd0f2fae	-0.03495758
8	0xbe03d4b4	-0.12874109
9	0xbe1796fd	-0.14803691
10	0xbd8cd317	-0.068762
11	0x3d65ee2c	0.05613534
12	0x3d8eae40	0.06966829
13	0x3d763623	0.060110223
14	0x3cb02f02	0.02150679
15	0x3d4883cb	0.048953813
16	0x3d263440	0.040577173
17	0x3c0c484d	0.00856216
18	0x3ddebddc	0.108760566
19	0x3c4f07d5	0.012636145
20	0x3d7bbc5a	0.061458923
21	0xbd1b9784	-0.037986293
22	0x3e20d729	0.15707077
23	0xbdf054b8	-0.11734909
24	0xbe3146d9	-0.17312182
25	0xbe160c22	-0.14653066
26	0x3c50ecd3	0.012751776
27	0xbcf595bf	-0.029978631
28	0x3b19c7b2	0.0023464975
29	0x3ce7e3c3	0.028306847
30	0xbd012961	-0.031533603
31	0xbd7df754	-0.06200345
32	0xbd9a63da	-0.075385764
33	0x3e3e70f2	0.18597773
34	0xbdb2b386	-0.08725648
35	0xbd18d575	-0.037312943
36	0x3e47aca4	0.19499451
37	0xbb9d4e7f	-0.004800617
38	0x3e1e2987	0.15445529
39	0xbc55b86e	-0.01304446
40	0xbe0ed266	-0.13947448
41	0xbd710972	-0.0588469
42	0xbd708a11	-0.05872542
43	0x3e1b398d	0.15158673
44	0xba0cc3c5	-0.0005369748
45	0x3da49615	0.080364384
46	0xbe0c7658	-0.1371702
47	0x3c8ae789	0.016956108
48	0xbdda4983	-0.106585525
49	0x3d93d18a	0.07217701
50	0xbd7b6fb0	-0.06138581
51	0x3e0ac25c	0.13550705
52	0x3d43a68c	0.047766253
53	0xbcab8ae6	-0.020940255
54	0x3d9c208b	0.076233946
55	0x3d913453	0.07090058
56	0x3caa889c	0.020817094
57	0x3d9d7603	0.076885246
58	0x3defdd4a	0.117121294
59	0x3b9fd3bc	0.0048775356
60	0xbde9bd8f	-0.114131086
61	0x3e379de4	0.17931324
62	0xbbca0e7e	-0.0061662784
63	0xbe55933f	-0.20856951
64	0x3dab3ecd	0.08361588
65	0xbecbad74	-0.39780772
66	0x3d7556b5	0.059897143
67	0xbeac742d	-0.33682385
68	0xbe1b177f	-0.15145682
69	0xbe8703cf	-0.26370093
70	0xbe3f6be0	-0.18693495
71	0x3a52f98d	0.000804805
72	0xbc18d10c	-0.009327184
73	0xbe0ed7c8	-0.13949502
74	0xbd018412	-0.031620093
75	0xbd2d39f3	-0.042291593
76	0xbd5b3fe7	-0.05352774
77	0xbd92fa7d	-0.07176683
78	0x3e9aaa84	0.30208218
79	0xbe3e2328	-0.18568099
80	0x3d6ab15f	0.05729806
81	0xbe36895d	-0.17825837
82	0xbd42ade3	-0.047529113
83	0xbe362c66	-0.17790374
84	0xbdb20e28	-0.08694106
85	0xbda34dbf	-0.07973813
86	0xbec576bc	-0.3856715
87	0xbe18c7f0	-0.1492002
88	0x3d106f07	0.035262134
89	0xbe394439	-0.18092431
90	0xbe0cfe7c	-0.13768953
91	0xbe59f3c3	-0.21284394
92	0xbe9b6c5d	-0.30356112
93	0xbe7ac3ab	-0.24488704
94	0xbe172aa8	-0.14762366
95	0xbe1b1e0d	-0.15148182
96	0xbdd2ad08	-0.10286909
97	0xbeaeaad7	-0.34114715
98	0x3e151516	0.14558825
99	0x3e090ba1	0.13383342
100	0xbc99ff9a	-0.018798638
101	0xbeaaaa75	-0.33333173
102	0xbdb551e7	-0.08853512
103	0xbdf16ad3	-0.11787953
104	0xbcd37e17	-0.02581696
105	0xbe475f79	-0.19470014
106	0x3ce07ad1	0.027402313
107	0xbda2cee6	-0.07949619
108	0xbdc55ff3	-0.096374415
109	0x3d6c922d	0.05775659
110	0xbebee6bb	-0.37285408
111	0x3d8393e7	0.064246945
112	0xbe97fd19	-0.29685286
113	0xbd12e154	-0.03585942
114	0x3ce1cab3	0.027562475
115	0xbbeab7e9	-0.007163037
116	0xbe9bd145	-0.30433097
117	0xbd8bbfda	-0.06823702
118	0xbd640d62	-0.055676825
119	0xbe52cbcd	-0.20585556
120	0x3cd88325	0.026429722
121	0xbdc9470a	-0.09828003
122	0x3d976e59	0.07394094
123	0x3d9b6f40	0.07589579
124	0x3df79c6d	0.12090383
125	0xbac051a1	-0.0014672765
126	0x3cafaacf	0.021443753
127	0xbbc3919a	-0.005968285
128	0xbe795551	-0.24348952
129	0x3e12955e	0.14314792
130	0xbb84ea2e	-0.0040562367
131	0x3cabc9d5	0.020970264
132	0x3df69813	0.120407246
133	0x3cf56af9	0.029958235
134	0x3d8308ea	0.063981846
135	0xbe1ff511	-0.15620829
136	0xbd9747bf	-0.07386731
137	0xbe3bb0da	-0.18329182
138	0xbe0b35ab	-0.13594691
139	0xbe0f6bff	-0.14006041
140	0x3e4e31fd	0.20136257
141	0x3e8caa4c	0.27473676
142	0x3c8ce9d5	0.017201344
143	0x3e1483c1	0.14503385
144	0x3d04b9fb	0.032403927
145	0xbdc7936f	-0.097449176
146	0x3de6690d	0.112505056
147	0x3d0b147f	0.033955093
148	0x3e35065b	0.17678206
149	0x3e9dcaea	0.30818874
150	0xbda772c8	-0.0817619
151	0x3d86313f	0.06552362
152	0xbd0a44bc	-0.033756956
153	0xbd840bea	-0.06447585
154	0xbea9ac66	-0.33139342
155	0xbced19d2	-0.028942976
156	0x3e1283cb	0.14308088
157	0x3d04e7da	0.032447673
158	0x3e83128d	0.2560009
159	0x3e364cc5	0.17802723
160	0xbdd6b859	-0.1048438
161	0xbe050721	-0.12991
162	0xbcc09641	-0.023509147
163	0x3dc206fc	0.094739884
164	0xbdd99384	-0.106238395
165	0x3b8510ca	0.0040608393
166	0xbd010887	-0.031502273
167	0x3dc6b59f	0.0970261
168	0x3d6804b0	0.056645095
169	0x3d3834b6	0.044972144
170	0x3e3182e8	0.17335093
171	0x3ce6d787	0.028178943
172	0x3bda3eda	0.0066603245
173	0xbe35876b	-0.17727439
174	0x3eb9d374	0.36294138
175	0x3c879f23	0.016555374
176	0xbacbd898	-0.0015552221
177	0x3d9c157f	0.076212876
178	0x3da953f1	0.08267964
179	0xbddb1b3f	-0.10698556
180	0x3d282c56	0.041057907
181	0x3c6ca6dd	0.01444408
182	0x3da155cb	0.07877692
183	0xbd74409e	-0.059631936
184	0xbe8a643e	-0.27029604
185	0x3e1c60fe	0.15271375
186	0x3b8d605d	0.004314466
187	0xbd013153	-0.03154118
188	0x3dab5736	0.083662435
189	0xbd1ecdca	-0.038770474
190	0xbd8bd172	-0.06827058
191	0xbdbcc5a9	-0.09217388

phi.weight f4 [64, 8]
0	0xbe483f95	-0.19555505
1	0xbdfb7f04	-0.12280086
2	0xbe8cd01b	-0.27502522
3	0x3e8a061f	0.26957795
4	0x3df4be8a	0.11950405
5	0xbce4c9bd	-0.027928228
6	0x3e4b9991	0.198828
7	0xbdb5a953	-0.08870187
8	0x3dbea07c	0.09307954
9	0x3e668a77	0.22513758
10	0x3e16c9d4	0.14725429
11	0xbc9b1a78	-0.01893352
12	0xbdfce191	-0.12347711
13	0x3da5514a	0.08072145
14	0x3cba012a	0.022705633
15	0xbdbb0772	-0.091322795
16	0x3d585b2f	0.052821334
17	0xbf135abc	-0.57560325
18	0x3e94b856	0.29046887
19	0x3de767db	0.11299106
20	0x3e9696f9	0.29412058
21	0xbcd2d6d2	-0.0257372
22	0xbd9d41ab	-0.07678541
23	0xbdff238c	-0.12457952
24	0x3e3903e1	0.18067886
25	0x3ee3c20c	0.44483984
26	0xbeb49a80	-0.35274124
27	0x3e32daf9	0.17466344
28	0xbe2eea35	-0.1708153
29	0x3db9f4e1	0.0907991
30	0xbd68fd3f	-0.05688214
31	0x3ce810e5	0.028328368
32	0x3ef17c48	0.47165132
33	0xbeed087e	-0.46295542
34	0x3e802d64	0.2503463
35	0x3e2bea99	0.1678871
36	0x3e0d6db8	0.13811386
37	0xbe1bded0	-0.15221715
38	0xbe70653e	-0.23476121
39	0x3d9bf94a	0.076159075
40	0x3f06513d	0.5246771
41	0x3d2169f6	0.039407693
42	0xbc64ae22	-0.013957532
43	0x3c3171f4	0.010830391
44	0xbb3a67e2	-0.0028443267
45	0x3c999a46	0.018750321
46	0xbad32265	-0.0016108273
47	0x3b5f80dd	0.0034103908
48	0xbd677322	-0.056506284
49	0xbd675420	-0.056476712
50	0x3e4b2a01	0.19840242
51	0xbe287fc4	-0.16454989
52	0xbd9d064f	-0.07667219
53	0x3d49b1a9	0.049241696
54	0x3d6e8598	0.058232874
55	0xbdef1ade	-0.116750464
56	0xbc89c9c7	-0.016819848
57	0x3ecc353d	0.39884368
58	0x3efcbcbc	0.49362743
59	0x3e96494b	0.29352793
60	0xbdc58108	-0.096437514
61	0xbe823a32	-0.25435024
62	0x3d166b02	0.036723144
63	0xbd5c4993	-0.053781103
64	0xbdce5d48	-0.10076386
65	0xbe9005dc	-0.2812947
66	0x3dde3960	0.10850787
67	0x3e609772	0.21932772
68	0x3cec00bd	0.028808946
69	0xbd0a1310	-0.033709586
70	0xbc0b296e	-0.008493764
71	0x3c5a4039	0.013320976
72	0x3f063491	0.5242396
73	0xbdee72ce	-0.11642991
74	0xbcac1892	-0.02100781
75	0xbcb00754	-0.02148787
76	0xbcce542e	-0.025186624
77	0x3bd514f0	0.00650274
78	0xbc4f962e	-0.012670083
79	0xbb9913bc	-0.004671542
80	0x3e935b57	0.28780624
81	0x3e2771fa	0.16352072
82	0x3d1bccd5	0.03803714
83	0x3da10cce	0.078637704
84	0xbcc593c7	-0.024118317
85	0x3cfa33e0	0.030542314
86	0xbc812f19	-0.015769528
87	0x3b8876a1	0.0041645323
88	0x3e85d21a	0.26136857
89	0xbdc73646	-0.09727149
90	0x3d8fb249	0.07016427
91	0x3d85e4f9	0.06537814
92	0xbe261fe0	-0.16223097
93	0xbe111d05	-0.14171226
94	0xbc13e45b	-0.009026612
95	0xbcc0c895	-0.023533145
96	0x3d8b8340	0.06812143
97	0xbda6a411	-0.08136762
98	0xbd7f3734	-0.062308505
99	0xbcbc6d72	-0.023001406
100	0xbbe9b281	-0.007131875
101	0x3be1ed3b	0.006894735
102	0xbc595ba5	-0.013266479
103	0x3c18aff6	0.009319296
104	0x3df29179	0.11844153
105	0xbc6ba6ec	-0.014383059
106	0xbe1b3f0a	-0.15160766
107	0xbb32b299	-0.0027267097
108	0xbda61d1c	-0.08111021
109	0xbc3638ae	-0.011121912
110	0xbd76bca8	-0.06023851
111	0xbc18d318	-0.009327672
112	0x3e3f321b	0.18671457
113	0x3e846610	0.25859118
114	0x3e9c5a19	0.3053749
115	0xbe2ff4a0	-0.17183161
116	0x3e539f02	0.20666125
117	0x3e23d870	0.16000533
118	0xbceb74bf	-0.028742192
119	0x3d899486	0.06717782
120	0x3e9ff655	0.31242624
121	0xbe0e1ab1	-0.1387737
122	0x3ba28dc3	0.004960747
123	0xbd555d0e	-0.052090697
124	0x3c5d25f6	0.01349782
125	0xbcacdd0d	-0.021101499
126	0xb819b3c9	-3.664548e-05
127	0xbbb5798f	-0.0055381726
128	0x3ed85c5a	0.4225796
129	0xbdfa8ba0	-0.122336626
130	0xba0b503d	-0.00053143856
131	0xbaae26e1	-0.0013286733
132	0xbc77a6f7	-0.015115491
133	0xbc73dc53	-0.014884072
134	0xbd35dc9b	-0.04439984
135	0x3cbaa9c3	0.022786027
136	0xbd6c4c8c	-0.05769019
137	0x3d10c810	0.035347044
138	0xbd448fb4	-0.04798861
139	0xbbe9e453	-0.007137814
140	0xbca3aeaa	-0.019980747
141	0x3c20e390	0.00981988
142	0xbc8c15db	-0.017100265
143	0xbb96aec0	-0.0045984685
144	0x3d900ddb	0.07033893
145	0xbe5dac79	-0.21647824
146	0x3e5255da	0.20540562
147	0x3e41939d	0.18903966
148	0x3f195362	0.5989286
149	0xbe7e88ae	-0.24856827
150	0x3e1c8297	0.15284191
151	0xbec56ea6	-0.3856098
152	0x3ebdb019	0.37048414
153	0x3ed83b9c	0.42232978
154	0xbe11a3df	-0.14222668
155	0xbe312ce6	-0.17302284
156	0x3e803a93	0.2504469
157	0xbd014879	-0.031563256
158	0x3cc67ff4	0.024230935
159	0x3cb5d46d	0.022196019
160	0xbe70f812	-0.23532131
161	0xbeba0389	-0.36330822
162	0xbe1e82e0	-0.15479612
163	0x3c77a3f3	0.015114772
164	0x3e074b09	0.13212217
165	0xbd77afa9	-0.060470257
166	0xbc9ce650	-0.01915279
167	0xbd379dc6	-0.0448282
168	0x3eebc800	0.46051025
169	0xbe0477c9	-0.1293632
170	0xbda5f469	-0.08103258
171	0xbdbbc1ac	-0.09167799
172	0xbd6ce86a	-0.057838835
173	0xbd2a139a	-0.0415226
174	0xbd1401a7	-0.03613439
175	0xbbf5a4f0	-0.0074964687
176	0xbe13d478	-0.14436519
177	0xbf04ae25	-0.51828223
178	0x3e35fe7a	0.17772856
179	0xbe356310	-0.1771357
180	0x3ec3a25b	0.38209805
181	0x3bb3f41f	0.005491748
182	0xbe4ca0cf	-0.19983219
183	0xbd48be81	-0.049009804
184	0x3efccc04	0.49374402
185	0xbe98edf9	-0.2986906
186	0xbcfbc980	-0.030735731
187	0xbdc614bd	-0.09671924
188	0xbce503a0	-0.02795583
189	0xbd132466	-0.035923384
190	0x3bf36d75	0.00742882
191	0xbcbe0ac9	-0.023198502
192	0x3eee7e82	0.46580893
193	0xbe8f6f90	-0.28014803
194	0xbd941f66	-0.07232551
195	0xbd98bb55	-0.07457606
196	0x3cbfed72	0.023428652
197	0xbdc91947	-0.098192744
198	0x3c84ae31	0.016196342
199	0xbd1bdbc6	-0.03805139
200	0x3e5e04cc	0.21681517
201	0xbf0eb898	-0.5575042
202	0x3d4c3945	0.049859304
203	0xbe159334	-0.14606935
204	0x3d787e97	0.0606676
205	0xbdc7476c	-0.097304195
206	0x3cbd3a33	0.02309904
207	0xbcbb4dd0	-0.022864252
208	0x3eacd785	0.33758178
209	0xbd165c4f	-0.036709126
210	0x3921c0fb	0.00015426047
211	0xbc13d016	-0.0090217795
212	0x3c7ffaf9	0.015623801
213	0x3be9dee8	0.007137168
214	0xbc0bad09	-0.0085251415
215	0xbafd3bf7	-0.0019320239
216	0xbc93f583	-0.018061405
217	0x3de5c59f	0.11219334
218	0xbdb866d8	-0.09003991
219	0xbd4adcd4	-0.049527004
220	0xbe02af2f	-0.1276214
221	0x3bdf9429	0.006823082
222	0x3d8304b7	0.06397384
223	0xbdf5483e	-0.1197667
224	0xbea76dc0	-0.3270092
225	0x3d55d834	0.05220814
226	0xbe853fef	-0.2602534
227	0x3d761243	0.06007601
228	0xbd491745	-0.049094457
229	0xbd482221	-0.048860673
230	0x3c0e26fb	0.008676286
231	0xbc20166c	-0.009770971
232	0x3daa09bb	0.08302637
233	0xbd08b811	-0.033378664
234	0xbd05b87e	-0.03264665
235	0xbb7a335e	-0.003817759
236	0xbd3f6c0f	-0.046733912
237	0xbc13fed6	-0.009032926
238	0xbcab6e4a	-0.020926613
239	0xbc1155b6	-0.008870533
240	0x3eac46b1	0.33647683
241	0xbead75b3	-0.3387886
242	0x3edf0e91	0.435658
243	0xbc5b790f	-0.013395562
244	0x3e20314d	0.15643807
245	0x3e8d2070	0.2756381
246	0xbd625872	-0.05526013
247	0xbe2812c0	-0.16413403
248	0x3e37105a	0.17877331
249	0x3ea62cf6	0.32456177
250	0xbb8ae2e3	-0.004238473
251	0xbefc8ce3	-0.49326238
252	0xbe948fd0	-0.2901597
253	0xbd741fa8	-0.059600502
254	0x3e99a981	0.30012134
255	0xbe61f889	-0.22067465

phi.bias f4 [64]
0	0xbea0cf64	-0.31408226
1	0x3d3e0285	0.04638912
2	0x3eb940db	0.36182293
3	0x3ed56322	0.41677195
4	0x3e22d86d	0.15902872
5	0x3ed4670a	0.41484863
6	0x3ea37d54	0.31931555
7	0x3eec7a5d	0.46187106
8	0xbdb8c8cb	-0.09022673
9	0x3ec232ce	0.37929386
10	0x3e66851f	0.22511719
11	0xbd578785	-0.052619476
12	0x3f119b0f	0.56877226
13	0x3f08f9d3	0.535062
14	0xbe809335	-0.2511231
15	0x3eca34b9	0.3949335
16	0x3ebda19b	0.37037358
17	0x3eecca82	0.4624825
18	0xbebb78e2	-0.36615664
19	0x3e38c0ec	0.18042344
20	0x3e86b2f2	0.263084
21	0xbe2aa102	-0.16662982
22	0x3ede8476	0.43460435
23	0x3e6d5e2e	0.23180458
24	0x3e84f46d	0.25967732
25	0x3ebb6c7f	0.36606213
26	0x3ea4b53c	0.3216952
27	0x3e0be1d3	0.13660364
28	0x3e794964	0.24344403
29	0x3f14d8f6	0.58143556
30	0xbdd51d6c	-0.104060024
31	0xbe589e3b	-0.2115411
32	0x3e9dcd05	0.3082048
33	0xbe505a2c	-0.20346898
34	0x3f0baa3b	0.54556626
35	0x3e40e5d9	0.1883768
36	0x3ea4b9e6	0.3217308
37	0xbe72af1f	-0.23699616
38	0x3d879112	0.06619467
39	0x3d05389e	0.032524697
40	0x3eac4785	0.33648315
41	0x3e6538b2	0.22384909
42	0xbe0918a5	-0.13388307
43	0xbe543f97	-0.20727383
44	0x3ea15c22	0.31515604
45	0x3e52283a	0.20523158
46	0x3ea5e290	0.32399416
47	0xbb4418f3	-0.0029922097
48	0x3ea87bd2	0.32906967
49	0xbde8c3d9	-0.1136548
50	0x3db36664	0.08759764
51	0x3e1a3e47	0.1506282
52	0x3eaa3322	0.33242136
53	0x3ec7749e	0.3895616
54	0xbe80af1c	-0.25133598
55	0x3ec01867	0.37518618
56	0x3ed67b38	0.41890883
57	0xbe823419	-0.25430372
58	0x3d950245	0.072758235
59	0xbe915587	-0.28385565
60	0x3ea78198	0.3271606
61	0xbd393493	-0.045216154
62	0x3db98dcf	0.09060251
63	0x3e717efb	0.23583595

g.weight f4 [12, 64]
0	0xbe300674	-0.17189962
1	0x3e0986e7	0.13430367
2	0xbe07a0f3	-0.13244991
3	0xbc337ea4	-0.010955486
4	0xbdd83c04	-0.10558322
5	0xbd17ccf7	-0.037060704
6	0xbe4ce6fd	-0.2000999
7	0xbd75674c	-0.059912965
8	0xbd1675ba	-0.036733367
9	0x3b0b6ebf	0.0021275727
10	0xbdec91e0	-0.11551261
11	0x3da21278	0.07913679
12	0x3dd52a46	0.10408454
13	0xbd8b1df2	-0.06792821
14	0x3cadf82d	0.021236503
15	0xbe3f118f	-0.18659042
16	0xbdfd4da4	-0.123683244
17	0x3ec13bc1	0.377409
18	0x3cb5ed33	0.022207832
19	0x3cff15ab	0.031138262
20	0xbda25061	-0.07925487
21	0x3d9a2fc2	0.0752864
22	0x3d26dd6b	0.040738504
23	0x3eb6a3ed	0.3567194
24	0x3e5f3ef8	0.21801364
25	0xbe5b0b11	-0.2139094
26	0xbd9b42ca	-0.075810984
27	0x3dc15ea7	0.094418816
28	0xbd1b44e7	-0.037907507
29	0x3d5d9bb6	0.054103576
30	0xbe3024c5	-0.17201526
31	0xbb59a67e	-0.003321081
32	0xbe8e713d	-0.2782077
33	0x3d2a1b25	0.041529793
34	0xbef116ca	-0.470877
35	0x3da35315	0.07974831
36	0x3d4b26a0	0.049597383
37	0xbf8a1d96	-1.0790279
38	0x3e00a918	0.12564504
39	0x3e05e060	0.13073874
40	0xbb2fb5ce	-0.0026811245
41	0x3d4ad96e	0.049523763
42	0x3d50b698	0.050955385
43	0xbdeaed51	-0.11471046
44	0xbd8dd02a	-0.0692447
45	0xbbff84c2	-0.0077978084
46	0x3ddadd20	0.106867075
47	0x3c88c9a1	0.016697707
48	0xbe307a5d	-0.17234178
49	0xbcc8ba15	-0.024502793
50	0x3cb51823	0.022106236
51	0xbc84fc65	-0.016233632
52	0x3e7a37d4	0.24435359
53	0x3de1648b	0.11005505
54	0x3d88502d	0.06655917
55	0xbdb6ae2d	-0.0891994
56	0x3dfe3b88	0.124136984
57	0xbdbe2df5	-0.09286109
58	0xbe102e21	-0.14080097
59	0xbf5e7af7	-0.8690638
60	0x3ca90b5a	0.020635296
61	0x3dc8bf6b	0.09802135
62	0x3e019090	0.12652802
63	0x3ec2b11a	0.38025743
64	0xbdf7c56e	-0.120982036
65	0x3dcec9bc	0.100970715
66	0xbe3a32e9	-0.18183483
67	0x3e43ecd3	0.1913331
68	0x3e681b5b	0.22666685
69	0x3e9ca310	0.30593157
70	0x3b48328d	0.0030547709
71	0x3e18c0aa	0.14917246
72	0x3e00c98c	0.12576884
73	0x3e51a778	0.2047404
74	0x3e457e54	0.19286472
75	0xbd4a8bde	-0.049449794
76	0x3d926fd8	0.07150239
77	0x3dec7902	0.11546518
78	0x3d85e9bc	0.06538722
79	0xbc94bcee	-0.018156495
80	0xbdfc2ff8	-0.12313837
81	0x3d067b6a	0.03283254
82	0xbdf0394b	-0.11729678
83	0x3e68420b	0.22681443
84	0x3d99bc91	0.07506669
85	0x3dfa1241	0.12210513
86	0xbdd43458	-0.10361546
87	0xbd9ae07d	-0.07562349
88	0x3e7fb40e	0.24971029
89	0xbde7bd83	-0.11315443
90	0xbd995db8	-0.074885786
91	0x3d54eb5f	0.05198228
92	0xbd579fd6	-0.052642666
93	0x3d980076	0.07421963
94	0xbdaf3c38	-0.08556408
95	0xbd9404b6	-0.07227461
96	0x3dd66ef6	0.10470383
97	0x3dc585b7	0.09644645
98	0xbd28eacc	-0.041239545
99	0x3b82332e	0.0039733863
100	0xbe5d285f	-0.21597432
101	0x3ee6b24a	0.450579
102	0xbe34e27a	-0.17664519
103	0x3cd6ecae	0.026235905
104	0xbe461d9d	-0.19347234
105	0xbe18552a	-0.14876238
106	0x3e7218d6	0.23642287
107	0xbe34980f	-0.17636131
108	0xbc1f64b8	-0.009728603
109	0xbdaa026f	-0.083012454
110	0xbe2576fe	-0.16158673
111	0xbb134511	-0.0022471587
112	0x3d4c3931	0.04985923
113	0x3dc4a67c	0.09602067
114	0x3db3b995	0.08775631
115	0x3dd22a5a	0.10261984
116	0x3d8c443f	0.068489544
117	0x3e694475	0.2278002
118	0x3d1dc2e0	0.038515925
119	0xbe5fa894	-0.21841651
120	0x3e0978ef	0.13425039
121	0x3e3f8a84	0.18705183
122	0x3ddce573	0.107859515
123	0x3edad608	0.42741418
124	0x3c729db3	0.014808106
125	0x3d8d0303	0.0688534
126	0x3e1a17ed	0.1504819
127	0x3d812c4b	0.06307276
128	0xbdfc2648	-0.12311989
129	0x3d894df8	0.067043245
130	0xbe0addfe	-0.13561246
131	0x3e2e0be4	0.16996723
132	0x3e548c2b	0.20756595
133	0x3e66a47a	0.2252368
134	0x3d9ffb9f	0.07811665
135	0x3de6d598	0.112712085
136	0xbd1760ab	-0.036957424
137	0x3e7cf8cc	0.24704283
138	0x3e7f90cc	0.2495758
139	0xbe0b715b	-0.1361746
140	0x3b37ec64	0.0028064484
141	0x3e2d093a	0.16898051
142	0xbc076d65	-0.008265828
143	0xbd8cf6ef	-0.06883036
144	0xbe0a8d7a	-0.13530532
145	0x3c8a2ff5	0.01686857
146	0xbd5c76bd	-0.053824175
147	0x3e48c9c8	0.19608223
148	0x3e0dac9c	0.13835377
149	0x3e033963	0.1281486
150	0xbdcec584	-0.10096267
151	0xbdc244e7	-0.09485798
152	0x3e871653	0.2638422
153	0xbe186640	-0.14882755
154	0xbdf0c17c	-0.11755654
155	0xbd032a32	-0.032022662
156	0x3e09456c	0.13405389
157	0x3c8ac8f0	0.016941518
158	0xbd69ca08	-0.057077438
159	0xbd2e839d	-0.042605985
160	0x3dfe551d	0.12418578
161	0x3dc0cb1d	0.09413741
162	0xbdbccd24	-0.09218815
163	0x3d9b414d	0.075808145
164	0xbe2e44e3	-0.17018466
165	0x3ea1a1d7	0.31568787
166	0xbe46bb28	-0.19407332
167	0x3d94c9b7	0.072650366
168	0xbdd95399	-0.10611648
169	0xbe5a8f61	-0.21343757
170	0x3e557ebe	0.2084913
171	0xbdeaa80d	-0.114578344
172	0xbdc398d9	-0.09550638
173	0xbd6dbbdc	-0.058040485
174	0xbdd6eca7	-0.104943566
175	0x3d38514b	0.044999402
176	0xbd81b110	-0.063326
177	0x3d9f1b7e	0.077689156
178	0x3dba34d6	0.09092109
179	0x3dad75d1	0.08469737
180	0x3d43382f	0.047661003
181	0x3e30f37b	0.1728038
182	0xbb226e44	-0.0024784962
183	0xbe68ee68	-0.22747195
184	0x3dbb130a	0.09134491
185	0x3e1c954d	0.15291329
186	0x3da4598f	0.080248944
187	0x3e6f5d4d	0.23375435
188	0x3da2a2fd	0.07941244
189	0x3cdac20a	0.026703853
190	0x3e288c6b	0.16459815
191	0x3cf3ee7b	0.029776802
192	0xbd10cb94	-0.035350397
193	0x3dab4337	0.083624296
194	0xbdd86b6e	-0.105673656
195	0x3e1db3bc	0.15400594
196	0x3e42c83e	0.19021699
197	0x3e632334	0.22181398
198	0x3d772c70	0.060345113
199	0x3df6541f	0.120277636
200	0x3e25c8d7	0.16189896
201	0x3e44ac72	0.19206408
202	0x3ddcf774	0.107893854
203	0xbd2a127f	-0.041521545
204	0x3cde6327	0.027146889
205	0x3d7a307a	0.061081387
206	0x3d3964e5	0.045262236
207	0x3dd43253	0.10361161
208	0xbe0fe8a0	-0.14053583
209	0xbbfbe0f0	-0.0076867267
210	0xbdde9c08	-0.10869604
211	0x3e4c8da7	0.19975911
212	0x3da6ba3d	0.08140991
213	0x3e77c5b3	0.2419651
214	0xbd49cd21	-0.04926789
215	0xbdef683f	-0.11689805
216	0x3e71e963	0.23624186
217	0xbe2bd79f	-0.16781472
218	0xbe558787	-0.20852481
219	0xbaccfc6f	-0.0015639196
220	0x3d79c5dc	0.06097971
221	0xbdb824e1	-0.08991409
222	0xbdc88631	-0.0979122
223	0xbd5269e3	-0.051370513
224	0x3dad75e4	0.084697515
225	0x3e0264fb	0.12733833
226	0x3c9bc98d	0.019017005
227	0x3d196a21	0.037454728
228	0xbe26110a	-0.16217437
229	0x3ef3d9f1	0.47627214
230	0xbdde8e6c	-0.108670086
231	0x3d4a34f6	0.049366914
232	0xbe0e6ef2	-0.1390951
233	0xbdaaac5e	-0.08333658
234	0x3e970e6c	0.2950319
235	0xbe271bd5	-0.16319211
236	0xbd759d78	-0.059964627
237	0xbda8596c	-0.08220181
238	0xbe17712c	-0.14789265
239	0x3c05ee89	0.008174547
240	0xbe316ab4	-0.1732586
241	0x3cf267f1	0.029590579
242	0x3e0dd105	0.13849266
243	0x3d6bb348	0.057544023
244	0x3e224ca7	0.15849553
245	0x3e3bdd4f	0.18346141
246	0xbcb00093	-0.021484649
247	0xbe2753df	-0.16340588
248	0x3e0cf8d1	0.13766791
249	0x3dc9f9d0	0.09862101
250	0x3d312e57	0.043257084
251	0x3e9686cb	0.29399714
252	0xbceb767c	-0.028743021
253	0xbb3aa2de	-0.0028478424
254	0x3d685aa7	0.056727078
255	0xbc108195	-0.008819957

g.bias f4 [12]
0	0x3ceedf6f	0.029159276
1	0x3d3ae589	0.045629058
2	0x3daabbc3	0.08336594
3	0x3dc054cd	0.093911745
4	0x3e07dccc	0.13267821
5	0x3d7ba197	0.0614334
6	0x3c922a3e	0.017842408
7	0x3d887c8f	0.06664383
8	0x3e1cd08a	0.15313926
9	0x3e59e986	0.21280488
10	0x3e7a0a86	0.24418077
11	0x3e3ddf9c	0.18542331
