model/coma+g2anet/5m_vs_6m/11_critic_params.pkl (torch, 216855 bytes, 6 tensors)

fc1.weight f4 [128, 278]
-0.18795033 -0.062725335 0.008440645 -0.13503656 -0.07121899 -0.08844279 0.030779177 0.10713963
-0.07214981 -0.05691815 0.005854347 0.13479537 -0.076892264 -0.040440693 0.026264869 -0.02312184
-0.20919806 0.005195981 0.00041077659 -0.0308786 -0.035633408 -0.084450506 0.048278533 -0.033126965
0.05141538 -0.110859856 0.02759904 -0.0060967915 -0.034486588 -0.01046542 0.035533845 0.030019715
-0.07367806 -0.060927536 -0.038365513 -0.10676284 -0.04824714 0.03949882 -0.073225446 0.07221383
0.030775405 -0.03481243 -0.048634574 0.054314986 -0.065886766 -0.15312146 0.046835624 -0.068826646
0.043519944 -0.043857228 0.019921426 -0.015773013 -0.033920437 -0.011965151 0.04075413 -0.014718763
-0.048553925 -0.045219127 -0.016286625 -0.05305083 -0.030071933 -0.05361197 -0.10197683 -0.0079928115
-0.06363963 -0.031859934 0.0028419802 0.09484877 -0.070101425 0.045582175 -0.048847485 0.046322737
-0.0390075 -0.021159489 -0.015330891 -0.0038340194 -0.005853789 -0.015621578 -0.018321626 0.013404965
-0.009045485 -0.029269878 -0.06226042 0.10214188 0.05992343 0.03567432 -0.18119004 0.010255806
0.0324183 -0.034392897 -0.032413017 -0.065766424 -0.07999116 0.029928535 -0.032429893 -0.025617404
-0.08600101 0.046073247 -0.014714971 -0.057618685 -0.106304064 -0.0055669835 -0.060921863 -0.046340767
-0.0062626526 0.026638005 -0.0064854277 -0.05715056 -0.05052889 0.01118324 0.03833457 -0.031730104
-3.206171e-05 -0.017191557 -0.03270966 0.05531655 -0.057239033 -0.025254665 -0.03014778 -0.03737577
0.02094302 -0.09303488 -0.0652556 -0.0055423668 -0.08450422 0.01944008 0.003317644 0.030850405
-0.07320941 -0.011785984 -0.026884152 -0.0500391 -0.09818762 -0.046363562 0.056178045 -0.07268098
-0.0067039663 0.00034249015 -0.07465438 -0.03360193 -0.011301858 -0.0023586368 0.0020666632 0.018890306
-0.041589122 0.0529593 -0.04126675 -0.01411704 -0.015911486 -0.005281821 -0.01782716 -0.004044191
0.0048421267 -0.031586163 0.026562281 0.069627136 0.06839311 -0.058422677 0.04100223 -0.048660003
-0.059052296 0.021029409 -0.043587152 0.002588917 -0.03071544 -0.04224102 -0.08170599 -0.014844139
-0.013420722 0.04832428 0.01232079 -0.044764522 -0.083083786 0.028960528 -0.09468287 -0.06351322
-0.10845964 -0.019137837 -0.038240105 -0.05556553 -0.018890757 -0.01097013 0.048376627 -0.08057419
0.0375733 -0.0086360285 -0.042998824 0.014004914 -0.076381646 0.0121495705 -0.012342229 -0.008769618
0.032153357 -0.09041915 -0.038737766 -0.016477365 0.015350751 -0.09455621 0.037470013 -0.03583528
-0.049679406 -0.11951616 -0.04278022 0.04000516 -0.054955386 -0.04486293 -0.08323394 0.015486905
0.006825332 -0.074899495 -0.061519533 -0.096041985 0.10697435 -0.08269493 0.032326605 0.025336094
-0.023231234 0.08364314 0.02309526 0.023564186 -0.008795506 -0.012005484 0.001894718 0.0029199685
-0.1089996 -0.07505355 -0.061722938 -0.06859164 -0.05200557 -0.042947907 0.013206879 -0.008546221
-0.06837506 -0.023762882 0.0036853696 -0.10376912 -0.0013353787 -0.13563952 0.050163966 0.0011879541
0.13201052 0.044061556 -0.01838216 -0.066201106 0.050478086 0.012694055 -0.02751635 -0.059583962
-0.1190408 -0.08307392 -0.036183536 -0.010682486 0.077455014 -0.0030260729 -0.053154208 0.020497244
00000000: 0d76 40be 2476 80bd a24a 0a3c 0647 0abe
00000010: 43db 91bd 7e21 b5bd 9d24 fc3c 066c db3d
00000020: 48c3 93bd 0223 69bd d2d5 bf3b cc07 0a3e
00000030: b179 9dbd 24a5 25bd 6c29 d73c 036a bdbc
00000040: 0438 56be 0c43 aa3b 805d d739 1ef5 fcbc
00000050: 56f4 11bd 63f4 acbd b6bf 453d 24b0 07bd
00000060: ef98 523d 7e0a e3bd 6217 e23c 98c7 c7bb
00000070: cf41 0dbd 2777 2bbc f08b 113d e8eb f53c
00000080: 86e4 96bd 278f 79bd 2825 1dbd 7aa6 dabd
00000090: cb9e 45bd 84c9 213d 39f7 95bd d8e4 933d
000000a0: b41c fc3c 7b97 0ebd 0c35 47bd 6479 5e3d
000000b0: a4ef 86bd dfcb 1cbe b6d6 3f3d fcf4 8cbd
000000c0: f841 323d a3a3 33bd 4232 a33c 6836 81bc
000000d0: 28f0 0abd 7b09 44bc cded 263d f726 71bc
000000e0: 7be0 46bd b137 39bd 876b 85bc d44b 59bd
000000f0: 6a59 f6bc 3a98 5bbd 3ad9 d0bd 48f4 02bc
00000100: 7f55 82bd 907f 02bd 8440 3a3b 1240 c23d
00000110: 5691 8fbd 60b4 3a3d 4d14 48bd e9bc 3d3d
00000120: 54c6 1fbd aa56 adbc 6b2e 7bbc 2c44 7bbb
00000130: 24d1 bfbb a6f1 7fbc 3c17 96bc 80a0 5b3c
00000140: 8433 14bc 62c7 efbc c804 7fbd c32f d13d
00000150: 4572 753d 3c1f 123d e289 39be f807 283c
00000160: 0dc9 043d 91df 0cbd 83c3 04bd 8cb0 86bd
00000170: 68d2 a3bd b02c f53c 35d5 04bd 97db d1bc
00000180: 4c21 b0bd 4db7 3c3d 1017 71bc 9201 6cbd
00000190: f2b5 d9bd 3e6b b6bb 3489 79bd d1cf 3dbd
000001a0: f036 cdbb f237 da3c b683 d4bb b516 6abd
000001b0: 62f7 4ebd e939 373c b604 1d3d 6df7 01bd
000001c0: 007a 06b8 4fd5 8cbc 90fa 05bd 9b93 623d
000001d0: 7a73 6abd dfe2 cebc 7af8 f6bc 5617 19bd
000001e0: b290 ab3c 1289 bebd baa4 85bd be9c b5bb
000001f0: 8c10 adbd cd40 9f3c d46c 593b fdb9 fc3c
00000200: d1ee 95bd 001a 41bc 273c dcbc cdf5 4cbd
00000210: 9716 c9bd b8e7 3dbd f31a 663d c4d9 94bd
00000220: f2ac dbbb 4090 b339 65e4 98bd 2da2 09bd
00000230: 6e2b 39bc 5c93 1abb db70 073b d8bf 9a3c
00000240: 5b59 2abd daeb 583d 5307 29bd 284b 67bc
00000250: ce58 82bc 2013 adbb 440a 92bc 2285 84bb
00000260: b4aa 9e3b 7e60 01bd 2499 d93c ac98 8e3d
00000270: b011 8c3d 9e4c 6fbd f4f1 273d b64f 47bd
00000280: d2e0 71bd de45 ac3c 7188 32bd d2aa 293b
00000290: f29e fbbc eb04 2dbd 7855 a7bd d534 73bc
000002a0: 97e2 5bbc aeef 453d 24dd 493c 015b 37bd
000002b0: d527 aabd a13e ed3c 18e9 c1bd 3813 82bd
000002c0: 1620 debd f4c6 9cbc a8a1 1cbd ae98 63bd
000002d0: cac0 9abc 0fbc 33bc 9226 463d 1504 a5bd
000002e0: 76e6 193d 217e 0dbc 891f 30bd de74 653c
000002f0: fb6d 9cbd fe0e 473c 0f37 4abc 72ae 0fbc
00000300: 3db3 033d ad2d b9bd 7eab 1ebd 8afb 86bc
00000310: b781 7b3c b0a6 c1bd 287a 193d 04c8 12bd
00000320: a27c 4bbd e3c4 f4bd 503a 2fbd 73dc 233d
00000330: e618 61bd 31c2 37bd 8e76 aabd cabc 7d3c
00000340: 09a7 df3b e864 99bd e8fb 7bbd a9b1 c4bd
00000350: 5e15 db3d f65b a9bd e768 043d a48d cf3c
00000360: 6e4f bebc 184d ab3d 4532 bd3c ae09 c13c
00000370: 071b 10bc a6b2 44bc 3058 f83a f15c 3f3b
00000380: 2f3b dfbd adb5 99bd 31d1 7cbd c679 8cbd
00000390: cb03 55bd 25ea 2fbd aa61 583c 7305 0cbc
000003a0: 3908 8cbd 60aa c2bc 3e86 713b e884 d4bd
000003b0: e007 afba 16e5 0abe bb78 4d3d 20b5 9b3a
000003c0: c42d 073e e479 343d 2f96 96bc 7294 87bd
000003d0: 1cc2 4e3d bafa 4f3c f869 e1bc 500e 74bd
000003e0: aacb f3bd a922 aabd 3035 14bd 9805 2fbc
000003f0: bca0 9e3d 1451 46bb 3ab8 59bd d6e9 a73c

fc1.bias f4 [128]
-0.05857393 -0.11970023 -0.1245589 -0.106911816 -0.1109832 -0.07902467 -0.08866215 -0.10517968
-0.10846617 -0.038828302 0.037665427 -0.0029973523 -0.10063109 -0.070015356 -0.020253519 -0.09168774
-0.08437577 -0.19034553 -0.09158479 -0.14564297 0.05873078 -0.04280987 0.110915385 0.12099617
-0.07322508 -0.09002288 -0.11877662 -0.11647014 -0.02775962 -0.0031900243 -0.17857447 -0.06453636
-0.10684064 -0.019868515 -0.17646283 -0.13503955 -0.1735388 -0.061838724 -0.050980743 -0.0791633
-0.24125248 -0.16266046 0.020321835 -0.06653913 -0.040071778 -0.05773389 -0.076784424 -0.11927716
0.048154246 -0.1087183 -0.15674293 -0.039927397 -0.058715757 -0.1321587 -0.06411827 -0.043583997
-0.21298246 -0.20207912 -0.054323897 -0.06497413 -0.13344269 -0.08518054 -0.10722454 -0.16418372
-0.14389814 -0.115450345 -0.068056256 -0.2720705 0.06888049 -0.060782224 -0.19696483 -0.120007895
-0.017472679 -0.046886336 -0.062917516 -0.122161 -0.109347686 -0.12823717 0.030693455 0.013848095
0.0019173695 -0.001836846 -0.093332306 0.041416988 -0.094544314 -0.08652848 -0.069982514 0.009199392
-0.027447512 -0.093471356 -0.067668244 0.06757693 -0.08991065 0.011858692 -0.12265536 -0.013493011
-0.005321621 -0.09340696 -0.23331696 -0.10308852 -0.062059116 -0.13432659 -0.08532234 -0.08483118
-0.09823367 -0.103554465 -0.011976628 -0.01838407 -0.057564687 -0.08314057 -0.100881554 -0.28806806
-0.044107396 -0.22462891 -0.07713345 -0.016326513 -0.08368735 0.00033403607 -0.18163447 -0.06366465
-0.08329056 -0.04622191 -0.05937962 0.0071078576 -0.11013358 -0.05686034 -0.06643841 -0.09050672
00000000: 38eb 6fbd 6525 f5bd bd18 ffbd 95f4 dabd
00000010: 294b e3bd b0d7 a1bd 8094 b5bd 7268 d7bd
00000020: 8323 debd 6d0a 1fbd 1047 1a3d 3a6f 44bb
00000030: ac17 cebd 3664 8fbd b5ea a5bc c8c6 bbbd
00000040: 34cd acbd f0e9 42be ce90 bbbd 6e23 15be
00000050: b08f 703d 6759 2fbd 9b27 e33d d7cc f73d
00000060: 08f7 95bd ea5d b8bd 2841 f3bd e687 eebd
00000070: 2568 e3bc ba0f 51bb 3adc 36be a42b 84bd
00000080: 44cf dabd 4cc3 a2bc acb2 34be cf47 0abe
00000090: 28b4 31be 9a4a 7dbd 2fd1 50bd 5e20 a2bd
000000a0: e40a 77be 7790 26be fa79 a63c ab45 88bd
000000b0: 4e22 24bd 5f7a 6cbd 2741 9dbd 9547 f4bd
000000c0: 633d 453d b3a7 debd 3881 20be e98a 23bd
000000d0: ef7f 70bd 9c54 07be 7150 83bd 2285 32bd
000000e0: 1318 5abe d4ed 4ebe bc82 5ebd 2811 85bd
000000f0: 33a5 08be 2373 aebd 8a98 dbbd c71f 28be
00000100: 095a 13be 3b71 ecbd 1461 8bbd d34c 8bbe
00000110: 3711 8d3d c8f6 78bd 26b1 49be b3c6 f5bd
00000120: dd22 8fbc e30b 40bd e6da 80bd 8c2f fabd
00000130: aef1 dfbd 9b50 03be d770 fb3c 1fe3 623c
00000140: 3f50 fb3a 53c2 f0ba 0225 bfbd dca4 293d
00000150: 73a0 c1bd d835 b1bd fe52 8fbd 0cb9 163c
00000160: 9bd9 e0bc e96d bfbd a695 8abd c665 8a3d
00000170: 1323 b8bd f64a 423c bc32 fbbd ca11 5dbc
00000180: fe60 aebb 264c bfbd a4ea 6ebe 1320 d3bd
00000190: b331 7ebd e98c 09be 7bbd aebd f8bb adbd
000001a0: bc2e c9bd 5d14 d4bd 9e39 44bc 309a 96bc
000001b0: f3c8 6bbd 9a45 aabd fd9a cebd a87d 93be
000001c0: f5a9 34bd 1f05 66be 24f8 9dbd 2ebf 85bc
000001d0: 4664 abbd 9021 af39 63fe 39be 9d62 82bd
000001e0: 3e94 aabd 2f53 3dbd 0b38 73bd 08e9 e83b
000001f0: b78d e1bd 63e6 68bd dc10 88bd 965b b9bd

fc2.weight f4 [128, 128]
-0.009707633 -0.042965844 -0.05405505 -0.010239484 -0.10146442 -0.03450157 -0.07238059 -0.11874002
0.05978386 0.031826273 -0.064869985 0.02105831 0.052628323 -0.066008605 0.022521332 -0.07145703
0.049690045 0.05524174 0.016353149 -0.01658006 -0.0010880213 -0.09682144 -0.094219565 -0.045855165
0.05726609 -0.076513305 0.044660896 -0.099849366 -0.06291342 0.0027824119 0.04720507 0.0087944735
-0.046775322 0.03855194 0.043222588 -0.013261956 0.0014188429 -0.0008228468 -0.028955493 0.005603028
-0.024429677 0.030691031 0.026912458 -0.032645304 -0.0008742062 0.010815966 0.07471671 0.046670668
-0.12178336 0.07380286 -0.0048860363 0.008797831 0.030583493 -0.025171198 0.048494004 -0.08300889
-0.0031291023 -0.1283247 0.015337316 -0.0589707 -0.0023133825 -0.04766433 0.034929164 -0.046804763
-0.039705865 -0.094474845 0.008177418 -0.11327847 0.045009274 0.009736162 -0.13280968 -0.019355172
0.042374335 0.010258249 0.06799027 -0.037457325 -0.03164169 -0.029678656 -0.05696834 0.0631303
0.017451126 -0.06551684 -0.017186878 -0.1374749 -0.0823221 0.06472421 0.09680038 0.07292159
0.033476654 -0.011919575 -0.04695566 -0.026171844 -0.029626394 0.020581616 -0.07154729 -0.023325166
0.022136524 0.029128702 0.013482425 -0.051157236 0.0030263504 -0.098881595 0.063460566 -0.063006535
-0.05152732 0.040598713 -0.07537745 0.062539116 -0.07877238 0.050887916 -0.09451673 0.016999211
-0.057661444 -0.07185297 0.052155916 -0.001768874 -0.15478046 0.039566204 -0.03968466 0.051165067
-0.0024105748 -0.13611804 -0.06536162 -0.04403047 -0.0065668533 -0.0061861197 -0.021301553 0.07179718
0.027532384 -0.051096275 -0.051923886 0.06620759 0.06886612 -0.067477904 -0.10864458 -0.07059798
0.11320992 0.059480134 -0.2212934 -0.09790284 0.0418557 -0.03482452 0.03127188 -0.016278975
-0.025968194 0.0278243 0.054073546 -0.028609212 -0.0716634 -0.5498472 -0.42415434 0.030147633
0.035033155 -0.32178608 0.013475735 0.09867271 -0.15102144 -0.028696643 -0.023220861 0.020743053
-0.022697594 -0.0037389765 -0.09826206 0.019316232 -0.09168347 0.07056476 0.10379663 0.055098854
-0.21590967 -0.009461079 0.018356431 -0.07927519 -0.10523256 0.053103264 0.006130046 -0.019899733
-0.12878987 0.0096263755 -0.11030951 -0.011203717 -0.06552416 -0.09742166 -0.07837747 0.09756915
0.036923748 -0.0912499 0.08345864 -0.07189969 -0.10760398 -0.0483909 -0.049643703 0.019331211
-0.2629491 0.106854685 -0.057315174 0.045549743 -0.4186232 -0.32415465 -0.002698226 -0.19271654
0.016703423 -0.012741514 0.0066715246 0.020838002 0.114662506 -0.07486868 -0.25836867 -0.32705486
-0.0034990022 -0.47866946 0.07636723 -0.045132115 -0.058064654 0.03624753 -0.028913558 0.07854549
-0.09780965 -0.011272273 -0.10562663 -0.60442585 -0.005085714 -0.1584389 -0.003702947 -0.43111804
0.010307631 -0.006879882 -0.29812837 -0.076350264 -0.13991496 -0.06348566 -0.017837219 -0.023917757
-0.034953058 -0.13657889 -0.16055071 -0.04881157 0.00802645 0.0586154 0.11855375 -0.09262862
-0.13073714 -0.07494344 -0.037654825 -0.53697294 -0.36879435 -0.006989167 -0.02024509 0.062223677
-0.04412442 -0.19720456 -0.048933625 0.02142279 0.021766592 0.040353477 0.013610095 -0.14385682
00000000: c40c 1fbc f4fc 2fbd d468 5dbd 82c3 27bc
00000010: 94cc cfbd 8551 0dbd 463c 94bd f82d f3bd
00000020: ecdf 743d 445c 023d 8eda 84bd 7a82 ac3c
00000030: cc90 573d 852f 87bd a87e b83c 1058 92bd
00000040: ca87 4b3d 2a45 623d 0af7 853c e8d2 87bc
00000050: f09b 8eba 524a c6bd 30f6 c0bd a0d2 3bbd
00000060: d98f 6a3d 02b3 9cbd 58ee 363d d37d ccbd
00000070: c0d8 80bd 2059 363b 1a5a 413d b216 103c
00000080: 7b97 3fbd a4e8 1d3d 2b0a 313d ad48 59bc
00000090: 78f8 b93a 50b4 57ba 1234 edbc 9b99 b73b
000000a0: bf20 c8bc c26b fb3c 8477 dc3c 15b7 05bd
000000b0: fc2a 65ba 7335 313c 1305 993d be29 3f3d
000000c0: 8e69 f9bd f425 973d 0b1b a0bb c724 103c
000000d0: 3c8a fa3c d433 cebc a6a1 463d 9100 aabd
000000e0: a011 4dbb 8d67 03be 5e49 7b3c 438b 71bd
000000f0: 1e9c 17bb ac3b 43bd e211 0f3d 5ab6 3fbd
00000100: 9ea2 22bd 077c c1bd 94fa 053c 8bfe e7bd
00000110: a55b 383d 6c84 1f3c 43ff 07be bd8e 9ebc
00000120: b690 2d3d 3712 283c 7c3e 8b3d da6c 19bd
00000130: b79a 01bd a720 f3bc a257 69bd 754a 813d
00000140: aaf5 8e3c b12d 86bd 7fcb 8cbc 38c6 0cbe
00000150: 7d98 a8bd 208e 843d 473f c63d ea57 953d
00000160: d11e 093d 524a 43bc 9454 40bd 5666 d6bc
00000170: 0db3 f2bc c79a a83c 6387 92bd 6b14 bfbc
00000180: a857 b53c 519f ee3c 64e5 5c3c 408a 51bd
00000190: bc55 463b 6f82 cabd 9df7 813d 9209 81bd
000001a0: 500e 53bd d64a 263d 7e5f 9abd 8214 803d
000001b0: 6a53 a1bd d96f 503d fd91 c1bd ee41 8b3c
000001c0: 682e 6cbd a627 93bd 71a1 553d 90d9 e7ba
000001d0: c57e 1ebe 2c10 223d 628c 22bd 7692 513d
000001e0: bcfa 1dbb 8762 0bbe 50dc 85bd 4b59 34bd
000001f0: c22e d7bb efb4 cabb 9880 aebc 660a 933d
00000200: 988b e13c 544a 51bd 24ae 54bd d897 873d
00000210: ae09 8d3d db31 8abd 0d81 debd ac95 90bd
00000220: 9ada e73d 71a1 733d bd9a 62be 4981 c8bd
00000230: e270 2b3d 28a4 0ebd f116 003d 7c5b 85bc
00000240: 40bb d4bc c9ef e33c 397c 5d3d de5d eabc
00000250: 43c4 92bd c9c2 0cbf c22a d9be 2bf8 f63c
00000260: ed7e 0f3d 25c1 a4be 54c9 5c3c eb14 ca3d
00000270: 5da5 1abe 3915 ebbc ad39 bebc 56ed a93c
00000280: 4ef0 b9bc 9e09 75bb 9e3d c9bd 133d 9e3c
00000290: 8bc4 bbbd 4284 903d 5493 d43d 56af 613d
000002a0: 6d17 5dbe a402 1bbc 3a60 963c 085b a2bd
000002b0: 2b84 d7bd cf82 593d 8ede c83b c404 a3bc
000002c0: 7ee1 03be f2b7 1d3c f4e9 e1bd cc8f 37bc
000002d0: 8831 86bd 0285 c7bd 5e84 a0bd 56d2 c73d
000002e0: 5b3d 173d 3ae1 babd 5dec aa3d 2540 93bd
000002f0: 7a5f dcbd 8935 46bd 3257 4bbd 7d5c 9e3c
00000300: 44a1 86be a1d6 da3d 51c3 6abd 5e92 3a3d
00000310: c855 d6be 99f7 a5be b8d4 30bb 7c57 45be
00000320: 9ed5 883c c8c1 50bc ce9c da3b 75b4 aa3c
00000330: 2dd4 ea3d c054 99bd e648 84be bc73 a7be
00000340: 844f 65bb 2a14 f5be 6c66 9c3d 74dc 38bd
00000350: 34d5 6dbd 4a78 143d 20dc ecbc 75dc a03d
00000360: 6d50 c8bd 57af 38bc c652 d8bd a7bb 1abf
00000370: 10a6 a6bb cf3d 22be 24ad 72bb 81bb dcbe
00000380: 57e1 283c a270 e1bb 48a4 98be 875d 9cbd
00000390: de45 0fbe c504 82bd 5c1f 92bc 2cef c3bc
000003a0: f02a 0fbd 56db 0bbe 6867 24be a4ee 47bd
000003b0: 5f81 033c b416 703d 4fcc f23d 13b4 bdbd
000003c0: f5df 05be f27b 99bd f23b 1abd 0f77 09bf
000003d0: 9dd2 bcbe 6205 e5bb 08d9 a5bc 41de 7e3d
000003e0: cfbb 34bd feef 49be a06e 48bd d97e af3c
000003f0: da4f b23c b049 253d e0fc 5e3c 344f 13be

fc2.bias f4 [128]
-0.069660395 -0.07854402 -0.05721805 -0.073361404 -0.13475546 -0.16117914 0.008233056 -0.11769932
0.03989534 0.41162166 -0.10515913 -0.128743 -0.16090004 -0.094263524 0.25753832 -0.09010266
-0.021525046 0.11488995 -0.005835023 -0.114798315 -0.13814555 -0.18044704 -0.09868284 -0.025615089
-0.058524814 0.018882982 0.046453416 -0.106159784 -0.14525685 0.24713086 -0.13094719 -0.06830342
0.41857105 -0.058333755 -0.033892743 0.10199008 -0.067410566 -0.086093515 -0.039280392 -0.08964965
-0.06937934 -0.14691436 -0.15433438 -0.041684996 -0.23275828 0.08988018 -0.15431157 -0.021292934
-0.15056634 -0.109913 0.008169261 -0.011350005 -0.117672764 -0.096187726 -0.105632596 0.14543241
-0.09783452 -0.18733709 -0.06072224 -0.076226845 -0.023421511 -0.07951132 -0.044311512 -0.087555885
0.060996503 -0.06420012 0.22400455 -0.06949738 -0.060803637 -0.11088605 -0.07132295 -0.12531415
-0.09720657 -0.011758776 -0.1060426 0.012800735 -0.031438604 0.40632492 -0.12990277 -0.15408704
-0.040647272 -0.09883306 -0.10378266 -0.04206837 -0.06090548 0.020181343 0.040853404 -0.15103088
-0.26456118 -0.027607866 -0.07751881 -0.11218734 0.38919792 -0.22960493 -0.10388967 -0.022863045
0.07877654 -0.05331475 0.1496139 -0.12599485 0.439459 -0.06799381 0.13366276 -0.037910078
-0.0031911412 -0.13338989 -0.04913966 -0.25822905 -0.046074983 -0.019805156 -0.075117 -0.12553693
0.20495166 -0.08750473 -0.0334054 0.34840068 -0.039400574 -0.06910741 -0.121112324 -0.07167526
0.015696082 -0.031083979 -0.08011022 -0.037391905 -0.13563973 -0.0856309 -0.08841789 -0.22202308
00000000: 1caa 8ebd b0db a0bd 795d 6abd 813e 96bd
00000010: 56fd 09be 250c 25be f1e3 063c 570c f1bd
00000020: 4c69 233d 13c0 d23e ac5d d7bd 34d5 03be
00000030: fbc2 24be 3c0d c1bd 10dc 833e be87 b8bd
00000040: 4b55 b0bc 6c4b eb3d b833 bfbb 611b ebbd
00000050: 0776 0dbe 1cc7 38be 3b1a cabd bcd6 d1bc
00000060: b7b7 6fbd 7cb0 9a3c f045 3e3d 4d6a d9bd
00000070: 36be 14be df0f 7d3e 0517 06be aae2 8bbd
00000080: f24e d63e 60ef 6ebd 1ed3 0abd 2de0 d03d
00000090: 8d0e 8abd cc51 b0bd 7ae4 20bd 3c9a b7bd
000000a0: c116 8ebd b870 16be d509 1ebe e3bd 2abd
000000b0: 3058 6ebe 1a13 b83d da03 1ebe 856e aebc
000000c0: 102e 1abe 111a e1bd 5dd8 053c 5ff5 39bc
000000d0: 6bfe f0bd 12fe c4bd e755 d8bd 3cec 143e
000000e0: 775d c8bd 4bd5 3fbe e2b7 78bd d21c 9cbd
000000f0: 78de bfbc d5d6 a2bd fd7f 35bd 8050 b3bd
00000100: 78d7 793d 5a7b 83bd 7361 653e a454 8ebd
00000110: 3c0d 79bd 3a18 e3bd c411 92bd 5a52 00be
00000120: 3d14 c7bd e2a7 40bc dd2c d9bd 2dba 513c
00000130: c4c5 00bd d209 d03e 3b05 05be fec8 1dbe
00000140: c17d 26bd fd68 cabd 018c d4bd e24f 2cbd
00000150: 0678 79bd 5853 a53c e655 273d d7a7 1abe
00000160: 9074 87be e429 e2bc 2fc2 9ebd 7ac2 e5bd
00000170: f344 c73e 8e1d 6bbe 1bc4 d4bd 484b bbbc
00000180: 9855 a13d 9160 5abd 6334 193e cb04 01be
00000190: c500 e13e 5740 8bbd e4de 083e 9947 1bbd
000001a0: 7722 51bb 5c97 08be ab46 49bd 9936 84be
000001b0: 1fb9 3cbd 6c3e a2bc f1d6 99bd c18c 00be
000001c0: d9de 513e ae35 b3bd 1ad4 08bd 9361 b23e
000001d0: 7f62 21bd 3088 8dbd bd09 f8bd 7bca 92bd
000001e0: 1295 803c d4a3 febc d410 a4bd 4128 19bd
000001f0: 24e5 0abe 415f afbd 7014 b5bd 055a 63be

fc3.weight f4 [12, 128]
-0.006928595 -0.0495349 0.08915278 0.034578137 -0.003851938 0.00011169538 0.009854885 -0.033842277
0.18677661 0.21394855 0.077190965 -0.006900884 0.026540525 -0.048628535 -0.09221187 -0.019368917
-0.059569195 -0.12359746 -0.012197787 0.028864153 0.07336746 0.01833977 -0.121255994 -0.033316176
-0.00969668 -0.020682566 0.0008794917 0.2170167 -0.097252056 0.10117538 0.0069186445 0.0056451624
0.20066397 0.023041952 0.0032971213 -0.10986231 -0.023648418 0.005918883 0.009376037 0.009040972
-0.05145993 0.022562623 0.009723833 0.012274449 0.016364507 0.036708385 0.027204774 0.024111126
0.0069453316 0.012535499 -0.0063219545 0.0040329024 0.0016105054 0.009829078 -0.037240524 0.04964923
0.046203427 -0.1234369 -0.004827787 0.022185676 -0.006056078 -0.024375279 0.026283856 0.0001143096
-0.26043034 0.0038503436 -0.05982356 -0.004468196 -0.0072609046 0.018324407 -0.07089414 0.016538102
0.004655931 -0.1325896 -0.01343163 0.0018704291 0.0056740963 0.021895625 -0.069496065 0.0037484013
0.003122591 -0.0555 -0.0242426 0.0041351197 -0.0065286728 -0.023555586 0.08101596 -0.09451543
0.20998587 0.07239574 -0.019164743 -0.0012902897 -0.28433922 0.0051005045 -0.005954505 0.0038925195
-0.16628195 -0.09276702 0.018228872 -0.06498394 0.20895834 -0.008078433 -0.10122993 0.030736465
0.073774695 0.008854602 0.05059492 0.042645946 0.009646067 0.0030137715 -0.022102103 -0.041555457
0.10939224 -0.010550538 -0.004474198 0.10393886 -0.0083799865 -0.004626828 0.07316898 0.00697754
-0.13852355 -0.02493061 -0.053576503 0.0076889405 -0.08129002 -0.23264213 -0.01774896 -0.11779408
0.07147576 0.021179788 -0.07047914 0.07158108 0.12513226 -0.0027075252 0.021051422 0.0025519724
0.14005983 0.21949266 -0.012547942 0.03442547 -0.08016054 -0.020242471 0.009484149 0.0690005
-0.3136271 0.08674092 0.025384368 -0.067100585 0.1834464 -0.0970463 -0.17779557 0.12925026
0.06143789 -0.023635814 0.14651547 -0.12472653 -0.03776278 0.1467461 -0.063425824 0.26726124
0.19113941 -0.015731549 0.10351093 -0.0151582165 0.014307042 -0.0517031 0.066299416 -0.059906956
0.0534112 0.123049565 0.072036564 0.06904546 -0.16474819 -0.10354069 0.02601742 0.13406317
0.026026025 0.07090438 -0.05768658 0.044770725 -0.045623686 -0.057474498 -0.20884056 0.20462449
0.054428704 -0.101856865 0.029785868 -0.0010819524 0.06299303 -0.08830682 0.029493675 0.07059493
-0.13427916 0.051879447 0.27729684 -0.061535176 0.028245406 -0.085170634 0.035895586 -0.04280849
0.004015711 0.05155637 0.05370274 -0.07624043 0.115898386 0.22634292 -0.015141311 -0.0074643907
0.011853128 0.0613691 -0.0050474512 0.11102229 0.076695584 -0.08717686 0.11400492 -0.11409757
0.12165928 -0.033070542 -0.09571754 -0.018090717 0.150005 -0.08599596 0.060093656 0.054216623
-0.014475781 -0.021766298 0.06691052 -0.01321668 0.23369071 0.015646668 0.00913015 -0.07314914
0.040374923 -0.045250572 -0.01301799 0.04476731 0.060613688 0.018519899 -0.00547297 0.009542109
-0.057499126 0.0050625727 0.0060422737 0.15435752 -0.04640723 0.09212432 -0.016328275 0.053667415
-0.004300973 -0.08412199 0.10547247 0.100741595 -0.03765633 -0.042078998 0.06429806 -0.3317373
00000000: 4409 e3bb 1be5 4abd bc95 b63d cea1 0d3d
00000010: cc70 7cbb 003e ea38 6276 213c 339e 0abd
00000020: 5e42 3f3e 5415 5b3e 4c16 9e3d d020 e2bb
00000030: 846b d93c b72e 47bd 94d9 bcbd 90ab 9ebc
00000040: d4fe 73bd aa20 fdbd 3ad9 47bc 8474 ec3c
00000050: ae41 963d 493d 963c 1055 f8bd 8b76 08bd
00000060: d3de 1ebc 7c6e a9bc b08d 663a a039 5e3e
00000070: 162c c7bd 0a35 cf3d ccb5 e23b 0efb b83b
00000080: db7a 4d3e 7ac2 bc3c 8414 583b 7eff e0bd
00000090: 54ba c1bc 30f3 c13b f39d 193c 9620 143c
000000a0: a6c7 52bd 40d5 b83c b650 1f3c c51a 493c
000000b0: dc0e 863c 885b 163d 8cdc de3c b284 c53c
000000c0: aa95 e33b b261 4d3c 6628 cfbb 7026 843b
000000d0: 9817 d33a 240a 213c 8589 18bd fe5c 4b3d
000000e0: ce3f 3d3d 7ccc fcbd 6a32 9ebb bcbe b53c
000000f0: 1072 c6bb aaae c7bc 3e51 d73c 80b9 ef38
00000100: 2057 85be 0c56 7c3b 8d09 75bd f269 92bb
00000110: e2ec edbb 111d 963c f230 91bd ea7a 873c
00000120: c890 983b 91c5 07be 5710 5cbc 3029 f53a
00000130: c5ed b93b 745e b33c f453 8ebd bda7 753b
00000140: 62a4 4c3b f853 63bd 6b98 c6bc e67f 873b
00000150: 7aee d5bb a5f7 c0bc b2eb a53d 4e91 c1bd
00000160: 8906 573e 3844 943d 61ff 9cbc f01e a9ba
00000170: e994 91be 2222 a73b 021e c3bb a419 7f3b
00000180: d145 2abe a3fc bdbd b754 953c 4d16 85bd
00000190: 2df9 553e 675b 04bc a351 cfbd 0acb fb3c
000001a0: 3017 973d e512 113c 9e3c 4f3d 84ad 2e3d
000001b0: 8a0a 1e3c b282 453b 780f b5bc 0e36 2abd
000001c0: 0a09 e03d 2adc 2cbc 4b9c 92bb e6dd d43d
000001d0: 364c 09bc a59c 97bb 9ed9 953d d9a3 e43b
000001e0: 1ed9 0dbe 473b ccbc 0973 5bbd 82f3 fb3b
000001f0: 627b a6bd bd39 6ebe 4466 91bc 063e f1bd
00000200: e261 923d 3c81 ad3c 5e57 90bd 1a99 923d
00000210: ac22 003e bc70 31bb 0874 ac3c fe3e 273b
00000220: d86b 0f3e afc2 603e e295 4dbc b901 0d3d
00000230: 362b a4bd 8ad3 a5bc 6763 1b3c 2250 8d3d
00000240: bb93 a0be 39a5 b13d e1f2 cf3c 086c 89bd
00000250: 60d9 3b3e 36c0 c6bd 0b10 36be 2e5a 043e
00000260: 4ca6 7b3d e59f c1bc 2708 163e 9f70 ffbd
00000270: 25ad 1abd 9c44 163e 66e5 81bd 77d6 883e
00000280: 0dba 433e 73df 80bc 8afd d33d 2b5a 78bc
00000290: 1568 6a3c a1c6 53bd fdc7 873d ff60 75bd
000002a0: b4c5 5a3d 6901 fc3d e887 933d b567 8d3d
000002b0: c0b3 28be 240d d4bd 7c22 d53c db47 093e
000002c0: 8834 d53c 5136 913d c348 6cbd 8261 373d
000002d0: e7df 3abd 616a 6bbd 4dda 55be 1589 513e
000002e0: a2f0 5e3d 559a d0bd 7e01 f43c 4cd0 8dba
000002f0: 7d02 813d 35da b4bd b89c f13c 1394 903d
00000300: 7a80 09be 8b7f 543d daf9 8d3e 4f0c 7cbd
00000310: e962 e73c f16d aebd 4007 133d f557 2fbd
00000320: 3a96 833b c62c 533d 68f7 5b3d f123 9cbd
00000330: 225c ed3d 70c6 673e 4313 78bc d997 f4bb
00000340: 9f33 423c 2a5e 7b3d 1765 a5bb a85f e33d
00000350: 9312 9d3d c889 b2bd 697b e93d fdab e9bd
00000360: 8028 f93d fa74 07bd 8f07 c4bd fc32 94bc
00000370: e99a 193e a61e b0bd c424 763d 4012 5e3d
00000380: d32b 6dbc 3c4f b2bc 6208 893d c68a 58bc
00000390: 9e4c 6f3e 712d 803c a096 153c 37cf 95bd
000003a0: 2d60 253d aa58 39bd 6849 55bc ed5d 373d
000003b0: 0f46 783d 0bb7 973c 9a56 b3bb 8256 1c3c
000003c0: 3484 6bbd f0e3 a53b 44fe c53b e60f 1e3e
000003d0: 8215 3ebd adab bc3d e0c2 85bc 5dd2 5b3d
000003e0: 2def 8cbb 2648 acbd f301 d83d 9c51 ce3d
000003f0: 863d 1abd 075b 2cbd b4ae 833d 79d9 a9be

fc3.bias f4 [12]
0.37992367 0.47353715 0.42588097 0.49724174 0.5493409 0.39791232 0.42037985 0.4787747
0.50490296 0.51121974 0.47451743 0.35716492
00000000: 5b85 c23e 7673 f23e 120d da3e 7896 fe3e
00000010: 9ba1 0c3f 2abb cb3e 073c d73e f521 f53e
00000020: 5241 013f 4cdf 023f f3f3 f23e 52de b63e
