model/coma/5m_vs_6m/4_critic_params.pkl (torch, 216855 bytes, 6 tensors)

fc1.weight f4 [128, 278]
00000000: 572e af3d e92f 113e 4205 b8bd 2fd6 01bf
00000010: 1ba6 13bf 8c21 dc3d 4824 3fbb 2a17 d83c
00000020: dc2a b63d b2d5 6ebd 0821 27bd cbc5 f33d
00000030: 0260 b7be 416a b33d ac12 d83c b5f3 303d
00000040: bf50 95bf f996 863e fe61 1cbd d289 493e
00000050: 466a 713c 4740 083e 7631 c6ba 37a3 b7bd
00000060: 685f ce3d 5089 adbd 4993 763e d275 363e
00000070: 070a 303e 5779 cf3c c954 2a3e 3c0d d63d
00000080: 4187 403d 6748 333e 4878 e63c a860 95bd
00000090: 2707 0cbd a199 2b3e 2170 c8bc ceab cebd
000000a0: 6cc7 553d 982e b2bc 05d6 80bc 766d 573d
000000b0: 4a6c 213a b7e8 653d e0b4 c8bd f62d 083b
000000c0: c76a 423d 7ca0 81bd 5076 0cbd 26d4 d33c
000000d0: cb73 6f3d e41c 313d 84a5 923c f817 5c3d
000000e0: 7ac5 71bb 998c 3a3d c6d6 da3d 5500 ac3d
000000f0: c0e3 233c e4ca ffbd f645 0cbd 17c0 dbbb
00000100: f7fa eabd b761 1d3e 289f 3e3e b921 d0bd
00000110: 874a 553c 7458 cebc cc8b 3ebc 7ae5 2c3d
00000120: c09c 15bd 7ccc 61bc edb2 acbd 2588 f13d
00000130: 0f92 0d3e b3e0 14be bed9 fa3d c716 9abd
00000140: 7b0a 22bc cf9f 643d 8584 c93d 4c32 90bd
00000150: fc62 593d 10d6 00bd b2f7 b3bc dcbf 89bd
00000160: 8897 3abd 0438 35be 9ca1 bebd a26d 87bd
00000170: 831a 4a3d 421b 643d a866 e23d 0b60 853d
00000180: f8a8 ae3c b0f4 313c 7d66 5bbc 123f fd3a
00000190: 1ca0 173d 72a9 303b e712 913d 0c1e 3d3d
000001a0: 43ac 093d f99e 343d 1dd9 0a3d f297 e03b
000001b0: a466 0f3d 492b 01bc 4699 30be 1be2 ed3b
000001c0: d60b b73d 8236 bc3d 4edf 3b3e 275f 833e
000001d0: 9787 9c3e a0f6 673d e4a9 4c3b fc92 f63b
000001e0: 479e 243e cad9 b23c ecc4 8ebc 6beb 123d
000001f0: 2a03 ec3d f2db e539 13bf cc3c 972e f3bc
00000200: c7dd 0dbc d119 81bc 23dc 043e 8948 cbbd
00000210: 0981 57bd 13e6 1bbe b122 46be 90cf 0dbe
00000220: c166 9a3c 5b41 873d d307 043d efd8 60be
00000230: 91c6 cf3c 7a90 c1bb 92e7 fc3c 2e7a a63d
00000240: 5a06 81bd 7741 13be 536b c6bd 922a 4a3e
00000250: 262d 083e d905 443f 9f88 853e e73c 3ebf
00000260: ca66 85be 7a4b 8c3d bb5a 50bd 1be2 083e
00000270: d00b 483a 9e20 4cbd abce 913d f168 d13d
00000280: 7b20 51bc c8a3 79bc 7898 dc3d e0ee ba3d
00000290: 404f ee3a 1c9a 823c 1b49 473d 6e58 da3d
000002a0: 4c01 ea3c 5e67 2ebd f0ce 643c ba4d 353d
000002b0: 7886 d23c a244 d23d 58f9 0f3d 5d29 933d
000002c0: 51db 9dbd da24 7b3c 446a cabd d0a8 a5bd
000002d0: e27a 013e c06a 343e ec62 6ebd 06af 863c
000002e0: f6f0 bbbc 0433 87bd fca8 9ebc 1e8a a03d
000002f0: 4d46 dbbd b064 89bd 480d d33d 1be8 9b3d
00000300: fe45 d0bd 6916 663d 7531 03be c7de 753c
00000310: 47d2 1dbd d0fd 3c3d ae2f 6d3c 0931 0e3d
00000320: 40ed 2939 41ae bebd 8c9f 87bd 04f2 57bd
00000330: ae27 33be b1e8 39bd 8ff8 b5bd 9b34 313d
00000340: 9582 22bd ccaf eb3c b5ab 993d 73db 793d
00000350: f0c5 a33d 8d69 143d f699 dabd 3d2c 1d3d
00000360: 77b8 ebbd 8ee0 0abe 752a 493d f608 d43d
00000370: 2053 b83c 8cae f5bc 4262 dd3c 07e4 553d
00000380: 9926 19bd 94ef 36be 3ca2 ccbd 2f08 09be
00000390: 8d36 283d 63d7 1fbd 543c 62bd dd61 6f3d
000003a0: efd5 933d f529 923d 210a 803d 9391 8b3c
000003b0: 93fa 14bc 715f 8b3d 56eb 8bbd fb13 013d
000003c0: 5b4b 233e 2306 493e 2537 053d ec35 bf3b
000003d0: 9750 883d 64f2 c83c 38c2 6fbd cdd4 e43a
000003e0: f837 a23d de4e 4bbe 45e8 8dbd fce6 5cbc
000003f0: 319c 53be 7105 4c3d 5fd4 783d 6bc1 3fbb
0.085537605 0.14178433 -0.08985378 -0.50717443 -0.5767533 0.10748586 -0.0029165912 0.026378233
0.088948935 -0.058309264 -0.040802985 0.119029604 -0.35815436 0.08760501 0.026376091 0.043201167
-1.1665267 0.26287058 -0.03817939 0.1968148 0.01473481 0.1330577 -0.0015120942 -0.08966678
0.10076791 -0.08473456 0.24079622 0.17818382 0.17191325 0.025326414 0.16633905 0.10451743
0.04700399 0.17508088 0.028133526 -0.07293826 -0.03418651 0.16757824 -0.02446753 -0.10091363
0.052192137 -0.021750733 -0.015727052 0.052594624 0.0006157799 0.056130137 -0.09800124 0.0020779348
0.047465112 -0.06329438 -0.03429252 0.025857996 0.05846004 0.043240443 0.01790119 0.053733796
-0.0036891387 0.04554424 0.10685496 0.08398501 0.01000303 -0.1248987 -0.034246407 -0.0067062485
-0.11473649 0.15369307 0.18615401 -0.10162682 0.013018257 -0.025188662 -0.01163001 0.042211033
-0.03652644 -0.013781663 -0.08432565 0.11793546 0.13825248 -0.14538841 0.12248562 -0.07523876
-0.009890194 0.055816468 0.09839729 -0.07040843 0.053072914 -0.031454146 -0.021968696 -0.067260474
-0.045554668 -0.1769715 -0.09308168 -0.06612708 0.04934169 0.055690058 0.110547364 0.06512459
0.021320805 0.010861561 -0.013391134 0.0019321165 0.037017927 0.0026956466 0.070836835 0.046171233
0.033611547 0.04409692 0.03389846 0.006854051 0.035009995 -0.007883855 -0.17245969 0.00725962
0.089378044 0.09190084 0.18346903 0.25658533 0.30572197 0.056631684 0.0031229192 0.007524846
0.16076003 0.021832366 -0.017427884 0.035869043 0.11524041 0.00043842156 0.024993455 -0.029685302
-0.008658833 -0.01575938 0.129746 -0.09925944 -0.052613292 -0.15224485 -0.19349171 -0.1384871
0.018847825 0.066042624 0.032234024 -0.21957754 0.025363239 -0.0059071155 0.03087214 0.08128773
-0.063000396 -0.14380442 -0.09688439 0.19742802 0.13298473 0.7657142 0.26080796 -0.7431168
-0.26054984 0.068503335 -0.050867777 0.13367502 0.0007631155 -0.049835794 0.07119497 0.10225094
-0.012764092 -0.015236802 0.107712686 0.09127593 0.0018181577 0.015942626 0.048653703 0.10661398
0.028565072 -0.042579047 0.013965353 0.04426358 0.025698885 0.10266997 0.035149902 0.07185624
-0.07707847 0.01532861 -0.0988355 -0.08088839 0.12644532 0.17618847 -0.058199808 0.01644088
-0.022942048 -0.06601527 -0.019367687 0.07838844 -0.10706768 -0.06708658 0.103052676 0.0761263
-0.101696 0.056173716 -0.12811835 0.015006728 -0.038530614 0.046140492 0.0144767 0.034714732
0.00016205478 -0.0931058 -0.06622228 -0.05272104 -0.17495605 -0.045387927 -0.088852994 0.04326306
-0.039675314 0.02877035 0.07503454 0.0610003 0.07996738 0.036233474 -0.10673897 0.038372267
-0.11509793 -0.13562223 0.049112756 0.10353272 0.022500575 -0.029990457 0.027024392 0.052219417
-0.037390325 -0.1786483 -0.09991881 -0.13382028 0.04106765 -0.03902377 -0.055233315 0.05844294
0.07218539 0.07136909 0.06251932 0.017037189 -0.009092945 0.068053134 -0.06831996 0.031513195
0.15946715 0.19631247 0.032523293 0.0058352854 0.06655996 0.024529643 -0.05853483 0.0017458439
0.079208314 -0.19854304 -0.069290675 -0.013482805 -0.20665051 0.049809877 0.060749408 -0.0029259573

fc1.bias f4 [128]
00000000: c6ef 8d3c e576 04be 4391 883c 5ae8 6cbd
00000010: fc43 e6bd d22e 90ba 52b1 cabd 3911 53be
00000020: b297 babd 7632 103c aaee a4bd 3758 06bc
00000030: 22b4 873d 2e84 b8bd ddd2 8abd dc45 50bd
00000040: 96e0 b2bd c0fd 5ebd 7001 54bd 54f1 b1bd
00000050: 7484 38bd c39d 3ebd 1535 74bd 6625 993d
00000060: fec2 4ebd 94de 28be 8850 efbc be8c d8bd
00000070: 0108 c6bd 97b6 903d 6f62 76bd 6646 8bbd
00000080: bf35 07be fe8b 103b 9067 59bd a317 e6bd
00000090: f3af 55bd 8d13 fcbd 9449 0cbe 8c9d 913d
000000a0: c401 c03b 7d01 91bd af41 b9bc a25e f9bc
000000b0: 1441 2cbe ce3c 3bbd eac2 6fbd a6dc abbd
000000c0: 1f36 e5bd a1f7 02bd 9f67 91bd 81f1 4bbd
000000d0: b898 14be 647b 1bbe 08d6 b7bd 2961 94bd
000000e0: 2f50 eebd 9111 53bd a4a8 c9bd ae4b 93bd
000000f0: fc4d d23b 7a21 aabd 2606 ecbd 3c3a cfbd
00000100: 3083 3539 311b 8fbc 244e 1fbd b835 e2bc
00000110: 1a63 83bd bd2f eabd 7ed0 36be 4f0f e23c
00000120: 3567 07be 0e12 33bd 1790 5abd 735c 88bd
00000130: 51d2 a7bc c548 e0bd 90d7 09be f06e bcbd
00000140: c65a a3bd 5328 cabd 2c82 11be 1671 5e3d
00000150: 5c88 fcbd 9adb 10be 1821 b2bd a137 893d
00000160: a234 333b ec3b 98bb a349 c7bd 6102 29bd
00000170: 6918 a5bd bb7e f4bd 39b5 6abd eba6 ffbd
00000180: c9b8 efbd 1135 0c3c 535e a7bd 819f 403d
00000190: 89fd 00be 16a2 37bc 7617 7fb9 6e6a 36be
000001a0: f36b d2bd 231f c6bb 6a61 b9bd 69c5 e3bd
000001b0: 636a 663d 1b1d 2a3d de3d b2bd a50c 19be
000001c0: c1f8 0bbe 352d aebd 294f 20bd b074 403d
000001d0: daf6 3f3d 5787 bcbd 2c59 90bd bd0f a4bd
000001e0: 4fc4 b8bd 4dbf 11bc aa5c 0e3d fa31 68bd
000001f0: aa91 0abd 1604 9b3c 68e4 b9bd 82ee 90bd
0.017326247 -0.1293598 0.016670829 -0.057838775 -0.11243436 -0.0011000282 -0.098971024 -0.20612039
-0.09110965 0.008801093 -0.08053334 -0.008199743 0.066261545 -0.09009586 -0.067785 -0.050847873
-0.087342426 -0.054441214 -0.051759183 -0.08688608 -0.045048192 -0.046537172 -0.059620935 0.07477836
-0.050478928 -0.16491157 -0.029213205 -0.105737194 -0.096694954 0.07066076 -0.060152467 -0.06800537
-0.13204096 0.0022056098 -0.05307728 -0.11234977 -0.05216975 -0.123084165 -0.13699943 0.07110128
0.0058595855 -0.07080362 -0.022614328 -0.030440632 -0.168217 -0.045712285 -0.058535494 -0.08391695
-0.111919634 -0.03197444 -0.07099842 -0.049790863 -0.14511383 -0.15183789 -0.0897637 -0.07245094
-0.116363876 -0.051530425 -0.09846619 -0.07192169 0.006417988 -0.083071664 -0.1152461 -0.10118529
0.00017310376 -0.01746902 -0.03889288 -0.027613506 -0.064153865 -0.114348866 -0.17852971 0.02759519
-0.13222964 -0.04371839 -0.05336007 -0.06658258 -0.020486029 -0.1095138 -0.13461137 -0.09200847
-0.07976298 -0.098709725 -0.14209813 0.054307066 -0.12330696 -0.14146271 -0.086977184 0.067000635
0.0027344604 -0.004645815 -0.09730842 -0.041262034 -0.080612965 -0.119382344 -0.057301734 -0.12483009
-0.11705167 0.008557574 -0.08172288 0.047027115 -0.12596716 -0.011208078 -0.00024327435 -0.17814037
-0.10274496 -0.0060461923 -0.090517834 -0.111216374 0.056253802 0.041531663 -0.087032065 -0.1494623
-0.13669111 -0.08504716 -0.039137993 0.046986282 0.046866275 -0.092055015 -0.07048258 -0.08010814
-0.09021818 -0.008895707 0.03475634 -0.056688286 -0.033830322 0.018922847 -0.09076768 -0.07076742

fc2.weight f4 [128, 128]
00000000: 00e3 a4ba 9b63 523d 9b4f 9ebc 9d61 2d3c
00000010: 0421 acbd 3639 99bc 5530 dcbc 663f d5bc
00000020: 9b92 6f3d a560 773d bcf2 c43b 0d8e 553d
00000030: c05f f93a 48c6 7c3d a0bd de39 6e48 cabd
00000040: 2d2d 54bd d72b bd3c 5cf3 bd3c 75a6 783c
00000050: be9d b1bd d184 a4bd c1e8 d2bb 4663 a73b
00000060: 3389 76bc 428b 89bd 19dc bdbd 43cb 5f3d
00000070: e24b 46bc 1117 9cbd 230d 45bd 9e6f 993c
00000080: 84db a4bd 5a9c a23b d68c 2b3d 7ed0 81bb
00000090: 0e13 acbd b78d 07bd 0d18 4e3b d6a0 263d
000000a0: 462a 863b 3043 4fb9 9b39 86bc a251 99bc
000000b0: a76a 7c3d 93a9 343d 6c3c fabc def3 17bd
000000c0: 470f 543d ad69 b4bd df3c a6bd 2bcc 95bc
000000d0: 2cee 77bd 2c4c a3bd b410 3cbd d4a2 19bd
000000e0: f099 a73c ac52 3e3b 1376 4c3d 0e19 8ebd
000000f0: 8621 103d cf3f a33d 6850 e1bd a4f9 793d
00000100: dfb4 2bbd f629 163b 4002 babd 0115 8dbd
00000110: 9088 87bd 6be1 733d 7c58 223b 7d79 e8bd
00000120: 8d34 54bd 9b1f b3bd 588a cfbc 9c65 4c3b
00000130: 8de5 203c 5f29 93bc 1b98 01bd ab33 90bd
00000140: f6e1 babd c378 16bd 6d9b 973d 630b 44bd
00000150: 59b1 6dbd 6655 64bd 0542 3b3d 3edd aebd
00000160: a9b9 87bd 8d89 51bc 8bf0 713b 8710 c1bd
00000170: de56 303d dfe8 49bc fee8 37bd 678e b43d
00000180: a61e 463d 6e74 263d 10dc bebd dac7 3f3d
00000190: 83b1 8dbd 2631 ca3c fd52 053d a24f 963d
000001a0: 9be8 3abd 7a62 abbc 857d e33c 4c60 123c
000001b0: ff7b f4bb a526 9fbd b882 853c c012 30bd
000001c0: ea10 3dbd 4866 803d b934 b7bd 63db 8a3b
000001d0: 63fe 33bd 6ebe 81bb 958e 1e3d 2af6 bd3c
000001e0: 2cd2 c4bd 1e6b 393d 3d39 a8bd 37b4 843d
000001f0: 0d49 593d 57da c83c c8d8 81bd 06cd a5bd
00000200: 0e34 a53d e055 82bd 617d 2dbd aab6 6f3d
00000210: 76aa 51bd 0c7f fa3b f281 2dbd e430 efbb
00000220: 7825 d13c 8e04 b3bc 6b87 f53b 6cce abba
00000230: 905c ccbd 6308 73bc 920d 373d ab5c 1cbd
00000240: b9f4 d63c 493c abbd 3947 a4bd 7555 5c3d
00000250: bf7e 5abd e203 733d 369f 70bd ed0c 043c
00000260: 2842 0cbc 37c1 48bd 64d5 673d b20f 8e3c
00000270: 7770 86bd f2ac fcbd 1b34 ccbd a2c2 d7bc
00000280: dc44 d0bb caab 913d 2951 1bbe ad37 2b3d
00000290: 1060 96bc 7cc9 983c fa17 4bbd 5a03 2ebe
000002a0: 022a 70bd ac87 963c 08be f7bc 7c9c 7a3d
000002b0: f3b4 09bd ebac 083c a3fc a4bd bab4 963c
000002c0: 7089 a1bb 16d9 cfbc bcce a8bd acfd 4dbb
000002d0: dada f33d b25f 7d3d 854b 91bd e75b 93bd
000002e0: 26cc a8bd 10a9 993c 968e a03d 58e7 01bd
000002f0: 46cd 61bd 074d 42bd 131d 843d ac31 9c3d
00000300: 3a1b 2abb f794 87bb fcce 2cbd 31c5 613d
00000310: 8234 093d 2116 a23c 93cd 66bc 3c41 81bd
00000320: b1fb 94bb b239 2b3d c7e5 68bd d1bc c43c
00000330: 9061 93ba 13e8 ec3c 4858 253d 9f07 5ebd
00000340: 8689 7e3d be26 e7bc c8f2 26bd 707a 253d
00000350: b914 46bd a1d2 903d 1b78 88bd 1d83 94bd
00000360: 5f58 4c3d d79b 91bd bed3 57bd b3ae 0abc
00000370: 04e7 7dbc 1a25 7dbd f9e6 f3bd 9b0c 47bd
00000380: a52d bc3c 8d94 43bc 1a54 ac3a adcc a13c
00000390: 6db1 3cbd 1288 2bbd ced0 bcbd f505 3abd
000003a0: 398c 903d 74c8 1fbd 5201 7dbd 6b09 863d
000003b0: d0f3 813d a75a 563d 8959 813c 1891 20be
000003c0: 6bc9 a6bd 21f0 93bd a1ca 723d 733e d0bd
000003d0: 4421 edbd 2c22 29bd b48a ccbd 7fa8 993c
000003e0: f063 253c 45c7 bcbd 746a e13d 1664 61bd
000003f0: e0a9 153d 3a49 6d3d 640d 7dbc 7604 36bd
-0.0012579858 0.051364522 -0.019325068 0.010582355 -0.08404735 -0.018704038 -0.026878515 -0.026031207
0.058489423 0.0603949 0.0060103815 0.052137423 0.0019025728 0.061712533 0.0004248442 -0.09877096
-0.051800895 0.023092194 0.023187332 0.015176405 -0.08672665 -0.08033145 -0.006436438 0.00510827
-0.015047359 -0.067160144 -0.09270496 0.054637205 -0.012103053 -0.07621587 -0.04810823 0.018729981
-0.08049682 0.004962486 0.04188236 -0.003961622 -0.08402072 -0.033094134 0.003144744 0.04068073
0.004094395 -0.00019766088 -0.01638489 -0.018715683 0.06162515 0.04410703 -0.03054639 -0.037097804
0.051772382 -0.088092186 -0.08117079 -0.018285831 -0.060529873 -0.07973513 -0.045914367 -0.0375088
0.020459145 0.0029040975 0.04991729 -0.069383726 0.03518822 0.07971155 -0.110016644 0.06102909
-0.04192054 0.0022913194 -0.090824604 -0.06888772 -0.06617844 0.059541147 0.002477198 -0.11351297
-0.05180793 -0.08746263 -0.025334522 0.0031188494 0.009820354 -0.017964063 -0.0316392 -0.07041105
-0.0912513 -0.03673626 0.07402692 -0.04786242 -0.05803046 -0.055745505 0.045717258 -0.08538292
-0.06627209 -0.012789142 0.0036917056 -0.094269805 0.043051593 -0.012323587 -0.044899933 0.088162236
0.048369072 0.04063838 -0.09319317 0.046821453 -0.06918623 0.024681639 0.032549847 0.073394075
-0.045631986 -0.02092098 0.027769813 0.008934092 -0.0074610705 -0.07771043 0.016297683 -0.04298663
-0.04615871 0.062695086 -0.08945603 0.0042375787 -0.043943774 -0.0039594686 0.038710196 0.02318867
-0.096103996 0.04526817 -0.08214042 0.06479686 0.053048182 0.024518175 -0.06340176 -0.08095746
0.08066569 -0.063640356 -0.0423559 0.05852381 -0.051187955 0.0076445397 -0.042360254 -0.0072995294
0.025530562 -0.021852758 0.0074929497 -0.0013107783 -0.099785924 -0.0148335425 0.044690676 -0.038174313
0.02623974 -0.08361108 -0.08021397 0.053792436 -0.05334353 0.059329875 -0.058745585 0.008059722
-0.008560695 -0.04901239 0.05659999 0.017341468 -0.0656442 -0.12337674 -0.09970876 -0.026337925
-0.006355865 0.07112844 -0.15167679 0.041801143 -0.018356353 0.018650763 -0.049583413 -0.16993466
-0.05863381 0.01837524 -0.030241981 0.06118439 -0.033619832 0.008342008 -0.08055999 0.018396724
-0.004929714 -0.02537207 -0.082425565 -0.0031431718 0.11906977 0.06185884 -0.07094482 -0.07195263
-0.08242063 0.018757373 0.07839696 -0.031714767 -0.055127405 -0.04743674 0.06450858 0.07626662
-0.002595617 -0.004137631 -0.042189583 0.055119697 0.03349734 0.019785943 -0.014087099 -0.063112706
-0.0045466055 0.04180307 -0.056859758 0.024015816 -0.0011244286 0.028919255 0.040367395 -0.054206487
0.06214287 -0.028216716 -0.040758878 0.04039997 -0.048359606 0.07071424 -0.06663533 -0.072515704
0.049888965 -0.07109802 -0.052692167 -0.008464503 -0.015496973 -0.06180296 -0.11909289 -0.048596006
0.022970984 -0.011937273 0.0013147623 0.019750917 -0.046067644 -0.041877814 -0.09219514 -0.045415837
0.07057995 -0.039009526 -0.061768837 0.06544765 0.06345332 0.052332547 0.015789764 -0.15680349
-0.08143886 -0.07223535 0.059275273 -0.10168161 -0.115786105 -0.041292354 -0.09987393 0.018757103
0.010094628 -0.09217695 0.110066324 -0.05502709 0.03653896 0.057931162 -0.015445087 -0.044437848

fc2.bias f4 [128]
00000000: e4e9 5fbd cfa1 46bd f978 d43d a059 ae3d
00000010: 76f5 debd 4553 d9bd 21eb ccbd fbfd 5ebd
00000020: a02a 13bd 8360 97bb 44d6 b2bc 6c20 3f3e
00000030: f65e 8abd 2442 863e 1081 f3bd cc4e 6d3d
00000040: 6ef6 143e 0199 fabd d793 2dbc 80c7 3cbd
00000050: b548 513e 145c dfba b591 063e 7476 4e3e
00000060: c023 3e3d 0bc3 08be 4e31 31bd 020a df3d
00000070: ab44 383e 17b6 623e 9ec9 5bbc aafc edbd
00000080: 9473 2b3c 0a1d 0bbe 03d5 0dbe 4513 9abc
00000090: 1640 54bc f520 f1bd 206b 3dba 1a68 0dbe
000000a0: 6431 d93c 1e11 46bc a529 f33c 0d97 783e
000000b0: fc3e d1bd 862f cf3c c999 59bd 4596 5d3c
000000c0: d70c d7bd be56 56bd 4f75 c1bd 1d61 c2bd
000000d0: 579c efbc dd41 323c 89bd f5bd 4258 c8bd
000000e0: 1784 e83d fbb8 84bd e0e1 2cbb d82e 033e
000000f0: f430 ee3c e443 a2bd 3a2d b6bd 5d87 ed3d
00000100: 8f51 fcbd 887f 1e3e b58a afbd e33e 24bd
00000110: f63e ebbb 6767 253d 8cb2 873e b3af 5a3e
00000120: a3de a43d 3965 b73b 7ae5 f0bc f03b 8bbd
00000130: 993c 2fbd 64ed 39bd 8fc1 6bbd c3fe af3d
00000140: ff9e 33bd dd25 e0bd d442 e9bc e83d 43be
00000150: 2c06 8cbc d395 d8bd 39fb 1ebe 4b37 90bd
00000160: 6648 18bd eb7e 963c 61e3 2f3e b28e a5bd
00000170: 20c4 bfbc 7a39 0c3e 3e4f 3dbd cd6b 9ebd
00000180: fdd4 25be 3ee1 3dbd c2d2 46bd b994 47bd
00000190: 15fb 98bd 6aff a8bd 4ced 343d e253 f8bd
000001a0: a6d1 c0bc 1916 8dbd d0a1 08be 6869 cabd
000001b0: 5fc8 4dbd f85b b8bc b1fc ee3d f639 2e3c
000001c0: ab51 d0bd ae31 8a3e 948b 433d 83bf 4bbd
000001d0: ea2e c7bd 48ff 0abd 59ef 14be 9f7f 19be
000001e0: 5760 39be 780d adbc 37fa 523d b4ec 88bd
000001f0: ec15 10be 4177 db3d c62a 333e 8046 ccbb
-0.054666415 -0.048494156 0.10374636 0.08513188 -0.10886662 -0.106115855 -0.10005785 -0.054441433
-0.035929322 -0.0046196594 -0.021830685 0.18664712 -0.067563936 0.26222336 -0.11889851 0.057936475
0.1454713 -0.122362144 -0.01059433 -0.046088696 0.20437892 -0.0017040991 0.1314152 0.20162374
0.046420813 -0.13355653 -0.04325991 0.10890581 0.17994945 0.22139774 -0.0134147685 -0.116204575
0.010464568 -0.13585296 -0.13850789 -0.018808017 -0.012954732 -0.11773864 -0.00072257407 -0.13809243
0.02651281 -0.012089042 0.029682944 0.24276371 -0.102170914 0.025291216 -0.053125177 0.013524597
-0.10500496 -0.052328818 -0.09446203 -0.09491179 -0.029249353 0.010879961 -0.119990416 -0.09782459
0.11353319 -0.06480595 -0.002637975 0.12810838 0.029076077 -0.07923105 -0.08895345 0.11598084
-0.123202436 0.15478337 -0.08571378 -0.040099036 -0.0071791364 0.040381815 0.26503408 0.21356086
0.08050277 0.0055967835 -0.029406298 -0.067985415 -0.0427824 -0.04539241 -0.05755764 0.08593514
-0.043852802 -0.10944722 -0.028474249 -0.19066584 -0.017092787 -0.10575452 -0.15525521 -0.07041796
-0.03717842 0.018371066 0.17176582 -0.080838576 -0.02340895 0.136938 -0.04621815 -0.07735405
-0.1619453 -0.046357386 -0.048540838 -0.048725817 -0.07469765 -0.08251841 0.044171616 -0.121253744
-0.023537468 -0.068889804 -0.13342977 -0.09883386 -0.050239917 -0.022504792 0.11669291 0.010633936
-0.10171827 0.26991028 0.047740534 -0.049743187 -0.09725745 -0.03393486 -0.14544429 -0.1499009
-0.18103157 -0.021124586 0.051508155 -0.066857725 -0.14070863 0.10716105 0.17496786 -0.00623399

fc3.weight f4 [12, 128]
00000000: 4125 0cbc d9f0 893b 1c29 a33d 2fb8 c33d
00000010: e868 cd3b 7e83 8d3d cebb 6a3d 01f8 a8bc
00000020: ca62 bbbd d746 243d 3416 183d 42cc 303e
00000030: 43f2 153c 6190 153e 8029 0dbb a0a0 a4bd
00000040: c094 bebc 28c3 3abd 8816 943a 05e9 1a3d
00000050: a5c3 24be 6a63 2abe 4a64 4ebb 5795 48be
00000060: 7c79 9d3d fb45 36bd c0e2 cebc 9609 02be
00000070: aee5 843d 90f2 c33d 721d 1a3d d580 49bd
00000080: b720 983d 7ad0 25bd b95e ba3d f046 23ba
00000090: b83c 933c 766b 913c 3075 67bb b2cc 4abc
000000a0: 0b81 40bd 2c55 a0bd 66a1 a83d 15ba ce3d
000000b0: 58e8 323d bbea 02be 7005 2e3b 958c 753d
000000c0: 5c82 36bd 18bc a9bc ff5b 843b e070 0f3a
000000d0: 3a10 003c 47a1 d13c 08ad 653b 12a8 473d
000000e0: 9e68 cfbd 85f8 b53c 0606 93bd d826 e83d
000000f0: 8073 593d 064a 07bc e9c5 a43d 2a54 ed3d
00000100: 0a42 9abb 768c 0d3e 8c83 cb3a 34ea 983d
00000110: de6a 63bb 81d3 803d e21b 1b3e 4172 503d
00000120: 465b 14be 953e a5bd 0cdb 2b3b 43fd d8bd
00000130: f2cc 3a3d 001d 01bc c65e 6e3d 27dd 51bd
00000140: 4507 49bd d5b4 c8bd 7af3 af3c d7f4 80bd
00000150: 426f 47bb 8adf aa3c 274e 01bc aa32 55bb
00000160: 414e c93d 2ca2 cdbd 804a 3abe 2ccc 31bd
00000170: 9884 70bb 6cb3 04be b7f3 37bd 12a0 80bc
00000180: 9f5b 4e3b fc01 0fbb 5c31 c43b 8c5a 69bb
00000190: 562b a8bc dea5 713d 71ed 213d c8db fe3a
000001a0: 340c 7a3b 7a49 853c 78bc 75bd be89 ab3d
000001b0: dfba c23c 0087 67b8 62bb 1cbe 656d ab3d
000001c0: 772b 323d 5c0e f53d 68ef 01bb 339d 98bb
000001d0: 337c b23c 87b9 473e 26f1 08be 6c9d d33c
000001e0: ef30 d83d 5479 8abb 5e31 8dbd 5454 09bd
000001f0: 63f7 27bc f0ec 1cbe 1d0f ff3d 3fe6 bebd
00000200: ca2c 04bd 9613 683d 8794 4f3c 02dc 083e
00000210: 099a c4bc 719d 3ebe 9f2b 313d bf62 413d
00000220: 94d7 2cbe dc6a 473e c8bc 8ebc 6795 7f3d
00000230: bae5 82bd 8c88 7b3d ae09 97bd d3d3 0a3e
00000240: f3f8 053d d698 c1bd d42d 4b3c da15 86bd
00000250: 98b6 c83d ec41 fd3a ac07 3c3c c035 3d3e
00000260: 1043 7c3d f846 8f3e f825 19bd b693 673d
00000270: 4eb5 123e f578 233e 9a0f 1abd b65a 6c3c
00000280: 9e9a 70bd dba2 22bd 1d38 3dbe 1e5d 0abd
00000290: ff88 d13d 58f3 87bd 3952 b2bc 5602 c5bc
000002a0: 90d3 39bd 3c7e c6bd fc6f 223d c0f3 d63d
000002b0: 6cf3 b9bd b199 05be 9c43 c53c 242a 863d
000002c0: dd7f 943d 5d9c 863c 2c65 12bd 6493 50bd
000002d0: ad9e 86ba ef58 a93d d0a2 193d 6cb6 a1bd
000002e0: 7781 23be 6a79 743d d651 a83d 5648 ff3b
000002f0: f000 203c f88f a4b9 f4bb 57bb 54c5 d53d
00000300: fcaa 1abd 75c9 74bd 1c2b 88bd 98ec 9ebb
00000310: 3baa 933d f8e0 c3bd ebfc 213e 1261 6bbc
00000320: b082 14be d33e 3f3e d59e f33c 00c8 2d37
00000330: 186f 993d 9a45 f83d 0522 50bd 581f 0c3d
00000340: 4141 cd3b 28b5 9a39 275f 843d 7013 0cbb
00000350: 337a 223e 73ed a93d 2011 14bd ebf4 6ebd
00000360: 20df b63d 1885 69bd e35c 0a3e 69cd 8fbd
00000370: cd72 15bd f34d 2dbd 9cc5 38bc 9c19 4ebe
00000380: aec2 ecbd 3bcb 6cbd ee52 0e3d dda5 8bbd
00000390: b47d 583e 064b d6bc e96d 963d c1e1 d23c
000003a0: 88fb 3c3d 09cf 56bd 4d87 1fbe 7256 10bd
000003b0: dac3 e5bb a19a 1ebd fb3a e13c 3050 35be
000003c0: 40a6 8ebd 2d83 2e3e 24c2 b23b 900a 22bd
000003d0: 8be3 52bd ea85 86bd baf7 eabd 867f 3fbd
000003e0: bebf 76bd 9c8f ab3d dab2 873c 4f40 973c
000003f0: a20b 93bd ca2f 9e3d 1b75 1d3e bb62 3e3c
-0.008553804 0.0042096195 0.07966825 0.095566146 0.0062686093 0.06909846 0.05730801 -0.02062607
-0.09149702 0.04010662 0.03713055 0.17265418 0.009151998 0.14605857 -0.0021539629 -0.08038449
-0.023264289 -0.04559627 0.0011298219 0.03781988 -0.16090257 -0.16639486 -0.0031492882 -0.19588219
0.07689187 -0.044500332 -0.025254607 -0.12698969 0.064891204 0.095677495 0.037625737 -0.04919513
0.07428115 -0.040482022 0.09100098 -0.0006228527 0.017973289 0.017751437 -0.0035317652 -0.012377905
-0.046998065 -0.07828745 0.08233909 0.10094086 0.04367861 -0.12784855 0.0026553534 0.059948523
-0.044557914 -0.020719573 0.004039287 0.0005471837 0.007816369 0.025589598 0.0035045762 0.04874427
-0.10127376 0.02221323 -0.07178883 0.11335534 0.053088665 -0.008257395 0.08045561 0.11588319
-0.0047075795 0.13823113 0.0015526875 0.07466546 -0.003470115 0.06290341 0.15147355 0.05089021
-0.14487943 -0.08068577 0.0026223091 -0.10595181 0.045605607 -0.007880449 0.05819585 -0.051236298
-0.0490792 -0.09800116 0.021478403 -0.062966995 -0.0030431305 0.020858545 -0.007892168 -0.003253142
0.09829379 -0.100406975 -0.18192482 -0.043407604 -0.0036700126 -0.12959069 -0.04491016 -0.015701327
0.0031487716 -0.002182125 0.0059873294 -0.0035606949 -0.020528477 0.058996074 0.039533082 0.0019444162
0.0038154246 0.016270388 -0.05999419 0.083758816 0.023770748 -5.520042e-05 -0.15305856 0.08370475
0.043498483 0.119656295 -0.0019826535 -0.0046574115 0.021787738 0.19504367 -0.13373241 0.0258319
0.10556208 -0.004225889 -0.06894182 -0.033527687 -0.010251853 -0.1532476 0.124540545 -0.0932126
-0.032269277 0.056659304 0.012669689 0.13365176 -0.023999231 -0.18614747 0.04325449 0.047213312
-0.16879112 0.19474357 -0.017424002 0.06239834 -0.06391473 0.061409518 -0.07374893 0.13557367
0.03270812 -0.09452979 0.012401063 -0.065471366 0.09800452 0.0019322014 0.0114764385 0.18477535
0.061587393 0.27983832 -0.037389725 0.056537353 0.14326975 0.1596411 -0.037612535 0.014425924
-0.058741204 -0.039706092 -0.18478437 -0.03378021 0.10231208 -0.06638211 -0.021767722 -0.024048965
-0.045367777 -0.09692046 0.039657578 0.104957104 -0.09079632 -0.1304691 0.02408009 0.065510064
0.072509505 0.016431982 -0.035741016 -0.050921813 -0.0010270678 0.08268916 0.037508786 -0.07896122
-0.15967356 0.059686102 0.08218734 0.0077906055 0.0097658485 -0.00031387783 -0.0032918425 0.10438028
-0.03776072 -0.059762437 -0.066488475 -0.0048499815 0.07210203 -0.09564394 0.15819137 -0.014366405
-0.14502978 0.1867631 0.029738823 1.035817e-05 0.074918926 0.121226504 -0.050813694 0.03420958
0.0062638824 0.0002950814 0.06463461 -0.002137389 0.15866928 0.08297243 -0.036149144 -0.05833904
0.089292765 -0.057011694 0.13511996 -0.07021601 -0.036486436 -0.042310666 -0.0112775825 -0.20126957
-0.1156057 -0.057811003 0.034747057 -0.06818745 0.21141702 -0.02615882 0.073451824 0.025742413
0.046138316 -0.052443538 -0.15578957 -0.03523869 -0.0070118727 -0.038721684 0.027493944 -0.1770637
-0.069653034 0.17042227 0.0054552723 -0.039560854 -0.051486533 -0.06568511 -0.11473031 -0.046752475
-0.060241453 0.08377001 0.016564775 0.018463282 -0.07179953 0.07723959 0.15376703 0.011620219

fc3.bias f4 [12]
00000000: 61b6 693e b27a a03e 0ef5 873e 99db 8f3e
00000010: 71d4 a73e 2316 8b3e a499 543e 81bc 3e3e
00000020: 360a 433e 9fdf 413e eb1c 6e3e ffdd 623e
0.22823478 0.3134361 0.2655415 0.28097227 0.32779267 0.27165326 0.20761734 0.18626596
0.19046864 0.18932961 0.23253219 0.22154997
